…
I0708 16:37:37.741168 29489 net.cpp:49] Initializing net from parameters: 
name: "ResNet50_largeFOV"
state {
  phase: TRAIN
}
layer {
  name: "data"
  type: "ImageSegData"
  top: "data"
  top: "label"
  include {
    phase: TRAIN
  }
  transform_param {
    mirror: true
    crop_size: 321
    mean_value: 103.939
    mean_value: 116.779
    mean_value: 123.68
    scale_factors: 0.5
  }
  image_data_param {
    source: "/mnt/sdd1/hszhao/cityscapes/list/fine_train.txt"
    batch_size: 10
    shuffle: true
    root_folder: "/mnt/sdd1/hszhao/cityscapes/"
    label_type: PIXEL
  }
}
layer {
  name: "conv1_1_3x3_s2"
  type: "Convolution"
  bottom: "data"
  top: "conv1_1_3x3_s2"
  param {
    lr_mult: 1
    decay_mult: 1
  }
  convolution_param {
    num_output: 64
    bias_term: false
    pad: 1
    kernel_size: 3
    stride: 2
    weight_filler {
      type: "msra"
    }
  }
}
layer {
  name: "conv1_1_3x3_s2/bn"
  type: "BN"
  bottom: "conv1_1_3x3_s2"
  top: "conv1_1_3x3_s2"
  param {
    lr_mult: 1
    decay_mult: 0
  }
  param {
    lr_mult: 1
    decay_mult: 0
  }
  param {
    lr_mult: 0
    decay_mult: 0
  }
  param {
    lr_mult: 0
    decay_mult: 0
  }
  bn_param {
    scale_filler {
      type: "constant"
      value: 1
    }
    shift_filler {
      type: "constant"
      value: 0
    }
    moving_average: true
    decay: 0.2
  }
}
layer {
  name: "conv1_1_3x3_s2/relu"
  type: "ReLU"
  bottom: "conv1_1_3x3_s2"
  top: "conv1_1_3x3_s2"
}
layer {
  name: "conv1_2_3x3"
  type: "Convolution"
  bottom: "conv1_1_3x3_s2"
  top: "conv1_2_3x3"
  param {
    lr_mult: 1
    decay_mult: 1
  }
  convolution_param {
    num_output: 64
    bias_term: false
    pad: 1
    kernel_size: 3
    stride: 1
    weight_filler {
      type: "msra"
    }
  }
}
layer {
  name: "conv1_2_3x3/bn"
  type: "BN"
  bottom: "conv1_2_3x3"
  top: "conv1_2_3x3"
  param {
    lr_mult: 1
    decay_mult: 0
  }
  param {
    lr_mult: 1
    decay_mult: 0
  }
  param {
    lr_mult: 0
    decay_mult: 0
  }
  param {
    lr_mult: 0
    decay_mult: 0
  }
  bn_param {
    scale_filler {
      type: "constant"
      value: 1
    }
    shift_filler {
      type: "constant"
      value: 0
    }
    moving_average: true
    decay: 0.2
  }
}
layer {
  name: "conv1_2_3x3/relu"
  type: "ReLU"
  bottom: "conv1_2_3x3"
  top: "conv1_2_3x3"
}
layer {
  name: "conv1_3_3x3"
  type: "Convolution"
  bottom: "conv1_2_3x3"
  top: "conv1_3_3x3"
  param {
    lr_mult: 1
    decay_mult: 1
  }
  convolution_param {
    num_output: 128
    bias_term: false
    pad: 1
    kernel_size: 3
    stride: 1
    weight_filler {
      type: "msra"
    }
  }
}
layer {
  name: "conv1_3_3x3/bn"
  type: "BN"
  bottom: "conv1_3_3x3"
  top: "conv1_3_3x3"
  param {
    lr_mult: 1
    decay_mult: 0
  }
  param {
    lr_mult: 1
    decay_mult: 0
  }
  param {
    lr_mult: 0
    decay_mult: 0
  }
  param {
    lr_mult: 0
    decay_mult: 0
  }
  bn_param {
    scale_filler {
      type: "constant"
      value: 1
    }
    shift_filler {
      type: "constant"
      value: 0
    }
    moving_average: true
    decay: 0.2
  }
}
layer {
  name: "conv1_3_3x3/relu"
  type: "ReLU"
  bottom: "conv1_3_3x3"
  top: "conv1_3_3x3"
}
layer {
  name: "pool1_3x3_s2"
  type: "Pooling"
  bottom: "conv1_3_3x3"
  top: "pool1_3x3_s2"
  pooling_param {
    pool: MAX
    kernel_size: 3
    stride: 2
    pad: 1
  }
}
layer {
  name: "conv2_1_1x1_reduce"
  type: "Convolution"
  bottom: "pool1_3x3_s2"
  top: "conv2_1_1x1_reduce"
  param {
    lr_mult: 1
    decay_mult: 1
  }
  convolution_param {
    num_output: 64
    bias_term: false
    pad: 0
    kernel_size: 1
    stride: 1
    weight_filler {
      type: "msra"
    }
  }
}
layer {
  name: "conv2_1_1x1_reduce/bn"
  type: "BN"
  bottom: "conv2_1_1x1_reduce"
  top: "conv2_1_1x1_reduce"
  param {
    lr_mult: 1
    decay_mult: 0
  }
  param {
    lr_mult: 1
    decay_mult: 0
  }
  param {
    lr_mult: 0
    decay_mult: 0
  }
  param {
    lr_mult: 0
    decay_mult: 0
  }
  bn_param {
    scale_filler {
      type: "constant"
      value: 1
    }
    shift_filler {
      type: "constant"
      value: 0
    }
    moving_average: true
    decay: 0.2
  }
}
layer {
  name: "conv2_1_1x1_reduce/relu"
  type: "ReLU"
  bottom: "conv2_1_1x1_reduce"
  top: "conv2_1_1x1_reduce"
}
layer {
  name: "conv2_1_3x3"
  type: "Convolution"
  bottom: "conv2_1_1x1_reduce"
  top: "conv2_1_3x3"
  param {
    lr_mult: 1
    decay_mult: 1
  }
  convolution_param {
    num_output: 64
    bias_term: false
    pad: 1
    kernel_size: 3
    stride: 1
    weight_filler {
      type: "msra"
    }
  }
}
layer {
  name: "conv2_1_3x3/bn"
  type: "BN"
  bottom: "conv2_1_3x3"
  top: "conv2_1_3x3"
  param {
    lr_mult: 1
    decay_mult: 0
  }
  param {
    lr_mult: 1
    decay_mult: 0
  }
  param {
    lr_mult: 0
    decay_mult: 0
  }
  param {
    lr_mult: 0
    decay_mult: 0
  }
  bn_param {
    scale_filler {
      type: "constant"
      value: 1
    }
    shift_filler {
      type: "constant"
      value: 0
    }
    moving_average: true
    decay: 0.2
  }
}
layer {
  name: "conv2_1_3x3/relu"
  type: "ReLU"
  bottom: "conv2_1_3x3"
  top: "conv2_1_3x3"
}
layer {
  name: "conv2_1_1x1_increase"
  type: "Convolution"
  bottom: "conv2_1_3x3"
  top: "conv2_1_1x1_increase"
  param {
    lr_mult: 1
    decay_mult: 1
  }
  convolution_param {
    num_output: 256
    bias_term: false
    pad: 0
    kernel_size: 1
    stride: 1
    weight_filler {
      type: "msra"
    }
  }
}
layer {
  name: "conv2_1_1x1_increase/bn"
  type: "BN"
  bottom: "conv2_1_1x1_increase"
  top: "conv2_1_1x1_increase"
  param {
    lr_mult: 1
    decay_mult: 0
  }
  param {
    lr_mult: 1
    decay_mult: 0
  }
  param {
    lr_mult: 0
    decay_mult: 0
  }
  param {
    lr_mult: 0
    decay_mult: 0
  }
  bn_param {
    scale_filler {
      type: "constant"
      value: 1
    }
    shift_filler {
      type: "constant"
      value: 0
    }
    moving_average: true
    decay: 0.2
  }
}
layer {
  name: "conv2_1_1x1_proj"
  type: "Convolution"
  bottom: "pool1_3x3_s2"
  top: "conv2_1_1x1_proj"
  param {
    lr_mult: 1
    decay_mult: 1
  }
  convolution_param {
    num_output: 256
    bias_term: false
    pad: 0
    kernel_size: 1
    stride: 1
    weight_filler {
      type: "msra"
    }
  }
}
layer {
  name: "conv2_1_1x1_proj/bn"
  type: "BN"
  bottom: "conv2_1_1x1_proj"
  top: "conv2_1_1x1_proj"
  param {
    lr_mult: 1
    decay_mult: 0
  }
  param {
    lr_mult: 1
    decay_mult: 0
  }
  param {
    lr_mult: 0
    decay_mult: 0
  }
  param {
    lr_mult: 0
    decay_mult: 0
  }
  bn_param {
    scale_filler {
      type: "constant"
      value: 1
    }
    shift_filler {
      type: "constant"
      value: 0
    }
    moving_average: true
    decay: 0.2
  }
}
layer {
  name: "conv2_1"
  type: "Eltwise"
  bottom: "conv2_1_1x1_proj"
  bottom: "conv2_1_1x1_increase"
  top: "conv2_1"
  eltwise_param {
    operation: SUM
  }
}
layer {
  name: "conv2_1/relu"
  type: "ReLU"
  bottom: "conv2_1"
  top: "conv2_1"
}
layer {
  name: "conv2_2_1x1_reduce"
  type: "Convolution"
  bottom: "conv2_1"
  top: "conv2_2_1x1_reduce"
  param {
    lr_mult: 1
    decay_mult: 1
  }
  convolution_param {
    num_output: 64
    bias_term: false
    pad: 0
    kernel_size: 1
    stride: 1
    weight_filler {
      type: "msra"
    }
  }
}
layer {
  name: "conv2_2_1x1_reduce/bn"
  type: "BN"
  bottom: "conv2_2_1x1_reduce"
  top: "conv2_2_1x1_reduce"
  param {
    lr_mult: 1
    decay_mult: 0
  }
  param {
    lr_mult: 1
    decay_mult: 0
  }
  param {
    lr_mult: 0
    decay_mult: 0
  }
  param {
    lr_mult: 0
    decay_mult: 0
  }
  bn_param {
    scale_filler {
      type: "constant"
      value: 1
    }
    shift_filler {
      type: "constant"
      value: 0
    }
    moving_average: true
    decay: 0.2
  }
}
layer {
  name: "conv2_2_1x1_reduce/relu"
  type: "ReLU"
  bottom: "conv2_2_1x1_reduce"
  top: "conv2_2_1x1_reduce"
}
layer {
  name: "conv2_2_3x3"
  type: "Convolution"
  bottom: "conv2_2_1x1_reduce"
  top: "conv2_2_3x3"
  param {
    lr_mult: 1
    decay_mult: 1
  }
  convolution_param {
    num_output: 64
    bias_term: false
    pad: 1
    kernel_size: 3
    stride: 1
    weight_filler {
      type: "msra"
    }
  }
}
layer {
  name: "conv2_2_3x3/bn"
  type: "BN"
  bottom: "conv2_2_3x3"
  top: "conv2_2_3x3"
  param {
    lr_mult: 1
    decay_mult: 0
  }
  param {
    lr_mult: 1
    decay_mult: 0
  }
  param {
    lr_mult: 0
    decay_mult: 0
  }
  param {
    lr_mult: 0
    decay_mult: 0
  }
  bn_param {
    scale_filler {
      type: "constant"
      value: 1
    }
    shift_filler {
      type: "constant"
      value: 0
    }
    moving_average: true
    decay: 0.2
  }
}
layer {
  name: "conv2_2_3x3/relu"
  type: "ReLU"
  bottom: "conv2_2_3x3"
  top: "conv2_2_3x3"
}
layer {
  name: "conv2_2_1x1_increase"
  type: "Convolution"
  bottom: "conv2_2_3x3"
  top: "conv2_2_1x1_increase"
  param {
    lr_mult: 1
    decay_mult: 1
  }
  convolution_param {
    num_output: 256
    bias_term: false
    pad: 0
    kernel_size: 1
    stride: 1
    weight_filler {
      type: "msra"
    }
  }
}
layer {
  name: "conv2_2_1x1_increase/bn"
  type: "BN"
  bottom: "conv2_2_1x1_increase"
  top: "conv2_2_1x1_increase"
  param {
    lr_mult: 1
    decay_mult: 0
  }
  param {
    lr_mult: 1
    decay_mult: 0
  }
  param {
    lr_mult: 0
    decay_mult: 0
  }
  param {
    lr_mult: 0
    decay_mult: 0
  }
  bn_param {
    scale_filler {
      type: "constant"
      value: 1
    }
    shift_filler {
      type: "constant"
      value: 0
    }
    moving_average: true
    decay: 0.2
  }
}
layer {
  name: "conv2_2"
  type: "Eltwise"
  bottom: "conv2_1"
  bottom: "conv2_2_1x1_increase"
  top: "conv2_2"
  eltwise_param {
    operation: SUM
  }
}
layer {
  name: "conv2_2/relu"
  type: "ReLU"
  bottom: "conv2_2"
  top: "conv2_2"
}
layer {
  name: "conv2_3_1x1_reduce"
  type: "Convolution"
  bottom: "conv2_2"
  top: "conv2_3_1x1_reduce"
  param {
    lr_mult: 1
    decay_mult: 1
  }
  convolution_param {
    num_output: 64
    bias_term: false
    pad: 0
    kernel_size: 1
    stride: 1
    weight_filler {
      type: "msra"
    }
  }
}
layer {
  name: "conv2_3_1x1_reduce/bn"
  type: "BN"
  bottom: "conv2_3_1x1_reduce"
  top: "conv2_3_1x1_reduce"
  param {
    lr_mult: 1
    decay_mult: 0
  }
  param {
    lr_mult: 1
    decay_mult: 0
  }
  param {
    lr_mult: 0
    decay_mult: 0
  }
  param {
    lr_mult: 0
    decay_mult: 0
  }
  bn_param {
    scale_filler {
      type: "constant"
      value: 1
    }
    shift_filler {
      type: "constant"
      value: 0
    }
    moving_average: true
    decay: 0.2
  }
}
layer {
  name: "conv2_3_1x1_reduce/relu"
  type: "ReLU"
  bottom: "conv2_3_1x1_reduce"
  top: "conv2_3_1x1_reduce"
}
layer {
  name: "conv2_3_3x3"
  type: "Convolution"
  bottom: "conv2_3_1x1_reduce"
  top: "conv2_3_3x3"
  param {
    lr_mult: 1
    decay_mult: 1
  }
  convolution_param {
    num_output: 64
    bias_term: false
    pad: 1
    kernel_size: 3
    stride: 1
    weight_filler {
      type: "msra"
    }
  }
}
layer {
  name: "conv2_3_3x3/bn"
  type: "BN"
  bottom: "conv2_3_3x3"
  top: "conv2_3_3x3"
  param {
    lr_mult: 1
    decay_mult: 0
  }
  param {
    lr_mult: 1
    decay_mult: 0
  }
  param {
    lr_mult: 0
    decay_mult: 0
  }
  param {
    lr_mult: 0
    decay_mult: 0
  }
  bn_param {
    scale_filler {
      type: "constant"
      value: 1
    }
    shift_filler {
      type: "constant"
      value: 0
    }
    moving_average: true
    decay: 0.2
  }
}
layer {
  name: "conv2_3_3x3/relu"
  type: "ReLU"
  bottom: "conv2_3_3x3"
  top: "conv2_3_3x3"
}
layer {
  name: "conv2_3_1x1_increase"
  type: "Convolution"
  bottom: "conv2_3_3x3"
  top: "conv2_3_1x1_increase"
  param {
    lr_mult: 1
    decay_mult: 1
  }
  convolution_param {
    num_output: 256
    bias_term: false
    pad: 0
    kernel_size: 1
    stride: 1
    weight_filler {
      type: "msra"
    }
  }
}
layer {
  name: "conv2_3_1x1_increase/bn"
  type: "BN"
  bottom: "conv2_3_1x1_increase"
  top: "conv2_3_1x1_increase"
  param {
    lr_mult: 1
    decay_mult: 0
  }
  param {
    lr_mult: 1
    decay_mult: 0
  }
  param {
    lr_mult: 0
    decay_mult: 0
  }
  param {
    lr_mult: 0
    decay_mult: 0
  }
  bn_param {
    scale_filler {
      type: "constant"
      value: 1
    }
    shift_filler {
      type: "constant"
      value: 0
    }
    moving_average: true
    decay: 0.2
  }
}
layer {
  name: "conv2_3"
  type: "Eltwise"
  bottom: "conv2_2"
  bottom: "conv2_3_1x1_increase"
  top: "conv2_3"
  eltwise_param {
    operation: SUM
  }
}
layer {
  name: "conv2_3/relu"
  type: "ReLU"
  bottom: "conv2_3"
  top: "conv2_3"
}
layer {
  name: "conv3_1_1x1_reduce"
  type: "Convolution"
  bottom: "conv2_3"
  top: "conv3_1_1x1_reduce"
  param {
    lr_mult: 1
    decay_mult: 1
  }
  convolution_param {
    num_output: 128
    bias_term: false
    pad: 0
    kernel_size: 1
    stride: 2
    weight_filler {
      type: "msra"
    }
  }
}
layer {
  name: "conv3_1_1x1_reduce/bn"
  type: "BN"
  bottom: "conv3_1_1x1_reduce"
  top: "conv3_1_1x1_reduce"
  param {
    lr_mult: 1
    decay_mult: 0
  }
  param {
    lr_mult: 1
    decay_mult: 0
  }
  param {
    lr_mult: 0
    decay_mult: 0
  }
  param {
    lr_mult: 0
    decay_mult: 0
  }
  bn_param {
    scale_filler {
      type: "constant"
      value: 1
    }
    shift_filler {
      type: "constant"
      value: 0
    }
    moving_average: true
    decay: 0.2
  }
}
layer {
  name: "conv3_1_1x1_reduce/relu"
  type: "ReLU"
  bottom: "conv3_1_1x1_reduce"
  top: "conv3_1_1x1_reduce"
}
layer {
  name: "conv3_1_3x3"
  type: "Convolution"
  bottom: "conv3_1_1x1_reduce"
  top: "conv3_1_3x3"
  param {
    lr_mult: 1
    decay_mult: 1
  }
  convolution_param {
    num_output: 128
    bias_term: false
    pad: 1
    kernel_size: 3
    stride: 1
    weight_filler {
      type: "msra"
    }
  }
}
layer {
  name: "conv3_1_3x3/bn"
  type: "BN"
  bottom: "conv3_1_3x3"
  top: "conv3_1_3x3"
  param {
    lr_mult: 1
    decay_mult: 0
  }
  param {
    lr_mult: 1
    decay_mult: 0
  }
  param {
    lr_mult: 0
    decay_mult: 0
  }
  param {
    lr_mult: 0
    decay_mult: 0
  }
  bn_param {
    scale_filler {
      type: "constant"
      value: 1
    }
    shift_filler {
      type: "constant"
      value: 0
    }
    moving_average: true
    decay: 0.2
  }
}
layer {
  name: "conv3_1_3x3/relu"
  type: "ReLU"
  bottom: "conv3_1_3x3"
  top: "conv3_1_3x3"
}
layer {
  name: "conv3_1_1x1_increase"
  type: "Convolution"
  bottom: "conv3_1_3x3"
  top: "conv3_1_1x1_increase"
  param {
    lr_mult: 1
    decay_mult: 1
  }
  convolution_param {
    num_output: 512
    bias_term: false
    pad: 0
    kernel_size: 1
    stride: 1
    weight_filler {
      type: "msra"
    }
  }
}
layer {
  name: "conv3_1_1x1_increase/bn"
  type: "BN"
  bottom: "conv3_1_1x1_increase"
  top: "conv3_1_1x1_increase"
  param {
    lr_mult: 1
    decay_mult: 0
  }
  param {
    lr_mult: 1
    decay_mult: 0
  }
  param {
    lr_mult: 0
    decay_mult: 0
  }
  param {
    lr_mult: 0
    decay_mult: 0
  }
  bn_param {
    scale_filler {
      type: "constant"
      value: 1
    }
    shift_filler {
      type: "constant"
      value: 0
    }
    moving_average: true
    decay: 0.2
  }
}
layer {
  name: "conv3_1_1x1_proj"
  type: "Convolution"
  bottom: "conv2_3"
  top: "conv3_1_1x1_proj"
  param {
    lr_mult: 1
    decay_mult: 1
  }
  convolution_param {
    num_output: 512
    bias_term: false
    pad: 0
    kernel_size: 1
    stride: 2
    weight_filler {
      type: "msra"
    }
  }
}
layer {
  name: "conv3_1_1x1_proj/bn"
  type: "BN"
  bottom: "conv3_1_1x1_proj"
  top: "conv3_1_1x1_proj"
  param {
    lr_mult: 1
    decay_mult: 0
  }
  param {
    lr_mult: 1
    decay_mult: 0
  }
  param {
    lr_mult: 0
    decay_mult: 0
  }
  param {
    lr_mult: 0
    decay_mult: 0
  }
  bn_param {
    scale_filler {
      type: "constant"
      value: 1
    }
    shift_filler {
      type: "constant"
      value: 0
    }
    moving_average: true
    decay: 0.2
  }
}
layer {
  name: "conv3_1"
  type: "Eltwise"
  bottom: "conv3_1_1x1_proj"
  bottom: "conv3_1_1x1_increase"
  top: "conv3_1"
  eltwise_param {
    operation: SUM
  }
}
layer {
  name: "conv3_1/relu"
  type: "ReLU"
  bottom: "conv3_1"
  top: "conv3_1"
}
layer {
  name: "conv3_2_1x1_reduce"
  type: "Convolution"
  bottom: "conv3_1"
  top: "conv3_2_1x1_reduce"
  param {
    lr_mult: 1
    decay_mult: 1
  }
  convolution_param {
    num_output: 128
    bias_term: false
    pad: 0
    kernel_size: 1
    stride: 1
    weight_filler {
      type: "msra"
    }
  }
}
layer {
  name: "conv3_2_1x1_reduce/bn"
  type: "BN"
  bottom: "conv3_2_1x1_reduce"
  top: "conv3_2_1x1_reduce"
  param {
    lr_mult: 1
    decay_mult: 0
  }
  param {
    lr_mult: 1
    decay_mult: 0
  }
  param {
    lr_mult: 0
    decay_mult: 0
  }
  param {
    lr_mult: 0
    decay_mult: 0
  }
  bn_param {
    scale_filler {
      type: "constant"
      value: 1
    }
    shift_filler {
      type: "constant"
      value: 0
    }
    moving_average: true
    decay: 0.2
  }
}
layer {
  name: "conv3_2_1x1_reduce/relu"
  type: "ReLU"
  bottom: "conv3_2_1x1_reduce"
  top: "conv3_2_1x1_reduce"
}
layer {
  name: "conv3_2_3x3"
  type: "Convolution"
  bottom: "conv3_2_1x1_reduce"
  top: "conv3_2_3x3"
  param {
    lr_mult: 1
    decay_mult: 1
  }
  convolution_param {
    num_output: 128
    bias_term: false
    pad: 1
    kernel_size: 3
    stride: 1
    weight_filler {
      type: "msra"
    }
  }
}
layer {
  name: "conv3_2_3x3/bn"
  type: "BN"
  bottom: "conv3_2_3x3"
  top: "conv3_2_3x3"
  param {
    lr_mult: 1
    decay_mult: 0
  }
  param {
    lr_mult: 1
    decay_mult: 0
  }
  param {
    lr_mult: 0
    decay_mult: 0
  }
  param {
    lr_mult: 0
    decay_mult: 0
  }
  bn_param {
    scale_filler {
      type: "constant"
      value: 1
    }
    shift_filler {
      type: "constant"
      value: 0
    }
    moving_average: true
    decay: 0.2
  }
}
layer {
  name: "conv3_2_3x3/relu"
  type: "ReLU"
  bottom: "conv3_2_3x3"
  top: "conv3_2_3x3"
}
layer {
  name: "conv3_2_1x1_increase"
  type: "Convolution"
  bottom: "conv3_2_3x3"
  top: "conv3_2_1x1_increase"
  param {
    lr_mult: 1
    decay_mult: 1
  }
  convolution_param {
    num_output: 512
    bias_term: false
    pad: 0
    kernel_size: 1
    stride: 1
    weight_filler {
      type: "msra"
    }
  }
}
layer {
  name: "conv3_2_1x1_increase/bn"
  type: "BN"
  bottom: "conv3_2_1x1_increase"
  top: "conv3_2_1x1_increase"
  param {
    lr_mult: 1
    decay_mult: 0
  }
  param {
    lr_mult: 1
    decay_mult: 0
  }
  param {
    lr_mult: 0
    decay_mult: 0
  }
  param {
    lr_mult: 0
    decay_mult: 0
  }
  bn_param {
    scale_filler {
      type: "constant"
      value: 1
    }
    shift_filler {
      type: "constant"
      value: 0
    }
    moving_average: true
    decay: 0.2
  }
}
layer {
  name: "conv3_2"
  type: "Eltwise"
  bottom: "conv3_1"
  bottom: "conv3_2_1x1_increase"
  top: "conv3_2"
  eltwise_param {
    operation: SUM
  }
}
layer {
  name: "conv3_2/relu"
  type: "ReLU"
  bottom: "conv3_2"
  top: "conv3_2"
}
layer {
  name: "conv3_3_1x1_reduce"
  type: "Convolution"
  bottom: "conv3_2"
  top: "conv3_3_1x1_reduce"
  param {
    lr_mult: 1
    decay_mult: 1
  }
  convolution_param {
    num_output: 128
    bias_term: false
    pad: 0
    kernel_size: 1
    stride: 1
    weight_filler {
      type: "msra"
    }
  }
}
layer {
  name: "conv3_3_1x1_reduce/bn"
  type: "BN"
  bottom: "conv3_3_1x1_reduce"
  top: "conv3_3_1x1_reduce"
  param {
    lr_mult: 1
    decay_mult: 0
  }
  param {
    lr_mult: 1
    decay_mult: 0
  }
  param {
    lr_mult: 0
    decay_mult: 0
  }
  param {
    lr_mult: 0
    decay_mult: 0
  }
  bn_param {
    scale_filler {
      type: "constant"
      value: 1
    }
    shift_filler {
      type: "constant"
      value: 0
    }
    moving_average: true
    decay: 0.2
  }
}
layer {
  name: "conv3_3_1x1_reduce/relu"
  type: "ReLU"
  bottom: "conv3_3_1x1_reduce"
  top: "conv3_3_1x1_reduce"
}
layer {
  name: "conv3_3_3x3"
  type: "Convolution"
  bottom: "conv3_3_1x1_reduce"
  top: "conv3_3_3x3"
  param {
    lr_mult: 1
    decay_mult: 1
  }
  convolution_param {
    num_output: 128
    bias_term: false
    pad: 1
    kernel_size: 3
    stride: 1
    weight_filler {
      type: "msra"
    }
  }
}
layer {
  name: "conv3_3_3x3/bn"
  type: "BN"
  bottom: "conv3_3_3x3"
  top: "conv3_3_3x3"
  param {
    lr_mult: 1
    decay_mult: 0
  }
  param {
    lr_mult: 1
    decay_mult: 0
  }
  param {
    lr_mult: 0
    decay_mult: 0
  }
  param {
    lr_mult: 0
    decay_mult: 0
  }
  bn_param {
    scale_filler {
      type: "constant"
      value: 1
    }
    shift_filler {
      type: "constant"
      value: 0
    }
    moving_average: true
    decay: 0.2
  }
}
layer {
  name: "conv3_3_3x3/relu"
  type: "ReLU"
  bottom: "conv3_3_3x3"
  top: "conv3_3_3x3"
}
layer {
  name: "conv3_3_1x1_increase"
  type: "Convolution"
  bottom: "conv3_3_3x3"
  top: "conv3_3_1x1_increase"
  param {
    lr_mult: 1
    decay_mult: 1
  }
  convolution_param {
    num_output: 512
    bias_term: false
    pad: 0
    kernel_size: 1
    stride: 1
    weight_filler {
      type: "msra"
    }
  }
}
layer {
  name: "conv3_3_1x1_increase/bn"
  type: "BN"
  bottom: "conv3_3_1x1_increase"
  top: "conv3_3_1x1_increase"
  param {
    lr_mult: 1
    decay_mult: 0
  }
  param {
    lr_mult: 1
    decay_mult: 0
  }
  param {
    lr_mult: 0
    decay_mult: 0
  }
  param {
    lr_mult: 0
    decay_mult: 0
  }
  bn_param {
    scale_filler {
      type: "constant"
      value: 1
    }
    shift_filler {
      type: "constant"
      value: 0
    }
    moving_average: true
    decay: 0.2
  }
}
layer {
  name: "conv3_3"
  type: "Eltwise"
  bottom: "conv3_2"
  bottom: "conv3_3_1x1_increase"
  top: "conv3_3"
  eltwise_param {
    operation: SUM
  }
}
layer {
  name: "conv3_3/relu"
  type: "ReLU"
  bottom: "conv3_3"
  top: "conv3_3"
}
layer {
  name: "conv3_4_1x1_reduce"
  type: "Convolution"
  bottom: "conv3_3"
  top: "conv3_4_1x1_reduce"
  param {
    lr_mult: 1
    decay_mult: 1
  }
  convolution_param {
    num_output: 128
    bias_term: false
    pad: 0
    kernel_size: 1
    stride: 1
    weight_filler {
      type: "msra"
    }
  }
}
layer {
  name: "conv3_4_1x1_reduce/bn"
  type: "BN"
  bottom: "conv3_4_1x1_reduce"
  top: "conv3_4_1x1_reduce"
  param {
    lr_mult: 1
    decay_mult: 0
  }
  param {
    lr_mult: 1
    decay_mult: 0
  }
  param {
    lr_mult: 0
    decay_mult: 0
  }
  param {
    lr_mult: 0
    decay_mult: 0
  }
  bn_param {
    scale_filler {
      type: "constant"
      value: 1
    }
    shift_filler {
      type: "constant"
      value: 0
    }
    moving_average: true
    decay: 0.2
  }
}
layer {
  name: "conv3_4_1x1_reduce/relu"
  type: "ReLU"
  bottom: "conv3_4_1x1_reduce"
  top: "conv3_4_1x1_reduce"
}
layer {
  name: "conv3_4_3x3"
  type: "Convolution"
  bottom: "conv3_4_1x1_reduce"
  top: "conv3_4_3x3"
  param {
    lr_mult: 1
    decay_mult: 1
  }
  convolution_param {
    num_output: 128
    bias_term: false
    pad: 1
    kernel_size: 3
    stride: 1
    weight_filler {
      type: "msra"
    }
  }
}
layer {
  name: "conv3_4_3x3/bn"
  type: "BN"
  bottom: "conv3_4_3x3"
  top: "conv3_4_3x3"
  param {
    lr_mult: 1
    decay_mult: 0
  }
  param {
    lr_mult: 1
    decay_mult: 0
  }
  param {
    lr_mult: 0
    decay_mult: 0
  }
  param {
    lr_mult: 0
    decay_mult: 0
  }
  bn_param {
    scale_filler {
      type: "constant"
      value: 1
    }
    shift_filler {
      type: "constant"
      value: 0
    }
    moving_average: true
    decay: 0.2
  }
}
layer {
  name: "conv3_4_3x3/relu"
  type: "ReLU"
  bottom: "conv3_4_3x3"
  top: "conv3_4_3x3"
}
layer {
  name: "conv3_4_1x1_increase"
  type: "Convolution"
  bottom: "conv3_4_3x3"
  top: "conv3_4_1x1_increase"
  param {
    lr_mult: 1
    decay_mult: 1
  }
  convolution_param {
    num_output: 512
    bias_term: false
    pad: 0
    kernel_size: 1
    stride: 1
    weight_filler {
      type: "msra"
    }
  }
}
layer {
  name: "conv3_4_1x1_increase/bn"
  type: "BN"
  bottom: "conv3_4_1x1_increase"
  top: "conv3_4_1x1_increase"
  param {
    lr_mult: 1
    decay_mult: 0
  }
  param {
    lr_mult: 1
    decay_mult: 0
  }
  param {
    lr_mult: 0
    decay_mult: 0
  }
  param {
    lr_mult: 0
    decay_mult: 0
  }
  bn_param {
    scale_filler {
      type: "constant"
      value: 1
    }
    shift_filler {
      type: "constant"
      value: 0
    }
    moving_average: true
    decay: 0.2
  }
}
layer {
  name: "conv3_4"
  type: "Eltwise"
  bottom: "conv3_3"
  bottom: "conv3_4_1x1_increase"
  top: "conv3_4"
  eltwise_param {
    operation: SUM
  }
}
layer {
  name: "conv3_4/relu"
  type: "ReLU"
  bottom: "conv3_4"
  top: "conv3_4"
}
layer {
  name: "conv4_1_1x1_reduce"
  type: "Convolution"
  bottom: "conv3_4"
  top: "conv4_1_1x1_reduce"
  param {
    lr_mult: 1
    decay_mult: 1
  }
  convolution_param {
    num_output: 256
    bias_term: false
    pad: 0
    kernel_size: 1
    stride: 1
    weight_filler {
      type: "msra"
    }
  }
}
layer {
  name: "conv4_1_1x1_reduce/bn"
  type: "BN"
  bottom: "conv4_1_1x1_reduce"
  top: "conv4_1_1x1_reduce"
  param {
    lr_mult: 1
    decay_mult: 0
  }
  param {
    lr_mult: 1
    decay_mult: 0
  }
  param {
    lr_mult: 0
    decay_mult: 0
  }
  param {
    lr_mult: 0
    decay_mult: 0
  }
  bn_param {
    scale_filler {
      type: "constant"
      value: 1
    }
    shift_filler {
      type: "constant"
      value: 0
    }
    moving_average: true
    decay: 0.2
  }
}
layer {
  name: "conv4_1_1x1_reduce/relu"
  type: "ReLU"
  bottom: "conv4_1_1x1_reduce"
  top: "conv4_1_1x1_reduce"
}
layer {
  name: "conv4_1_3x3"
  type: "Convolution"
  bottom: "conv4_1_1x1_reduce"
  top: "conv4_1_3x3"
  param {
    lr_mult: 1
    decay_mult: 1
  }
  convolution_param {
    num_output: 256
    bias_term: false
    pad: 2
    kernel_size: 3
    stride: 1
    weight_filler {
      type: "msra"
    }
    dilation: 2
  }
}
layer {
  name: "conv4_1_3x3/bn"
  type: "BN"
  bottom: "conv4_1_3x3"
  top: "conv4_1_3x3"
  param {
    lr_mult: 1
    decay_mult: 0
  }
  param {
    lr_mult: 1
    decay_mult: 0
  }
  param {
    lr_mult: 0
    decay_mult: 0
  }
  param {
    lr_mult: 0
    decay_mult: 0
  }
  bn_param {
    scale_filler {
      type: "constant"
      value: 1
    }
    shift_filler {
      type: "constant"
      value: 0
    }
    moving_average: true
    decay: 0.2
  }
}
layer {
  name: "conv4_1_3x3/relu"
  type: "ReLU"
  bottom: "conv4_1_3x3"
  top: "conv4_1_3x3"
}
layer {
  name: "conv4_1_1x1_increase"
  type: "Convolution"
  bottom: "conv4_1_3x3"
  top: "conv4_1_1x1_increase"
  param {
    lr_mult: 1
    decay_mult: 1
  }
  convolution_param {
    num_output: 1024
    bias_term: false
    pad: 0
    kernel_size: 1
    stride: 1
    weight_filler {
      type: "msra"
    }
  }
}
layer {
  name: "conv4_1_1x1_increase/bn"
  type: "BN"
  bottom: "conv4_1_1x1_increase"
  top: "conv4_1_1x1_increase"
  param {
    lr_mult: 1
    decay_mult: 0
  }
  param {
    lr_mult: 1
    decay_mult: 0
  }
  param {
    lr_mult: 0
    decay_mult: 0
  }
  param {
    lr_mult: 0
    decay_mult: 0
  }
  bn_param {
    scale_filler {
      type: "constant"
      value: 1
    }
    shift_filler {
      type: "constant"
      value: 0
    }
    moving_average: true
    decay: 0.2
  }
}
layer {
  name: "conv4_1_1x1_proj"
  type: "Convolution"
  bottom: "conv3_4"
  top: "conv4_1_1x1_proj"
  param {
    lr_mult: 1
    decay_mult: 1
  }
  convolution_param {
    num_output: 1024
    bias_term: false
    pad: 0
    kernel_size: 1
    stride: 1
    weight_filler {
      type: "msra"
    }
  }
}
layer {
  name: "conv4_1_1x1_proj/bn"
  type: "BN"
  bottom: "conv4_1_1x1_proj"
  top: "conv4_1_1x1_proj"
  param {
    lr_mult: 1
    decay_mult: 0
  }
  param {
    lr_mult: 1
    decay_mult: 0
  }
  param {
    lr_mult: 0
    decay_mult: 0
  }
  param {
    lr_mult: 0
    decay_mult: 0
  }
  bn_param {
    scale_filler {
      type: "constant"
      value: 1
    }
    shift_filler {
      type: "constant"
      value: 0
    }
    moving_average: true
    decay: 0.2
  }
}
layer {
  name: "conv4_1"
  type: "Eltwise"
  bottom: "conv4_1_1x1_proj"
  bottom: "conv4_1_1x1_increase"
  top: "conv4_1"
  eltwise_param {
    operation: SUM
  }
}
layer {
  name: "conv4_1/relu"
  type: "ReLU"
  bottom: "conv4_1"
  top: "conv4_1"
}
layer {
  name: "conv4_2_1x1_reduce"
  type: "Convolution"
  bottom: "conv4_1"
  top: "conv4_2_1x1_reduce"
  param {
    lr_mult: 1
    decay_mult: 1
  }
  convolution_param {
    num_output: 256
    bias_term: false
    pad: 0
    kernel_size: 1
    stride: 1
    weight_filler {
      type: "msra"
    }
  }
}
layer {
  name: "conv4_2_1x1_reduce/bn"
  type: "BN"
  bottom: "conv4_2_1x1_reduce"
  top: "conv4_2_1x1_reduce"
  param {
    lr_mult: 1
    decay_mult: 0
  }
  param {
    lr_mult: 1
    decay_mult: 0
  }
  param {
    lr_mult: 0
    decay_mult: 0
  }
  param {
    lr_mult: 0
    decay_mult: 0
  }
  bn_param {
    scale_filler {
      type: "constant"
      value: 1
    }
    shift_filler {
      type: "constant"
      value: 0
    }
    moving_average: true
    decay: 0.2
  }
}
layer {
  name: "conv4_2_1x1_reduce/relu"
  type: "ReLU"
  bottom: "conv4_2_1x1_reduce"
  top: "conv4_2_1x1_reduce"
}
layer {
  name: "conv4_2_3x3"
  type: "Convolution"
  bottom: "conv4_2_1x1_reduce"
  top: "conv4_2_3x3"
  param {
    lr_mult: 1
    decay_mult: 1
  }
  convolution_param {
    num_output: 256
    bias_term: false
    pad: 2
    kernel_size: 3
    stride: 1
    weight_filler {
      type: "msra"
    }
    dilation: 2
  }
}
layer {
  name: "conv4_2_3x3/bn"
  type: "BN"
  bottom: "conv4_2_3x3"
  top: "conv4_2_3x3"
  param {
    lr_mult: 1
    decay_mult: 0
  }
  param {
    lr_mult: 1
    decay_mult: 0
  }
  param {
    lr_mult: 0
    decay_mult: 0
  }
  param {
    lr_mult: 0
    decay_mult: 0
 
I0708 16:37:37.741865 29489 layer_factory.hpp:77] Creating layer data
I0708 16:37:37.741899 29489 net.cpp:106] Creating Layer data
I0708 16:37:37.741909 29489 net.cpp:411] data -> data
I0708 16:37:37.741940 29489 net.cpp:411] data -> label
I0708 16:37:37.741948 29489 net.cpp:411] data -> (automatic)
I0708 16:37:37.742303 29489 image_seg_data_layer.cpp:46] Opening file /mnt/sdd1/hszhao/cityscapes/list/fine_train.txt
I0708 16:37:37.744948 29489 image_seg_data_layer.cpp:63] Shuffling data
I0708 16:37:37.745226 29489 image_seg_data_layer.cpp:68] A total of 2975 images.
I0708 16:37:37.813616 29489 image_seg_data_layer.cpp:137] output data size: 10,3,321,321
I0708 16:37:37.813640 29489 image_seg_data_layer.cpp:141] output label size: 10,1,321,321
I0708 16:37:37.813647 29489 image_seg_data_layer.cpp:145] output data_dim size: 10,1,1,2
I0708 16:37:37.846648 29489 net.cpp:150] Setting up data
I0708 16:37:37.846683 29489 net.cpp:157] Top shape: 10 3 321 321 (3091230)
I0708 16:37:37.846693 29489 net.cpp:157] Top shape: 10 1 321 321 (1030410)
I0708 16:37:37.846704 29489 net.cpp:157] Top shape: 10 1 1 2 (20)
I0708 16:37:37.846711 29489 net.cpp:165] Memory required for data: 16486640
I0708 16:37:37.846719 29489 layer_factory.hpp:77] Creating layer conv1_1_3x3_s2
I0708 16:37:37.846746 29489 net.cpp:106] Creating Layer conv1_1_3x3_s2
I0708 16:37:37.846753 29489 net.cpp:454] conv1_1_3x3_s2 <- data
I0708 16:37:37.846768 29489 net.cpp:411] conv1_1_3x3_s2 -> conv1_1_3x3_s2
I0708 16:37:37.847332 29489 net.cpp:150] Setting up conv1_1_3x3_s2
I0708 16:37:37.847344 29489 net.cpp:157] Top shape: 10 64 161 161 (16589440)
I0708 16:37:37.847349 29489 net.cpp:165] Memory required for data: 82844400
I0708 16:37:37.847360 29489 layer_factory.hpp:77] Creating layer conv1_1_3x3_s2/bn
I0708 16:37:37.847373 29489 net.cpp:106] Creating Layer conv1_1_3x3_s2/bn
I0708 16:37:37.847378 29489 net.cpp:454] conv1_1_3x3_s2/bn <- conv1_1_3x3_s2
I0708 16:37:37.847384 29489 net.cpp:397] conv1_1_3x3_s2/bn -> conv1_1_3x3_s2 (in-place)
I0708 16:37:37.848007 29489 net.cpp:150] Setting up conv1_1_3x3_s2/bn
I0708 16:37:37.848022 29489 net.cpp:157] Top shape: 10 64 161 161 (16589440)
I0708 16:37:37.848048 29489 net.cpp:165] Memory required for data: 149202160
I0708 16:37:37.848064 29489 layer_factory.hpp:77] Creating layer conv1_1_3x3_s2/relu
I0708 16:37:37.848078 29489 net.cpp:106] Creating Layer conv1_1_3x3_s2/relu
I0708 16:37:37.848083 29489 net.cpp:454] conv1_1_3x3_s2/relu <- conv1_1_3x3_s2
I0708 16:37:37.848089 29489 net.cpp:397] conv1_1_3x3_s2/relu -> conv1_1_3x3_s2 (in-place)
I0708 16:37:37.848098 29489 net.cpp:150] Setting up conv1_1_3x3_s2/relu
I0708 16:37:37.848104 29489 net.cpp:157] Top shape: 10 64 161 161 (16589440)
I0708 16:37:37.848109 29489 net.cpp:165] Memory required for data: 215559920
I0708 16:37:37.848112 29489 layer_factory.hpp:77] Creating layer conv1_2_3x3
I0708 16:37:37.848124 29489 net.cpp:106] Creating Layer conv1_2_3x3
I0708 16:37:37.848127 29489 net.cpp:454] conv1_2_3x3 <- conv1_1_3x3_s2
I0708 16:37:37.848134 29489 net.cpp:411] conv1_2_3x3 -> conv1_2_3x3
I0708 16:37:37.848579 29489 net.cpp:150] Setting up conv1_2_3x3
I0708 16:37:37.848587 29489 net.cpp:157] Top shape: 10 64 161 161 (16589440)
I0708 16:37:37.848592 29489 net.cpp:165] Memory required for data: 281917680
I0708 16:37:37.848597 29489 layer_factory.hpp:77] Creating layer conv1_2_3x3/bn
I0708 16:37:37.848603 29489 net.cpp:106] Creating Layer conv1_2_3x3/bn
I0708 16:37:37.848608 29489 net.cpp:454] conv1_2_3x3/bn <- conv1_2_3x3
I0708 16:37:37.848614 29489 net.cpp:397] conv1_2_3x3/bn -> conv1_2_3x3 (in-place)
I0708 16:37:37.848767 29489 net.cpp:150] Setting up conv1_2_3x3/bn
I0708 16:37:37.848774 29489 net.cpp:157] Top shape: 10 64 161 161 (16589440)
I0708 16:37:37.848778 29489 net.cpp:165] Memory required for data: 348275440
I0708 16:37:37.848788 29489 layer_factory.hpp:77] Creating layer conv1_2_3x3/relu
I0708 16:37:37.848793 29489 net.cpp:106] Creating Layer conv1_2_3x3/relu
I0708 16:37:37.848798 29489 net.cpp:454] conv1_2_3x3/relu <- conv1_2_3x3
I0708 16:37:37.848803 29489 net.cpp:397] conv1_2_3x3/relu -> conv1_2_3x3 (in-place)
I0708 16:37:37.848809 29489 net.cpp:150] Setting up conv1_2_3x3/relu
I0708 16:37:37.848814 29489 net.cpp:157] Top shape: 10 64 161 161 (16589440)
I0708 16:37:37.848817 29489 net.cpp:165] Memory required for data: 414633200
I0708 16:37:37.848820 29489 layer_factory.hpp:77] Creating layer conv1_3_3x3
I0708 16:37:37.848835 29489 net.cpp:106] Creating Layer conv1_3_3x3
I0708 16:37:37.848841 29489 net.cpp:454] conv1_3_3x3 <- conv1_2_3x3
I0708 16:37:37.848848 29489 net.cpp:411] conv1_3_3x3 -> conv1_3_3x3
I0708 16:37:37.850801 29489 net.cpp:150] Setting up conv1_3_3x3
I0708 16:37:37.850818 29489 net.cpp:157] Top shape: 10 128 161 161 (33178880)
I0708 16:37:37.850823 29489 net.cpp:165] Memory required for data: 547348720
I0708 16:37:37.850829 29489 layer_factory.hpp:77] Creating layer conv1_3_3x3/bn
I0708 16:37:37.850844 29489 net.cpp:106] Creating Layer conv1_3_3x3/bn
I0708 16:37:37.850850 29489 net.cpp:454] conv1_3_3x3/bn <- conv1_3_3x3
I0708 16:37:37.850857 29489 net.cpp:397] conv1_3_3x3/bn -> conv1_3_3x3 (in-place)
I0708 16:37:37.851027 29489 net.cpp:150] Setting up conv1_3_3x3/bn
I0708 16:37:37.851037 29489 net.cpp:157] Top shape: 10 128 161 161 (33178880)
I0708 16:37:37.851040 29489 net.cpp:165] Memory required for data: 680064240
I0708 16:37:37.851048 29489 layer_factory.hpp:77] Creating layer conv1_3_3x3/relu
I0708 16:37:37.851054 29489 net.cpp:106] Creating Layer conv1_3_3x3/relu
I0708 16:37:37.851058 29489 net.cpp:454] conv1_3_3x3/relu <- conv1_3_3x3
I0708 16:37:37.851063 29489 net.cpp:397] conv1_3_3x3/relu -> conv1_3_3x3 (in-place)
I0708 16:37:37.851070 29489 net.cpp:150] Setting up conv1_3_3x3/relu
I0708 16:37:37.851074 29489 net.cpp:157] Top shape: 10 128 161 161 (33178880)
I0708 16:37:37.851078 29489 net.cpp:165] Memory required for data: 812779760
I0708 16:37:37.851083 29489 layer_factory.hpp:77] Creating layer pool1_3x3_s2
I0708 16:37:37.851090 29489 net.cpp:106] Creating Layer pool1_3x3_s2
I0708 16:37:37.851100 29489 net.cpp:454] pool1_3x3_s2 <- conv1_3_3x3
I0708 16:37:37.851112 29489 net.cpp:411] pool1_3x3_s2 -> pool1_3x3_s2
I0708 16:37:37.851177 29489 net.cpp:150] Setting up pool1_3x3_s2
I0708 16:37:37.851188 29489 net.cpp:157] Top shape: 10 128 81 81 (8398080)
I0708 16:37:37.851192 29489 net.cpp:165] Memory required for data: 846372080
I0708 16:37:37.851197 29489 layer_factory.hpp:77] Creating layer pool1_3x3_s2_pool1_3x3_s2_0_split
I0708 16:37:37.851203 29489 net.cpp:106] Creating Layer pool1_3x3_s2_pool1_3x3_s2_0_split
I0708 16:37:37.851214 29489 net.cpp:454] pool1_3x3_s2_pool1_3x3_s2_0_split <- pool1_3x3_s2
I0708 16:37:37.851224 29489 net.cpp:411] pool1_3x3_s2_pool1_3x3_s2_0_split -> pool1_3x3_s2_pool1_3x3_s2_0_split_0
I0708 16:37:37.851233 29489 net.cpp:411] pool1_3x3_s2_pool1_3x3_s2_0_split -> pool1_3x3_s2_pool1_3x3_s2_0_split_1
I0708 16:37:37.851272 29489 net.cpp:150] Setting up pool1_3x3_s2_pool1_3x3_s2_0_split
I0708 16:37:37.851282 29489 net.cpp:157] Top shape: 10 128 81 81 (8398080)
I0708 16:37:37.851287 29489 net.cpp:157] Top shape: 10 128 81 81 (8398080)
I0708 16:37:37.851291 29489 net.cpp:165] Memory required for data: 913556720
I0708 16:37:37.851295 29489 layer_factory.hpp:77] Creating layer conv2_1_1x1_reduce
I0708 16:37:37.851305 29489 net.cpp:106] Creating Layer conv2_1_1x1_reduce
I0708 16:37:37.851311 29489 net.cpp:454] conv2_1_1x1_reduce <- pool1_3x3_s2_pool1_3x3_s2_0_split_0
I0708 16:37:37.851320 29489 net.cpp:411] conv2_1_1x1_reduce -> conv2_1_1x1_reduce
I0708 16:37:37.851965 29489 net.cpp:150] Setting up conv2_1_1x1_reduce
I0708 16:37:37.851979 29489 net.cpp:157] Top shape: 10 64 81 81 (4199040)
I0708 16:37:37.851984 29489 net.cpp:165] Memory required for data: 930352880
I0708 16:37:37.851989 29489 layer_factory.hpp:77] Creating layer conv2_1_1x1_reduce/bn
I0708 16:37:37.851999 29489 net.cpp:106] Creating Layer conv2_1_1x1_reduce/bn
I0708 16:37:37.852006 29489 net.cpp:454] conv2_1_1x1_reduce/bn <- conv2_1_1x1_reduce
I0708 16:37:37.852017 29489 net.cpp:397] conv2_1_1x1_reduce/bn -> conv2_1_1x1_reduce (in-place)
I0708 16:37:37.852176 29489 net.cpp:150] Setting up conv2_1_1x1_reduce/bn
I0708 16:37:37.852190 29489 net.cpp:157] Top shape: 10 64 81 81 (4199040)
I0708 16:37:37.852195 29489 net.cpp:165] Memory required for data: 947149040
I0708 16:37:37.852212 29489 layer_factory.hpp:77] Creating layer conv2_1_1x1_reduce/relu
I0708 16:37:37.852226 29489 net.cpp:106] Creating Layer conv2_1_1x1_reduce/relu
I0708 16:37:37.852236 29489 net.cpp:454] conv2_1_1x1_reduce/relu <- conv2_1_1x1_reduce
I0708 16:37:37.852246 29489 net.cpp:397] conv2_1_1x1_reduce/relu -> conv2_1_1x1_reduce (in-place)
I0708 16:37:37.852254 29489 net.cpp:150] Setting up conv2_1_1x1_reduce/relu
I0708 16:37:37.852260 29489 net.cpp:157] Top shape: 10 64 81 81 (4199040)
I0708 16:37:37.852267 29489 net.cpp:165] Memory required for data: 963945200
I0708 16:37:37.852274 29489 layer_factory.hpp:77] Creating layer conv2_1_3x3
I0708 16:37:37.852288 29489 net.cpp:106] Creating Layer conv2_1_3x3
I0708 16:37:37.852296 29489 net.cpp:454] conv2_1_3x3 <- conv2_1_1x1_reduce
I0708 16:37:37.852309 29489 net.cpp:411] conv2_1_3x3 -> conv2_1_3x3
I0708 16:37:37.852756 29489 net.cpp:150] Setting up conv2_1_3x3
I0708 16:37:37.852768 29489 net.cpp:157] Top shape: 10 64 81 81 (4199040)
I0708 16:37:37.852773 29489 net.cpp:165] Memory required for data: 980741360
I0708 16:37:37.852782 29489 layer_factory.hpp:77] Creating layer conv2_1_3x3/bn
I0708 16:37:37.852800 29489 net.cpp:106] Creating Layer conv2_1_3x3/bn
I0708 16:37:37.852809 29489 net.cpp:454] conv2_1_3x3/bn <- conv2_1_3x3
I0708 16:37:37.852820 29489 net.cpp:397] conv2_1_3x3/bn -> conv2_1_3x3 (in-place)
I0708 16:37:37.852977 29489 net.cpp:150] Setting up conv2_1_3x3/bn
I0708 16:37:37.852988 29489 net.cpp:157] Top shape: 10 64 81 81 (4199040)
I0708 16:37:37.852994 29489 net.cpp:165] Memory required for data: 997537520
I0708 16:37:37.853009 29489 layer_factory.hpp:77] Creating layer conv2_1_3x3/relu
I0708 16:37:37.853018 29489 net.cpp:106] Creating Layer conv2_1_3x3/relu
I0708 16:37:37.853025 29489 net.cpp:454] conv2_1_3x3/relu <- conv2_1_3x3
I0708 16:37:37.853039 29489 net.cpp:397] conv2_1_3x3/relu -> conv2_1_3x3 (in-place)
I0708 16:37:37.853061 29489 net.cpp:150] Setting up conv2_1_3x3/relu
I0708 16:37:37.853070 29489 net.cpp:157] Top shape: 10 64 81 81 (4199040)
I0708 16:37:37.853080 29489 net.cpp:165] Memory required for data: 1014333680
I0708 16:37:37.853086 29489 layer_factory.hpp:77] Creating layer conv2_1_1x1_increase
I0708 16:37:37.853101 29489 net.cpp:106] Creating Layer conv2_1_1x1_increase
I0708 16:37:37.853111 29489 net.cpp:454] conv2_1_1x1_increase <- conv2_1_3x3
I0708 16:37:37.853123 29489 net.cpp:411] conv2_1_1x1_increase -> conv2_1_1x1_increase
I0708 16:37:37.853394 29489 net.cpp:150] Setting up conv2_1_1x1_increase
I0708 16:37:37.853406 29489 net.cpp:157] Top shape: 10 256 81 81 (16796160)
I0708 16:37:37.853412 29489 net.cpp:165] Memory required for data: 1081518320
I0708 16:37:37.853423 29489 layer_factory.hpp:77] Creating layer conv2_1_1x1_increase/bn
I0708 16:37:37.853432 29489 net.cpp:106] Creating Layer conv2_1_1x1_increase/bn
I0708 16:37:37.853437 29489 net.cpp:454] conv2_1_1x1_increase/bn <- conv2_1_1x1_increase
I0708 16:37:37.853446 29489 net.cpp:397] conv2_1_1x1_increase/bn -> conv2_1_1x1_increase (in-place)
I0708 16:37:37.853587 29489 net.cpp:150] Setting up conv2_1_1x1_increase/bn
I0708 16:37:37.853596 29489 net.cpp:157] Top shape: 10 256 81 81 (16796160)
I0708 16:37:37.853608 29489 net.cpp:165] Memory required for data: 1148702960
I0708 16:37:37.853616 29489 layer_factory.hpp:77] Creating layer conv2_1_1x1_proj
I0708 16:37:37.853626 29489 net.cpp:106] Creating Layer conv2_1_1x1_proj
I0708 16:37:37.853633 29489 net.cpp:454] conv2_1_1x1_proj <- pool1_3x3_s2_pool1_3x3_s2_0_split_1
I0708 16:37:37.853644 29489 net.cpp:411] conv2_1_1x1_proj -> conv2_1_1x1_proj
I0708 16:37:37.854055 29489 net.cpp:150] Setting up conv2_1_1x1_proj
I0708 16:37:37.854065 29489 net.cpp:157] Top shape: 10 256 81 81 (16796160)
I0708 16:37:37.854069 29489 net.cpp:165] Memory required for data: 1215887600
I0708 16:37:37.854074 29489 layer_factory.hpp:77] Creating layer conv2_1_1x1_proj/bn
I0708 16:37:37.854082 29489 net.cpp:106] Creating Layer conv2_1_1x1_proj/bn
I0708 16:37:37.854087 29489 net.cpp:454] conv2_1_1x1_proj/bn <- conv2_1_1x1_proj
I0708 16:37:37.854094 29489 net.cpp:397] conv2_1_1x1_proj/bn -> conv2_1_1x1_proj (in-place)
I0708 16:37:37.854238 29489 net.cpp:150] Setting up conv2_1_1x1_proj/bn
I0708 16:37:37.854246 29489 net.cpp:157] Top shape: 10 256 81 81 (16796160)
I0708 16:37:37.854249 29489 net.cpp:165] Memory required for data: 1283072240
I0708 16:37:37.854261 29489 layer_factory.hpp:77] Creating layer conv2_1
I0708 16:37:37.854274 29489 net.cpp:106] Creating Layer conv2_1
I0708 16:37:37.854279 29489 net.cpp:454] conv2_1 <- conv2_1_1x1_proj
I0708 16:37:37.854285 29489 net.cpp:454] conv2_1 <- conv2_1_1x1_increase
I0708 16:37:37.854290 29489 net.cpp:411] conv2_1 -> conv2_1
I0708 16:37:37.854315 29489 net.cpp:150] Setting up conv2_1
I0708 16:37:37.854323 29489 net.cpp:157] Top shape: 10 256 81 81 (16796160)
I0708 16:37:37.854327 29489 net.cpp:165] Memory required for data: 1350256880
I0708 16:37:37.854331 29489 layer_factory.hpp:77] Creating layer conv2_1/relu
I0708 16:37:37.854339 29489 net.cpp:106] Creating Layer conv2_1/relu
I0708 16:37:37.854343 29489 net.cpp:454] conv2_1/relu <- conv2_1
I0708 16:37:37.854349 29489 net.cpp:397] conv2_1/relu -> conv2_1 (in-place)
I0708 16:37:37.854356 29489 net.cpp:150] Setting up conv2_1/relu
I0708 16:37:37.854360 29489 net.cpp:157] Top shape: 10 256 81 81 (16796160)
I0708 16:37:37.854364 29489 net.cpp:165] Memory required for data: 1417441520
I0708 16:37:37.854368 29489 layer_factory.hpp:77] Creating layer conv2_1_conv2_1/relu_0_split
I0708 16:37:37.854373 29489 net.cpp:106] Creating Layer conv2_1_conv2_1/relu_0_split
I0708 16:37:37.854377 29489 net.cpp:454] conv2_1_conv2_1/relu_0_split <- conv2_1
I0708 16:37:37.854383 29489 net.cpp:411] conv2_1_conv2_1/relu_0_split -> conv2_1_conv2_1/relu_0_split_0
I0708 16:37:37.854390 29489 net.cpp:411] conv2_1_conv2_1/relu_0_split -> conv2_1_conv2_1/relu_0_split_1
I0708 16:37:37.854418 29489 net.cpp:150] Setting up conv2_1_conv2_1/relu_0_split
I0708 16:37:37.854425 29489 net.cpp:157] Top shape: 10 256 81 81 (16796160)
I0708 16:37:37.854439 29489 net.cpp:157] Top shape: 10 256 81 81 (16796160)
I0708 16:37:37.854442 29489 net.cpp:165] Memory required for data: 1551810800
I0708 16:37:37.854446 29489 layer_factory.hpp:77] Creating layer conv2_2_1x1_reduce
I0708 16:37:37.854455 29489 net.cpp:106] Creating Layer conv2_2_1x1_reduce
I0708 16:37:37.854465 29489 net.cpp:454] conv2_2_1x1_reduce <- conv2_1_conv2_1/relu_0_split_0
I0708 16:37:37.854475 29489 net.cpp:411] conv2_2_1x1_reduce -> conv2_2_1x1_reduce
I0708 16:37:37.854743 29489 net.cpp:150] Setting up conv2_2_1x1_reduce
I0708 16:37:37.854754 29489 net.cpp:157] Top shape: 10 64 81 81 (4199040)
I0708 16:37:37.854758 29489 net.cpp:165] Memory required for data: 1568606960
I0708 16:37:37.854764 29489 layer_factory.hpp:77] Creating layer conv2_2_1x1_reduce/bn
I0708 16:37:37.854773 29489 net.cpp:106] Creating Layer conv2_2_1x1_reduce/bn
I0708 16:37:37.854779 29489 net.cpp:454] conv2_2_1x1_reduce/bn <- conv2_2_1x1_reduce
I0708 16:37:37.854785 29489 net.cpp:397] conv2_2_1x1_reduce/bn -> conv2_2_1x1_reduce (in-place)
I0708 16:37:37.854931 29489 net.cpp:150] Setting up conv2_2_1x1_reduce/bn
I0708 16:37:37.854939 29489 net.cpp:157] Top shape: 10 64 81 81 (4199040)
I0708 16:37:37.854943 29489 net.cpp:165] Memory required for data: 1585403120
I0708 16:37:37.854950 29489 layer_factory.hpp:77] Creating layer conv2_2_1x1_reduce/relu
I0708 16:37:37.854957 29489 net.cpp:106] Creating Layer conv2_2_1x1_reduce/relu
I0708 16:37:37.854960 29489 net.cpp:454] conv2_2_1x1_reduce/relu <- conv2_2_1x1_reduce
I0708 16:37:37.854969 29489 net.cpp:397] conv2_2_1x1_reduce/relu -> conv2_2_1x1_reduce (in-place)
I0708 16:37:37.854976 29489 net.cpp:150] Setting up conv2_2_1x1_reduce/relu
I0708 16:37:37.854987 29489 net.cpp:157] Top shape: 10 64 81 81 (4199040)
I0708 16:37:37.854993 29489 net.cpp:165] Memory required for data: 1602199280
I0708 16:37:37.855000 29489 layer_factory.hpp:77] Creating layer conv2_2_3x3
I0708 16:37:37.855013 29489 net.cpp:106] Creating Layer conv2_2_3x3
I0708 16:37:37.855020 29489 net.cpp:454] conv2_2_3x3 <- conv2_2_1x1_reduce
I0708 16:37:37.855026 29489 net.cpp:411] conv2_2_3x3 -> conv2_2_3x3
I0708 16:37:37.855466 29489 net.cpp:150] Setting up conv2_2_3x3
I0708 16:37:37.855475 29489 net.cpp:157] Top shape: 10 64 81 81 (4199040)
I0708 16:37:37.855479 29489 net.cpp:165] Memory required for data: 1618995440
I0708 16:37:37.855485 29489 layer_factory.hpp:77] Creating layer conv2_2_3x3/bn
I0708 16:37:37.855494 29489 net.cpp:106] Creating Layer conv2_2_3x3/bn
I0708 16:37:37.855502 29489 net.cpp:454] conv2_2_3x3/bn <- conv2_2_3x3
I0708 16:37:37.855515 29489 net.cpp:397] conv2_2_3x3/bn -> conv2_2_3x3 (in-place)
I0708 16:37:37.855702 29489 net.cpp:150] Setting up conv2_2_3x3/bn
I0708 16:37:37.855715 29489 net.cpp:157] Top shape: 10 64 81 81 (4199040)
I0708 16:37:37.855721 29489 net.cpp:165] Memory required for data: 1635791600
I0708 16:37:37.855734 29489 layer_factory.hpp:77] Creating layer conv2_2_3x3/relu
I0708 16:37:37.855744 29489 net.cpp:106] Creating Layer conv2_2_3x3/relu
I0708 16:37:37.855751 29489 net.cpp:454] conv2_2_3x3/relu <- conv2_2_3x3
I0708 16:37:37.855765 29489 net.cpp:397] conv2_2_3x3/relu -> conv2_2_3x3 (in-place)
I0708 16:37:37.855777 29489 net.cpp:150] Setting up conv2_2_3x3/relu
I0708 16:37:37.855788 29489 net.cpp:157] Top shape: 10 64 81 81 (4199040)
I0708 16:37:37.855797 29489 net.cpp:165] Memory required for data: 1652587760
I0708 16:37:37.855803 29489 layer_factory.hpp:77] Creating layer conv2_2_1x1_increase
I0708 16:37:37.855820 29489 net.cpp:106] Creating Layer conv2_2_1x1_increase
I0708 16:37:37.855829 29489 net.cpp:454] conv2_2_1x1_increase <- conv2_2_3x3
I0708 16:37:37.855839 29489 net.cpp:411] conv2_2_1x1_increase -> conv2_2_1x1_increase
I0708 16:37:37.856144 29489 net.cpp:150] Setting up conv2_2_1x1_increase
I0708 16:37:37.856158 29489 net.cpp:157] Top shape: 10 256 81 81 (16796160)
I0708 16:37:37.856164 29489 net.cpp:165] Memory required for data: 1719772400
I0708 16:37:37.856175 29489 layer_factory.hpp:77] Creating layer conv2_2_1x1_increase/bn
I0708 16:37:37.856205 29489 net.cpp:106] Creating Layer conv2_2_1x1_increase/bn
I0708 16:37:37.856215 29489 net.cpp:454] conv2_2_1x1_increase/bn <- conv2_2_1x1_increase
I0708 16:37:37.856228 29489 net.cpp:397] conv2_2_1x1_increase/bn -> conv2_2_1x1_increase (in-place)
I0708 16:37:37.856386 29489 net.cpp:150] Setting up conv2_2_1x1_increase/bn
I0708 16:37:37.856400 29489 net.cpp:157] Top shape: 10 256 81 81 (16796160)
I0708 16:37:37.856406 29489 net.cpp:165] Memory required for data: 1786957040
I0708 16:37:37.856420 29489 layer_factory.hpp:77] Creating layer conv2_2
I0708 16:37:37.856431 29489 net.cpp:106] Creating Layer conv2_2
I0708 16:37:37.856441 29489 net.cpp:454] conv2_2 <- conv2_1_conv2_1/relu_0_split_1
I0708 16:37:37.856451 29489 net.cpp:454] conv2_2 <- conv2_2_1x1_increase
I0708 16:37:37.856462 29489 net.cpp:411] conv2_2 -> conv2_2
I0708 16:37:37.856487 29489 net.cpp:150] Setting up conv2_2
I0708 16:37:37.856495 29489 net.cpp:157] Top shape: 10 256 81 81 (16796160)
I0708 16:37:37.856499 29489 net.cpp:165] Memory required for data: 1854141680
I0708 16:37:37.856506 29489 layer_factory.hpp:77] Creating layer conv2_2/relu
I0708 16:37:37.856516 29489 net.cpp:106] Creating Layer conv2_2/relu
I0708 16:37:37.856528 29489 net.cpp:454] conv2_2/relu <- conv2_2
I0708 16:37:37.856535 29489 net.cpp:397] conv2_2/relu -> conv2_2 (in-place)
I0708 16:37:37.856544 29489 net.cpp:150] Setting up conv2_2/relu
I0708 16:37:37.856550 29489 net.cpp:157] Top shape: 10 256 81 81 (16796160)
I0708 16:37:37.856557 29489 net.cpp:165] Memory required for data: 1921326320
I0708 16:37:37.856564 29489 layer_factory.hpp:77] Creating layer conv2_2_conv2_2/relu_0_split
I0708 16:37:37.856573 29489 net.cpp:106] Creating Layer conv2_2_conv2_2/relu_0_split
I0708 16:37:37.856582 29489 net.cpp:454] conv2_2_conv2_2/relu_0_split <- conv2_2
I0708 16:37:37.856593 29489 net.cpp:411] conv2_2_conv2_2/relu_0_split -> conv2_2_conv2_2/relu_0_split_0
I0708 16:37:37.856606 29489 net.cpp:411] conv2_2_conv2_2/relu_0_split -> conv2_2_conv2_2/relu_0_split_1
I0708 16:37:37.856647 29489 net.cpp:150] Setting up conv2_2_conv2_2/relu_0_split
I0708 16:37:37.856657 29489 net.cpp:157] Top shape: 10 256 81 81 (16796160)
I0708 16:37:37.856665 29489 net.cpp:157] Top shape: 10 256 81 81 (16796160)
I0708 16:37:37.856675 29489 net.cpp:165] Memory required for data: 2055695600
I0708 16:37:37.856683 29489 layer_factory.hpp:77] Creating layer conv2_3_1x1_reduce
I0708 16:37:37.856700 29489 net.cpp:106] Creating Layer conv2_3_1x1_reduce
I0708 16:37:37.856710 29489 net.cpp:454] conv2_3_1x1_reduce <- conv2_2_conv2_2/relu_0_split_0
I0708 16:37:37.856724 29489 net.cpp:411] conv2_3_1x1_reduce -> conv2_3_1x1_reduce
I0708 16:37:37.857023 29489 net.cpp:150] Setting up conv2_3_1x1_reduce
I0708 16:37:37.857034 29489 net.cpp:157] Top shape: 10 64 81 81 (4199040)
I0708 16:37:37.857038 29489 net.cpp:165] Memory required for data: 2072491760
I0708 16:37:37.857043 29489 layer_factory.hpp:77] Creating layer conv2_3_1x1_reduce/bn
I0708 16:37:37.857051 29489 net.cpp:106] Creating Layer conv2_3_1x1_reduce/bn
I0708 16:37:37.857055 29489 net.cpp:454] conv2_3_1x1_reduce/bn <- conv2_3_1x1_reduce
I0708 16:37:37.857064 29489 net.cpp:397] conv2_3_1x1_reduce/bn -> conv2_3_1x1_reduce (in-place)
I0708 16:37:37.857237 29489 net.cpp:150] Setting up conv2_3_1x1_reduce/bn
I0708 16:37:37.857250 29489 net.cpp:157] Top shape: 10 64 81 81 (4199040)
I0708 16:37:37.857257 29489 net.cpp:165] Memory required for data: 2089287920
I0708 16:37:37.857273 29489 layer_factory.hpp:77] Creating layer conv2_3_1x1_reduce/relu
I0708 16:37:37.857283 29489 net.cpp:106] Creating Layer conv2_3_1x1_reduce/relu
I0708 16:37:37.857295 29489 net.cpp:454] conv2_3_1x1_reduce/relu <- conv2_3_1x1_reduce
I0708 16:37:37.857301 29489 net.cpp:397] conv2_3_1x1_reduce/relu -> conv2_3_1x1_reduce (in-place)
I0708 16:37:37.857308 29489 net.cpp:150] Setting up conv2_3_1x1_reduce/relu
I0708 16:37:37.857319 29489 net.cpp:157] Top shape: 10 64 81 81 (4199040)
I0708 16:37:37.857326 29489 net.cpp:165] Memory required for data: 2106084080
I0708 16:37:37.857342 29489 layer_factory.hpp:77] Creating layer conv2_3_3x3
I0708 16:37:37.857360 29489 net.cpp:106] Creating Layer conv2_3_3x3
I0708 16:37:37.857369 29489 net.cpp:454] conv2_3_3x3 <- conv2_3_1x1_reduce
I0708 16:37:37.857383 29489 net.cpp:411] conv2_3_3x3 -> conv2_3_3x3
I0708 16:37:37.857867 29489 net.cpp:150] Setting up conv2_3_3x3
I0708 16:37:37.857879 29489 net.cpp:157] Top shape: 10 64 81 81 (4199040)
I0708 16:37:37.857887 29489 net.cpp:165] Memory required for data: 2122880240
I0708 16:37:37.857897 29489 layer_factory.hpp:77] Creating layer conv2_3_3x3/bn
I0708 16:37:37.857906 29489 net.cpp:106] Creating Layer conv2_3_3x3/bn
I0708 16:37:37.857911 29489 net.cpp:454] conv2_3_3x3/bn <- conv2_3_3x3
I0708 16:37:37.857919 29489 net.cpp:397] conv2_3_3x3/bn -> conv2_3_3x3 (in-place)
I0708 16:37:37.858083 29489 net.cpp:150] Setting up conv2_3_3x3/bn
I0708 16:37:37.858093 29489 net.cpp:157] Top shape: 10 64 81 81 (4199040)
I0708 16:37:37.858098 29489 net.cpp:165] Memory required for data: 2139676400
I0708 16:37:37.858105 29489 layer_factory.hpp:77] Creating layer conv2_3_3x3/relu
I0708 16:37:37.858111 29489 net.cpp:106] Creating Layer conv2_3_3x3/relu
I0708 16:37:37.858115 29489 net.cpp:454] conv2_3_3x3/relu <- conv2_3_3x3
I0708 16:37:37.858124 29489 net.cpp:397] conv2_3_3x3/relu -> conv2_3_3x3 (in-place)
I0708 16:37:37.858132 29489 net.cpp:150] Setting up conv2_3_3x3/relu
I0708 16:37:37.858139 29489 net.cpp:157] Top shape: 10 64 81 81 (4199040)
I0708 16:37:37.858142 29489 net.cpp:165] Memory required for data: 2156472560
I0708 16:37:37.858146 29489 layer_factory.hpp:77] Creating layer conv2_3_1x1_increase
I0708 16:37:37.858155 29489 net.cpp:106] Creating Layer conv2_3_1x1_increase
I0708 16:37:37.858162 29489 net.cpp:454] conv2_3_1x1_increase <- conv2_3_3x3
I0708 16:37:37.858175 29489 net.cpp:411] conv2_3_1x1_increase -> conv2_3_1x1_increase
I0708 16:37:37.858471 29489 net.cpp:150] Setting up conv2_3_1x1_increase
I0708 16:37:37.858482 29489 net.cpp:157] Top shape: 10 256 81 81 (16796160)
I0708 16:37:37.858486 29489 net.cpp:165] Memory required for data: 2223657200
I0708 16:37:37.858492 29489 layer_factory.hpp:77] Creating layer conv2_3_1x1_increase/bn
I0708 16:37:37.858501 29489 net.cpp:106] Creating Layer conv2_3_1x1_increase/bn
I0708 16:37:37.858506 29489 net.cpp:454] conv2_3_1x1_increase/bn <- conv2_3_1x1_increase
I0708 16:37:37.858512 29489 net.cpp:397] conv2_3_1x1_increase/bn -> conv2_3_1x1_increase (in-place)
I0708 16:37:37.858662 29489 net.cpp:150] Setting up conv2_3_1x1_increase/bn
I0708 16:37:37.858672 29489 net.cpp:157] Top shape: 10 256 81 81 (16796160)
I0708 16:37:37.858677 29489 net.cpp:165] Memory required for data: 2290841840
I0708 16:37:37.858691 29489 layer_factory.hpp:77] Creating layer conv2_3
I0708 16:37:37.858700 29489 net.cpp:106] Creating Layer conv2_3
I0708 16:37:37.858705 29489 net.cpp:454] conv2_3 <- conv2_2_conv2_2/relu_0_split_1
I0708 16:37:37.858711 29489 net.cpp:454] conv2_3 <- conv2_3_1x1_increase
I0708 16:37:37.858719 29489 net.cpp:411] conv2_3 -> conv2_3
I0708 16:37:37.858741 29489 net.cpp:150] Setting up conv2_3
I0708 16:37:37.858749 29489 net.cpp:157] Top shape: 10 256 81 81 (16796160)
I0708 16:37:37.858753 29489 net.cpp:165] Memory required for data: 2358026480
I0708 16:37:37.858757 29489 layer_factory.hpp:77] Creating layer conv2_3/relu
I0708 16:37:37.858763 29489 net.cpp:106] Creating Layer conv2_3/relu
I0708 16:37:37.858768 29489 net.cpp:454] conv2_3/relu <- conv2_3
I0708 16:37:37.858775 29489 net.cpp:397] conv2_3/relu -> conv2_3 (in-place)
I0708 16:37:37.858786 29489 net.cpp:150] Setting up conv2_3/relu
I0708 16:37:37.858794 29489 net.cpp:157] Top shape: 10 256 81 81 (16796160)
I0708 16:37:37.858803 29489 net.cpp:165] Memory required for data: 2425211120
I0708 16:37:37.858809 29489 layer_factory.hpp:77] Creating layer conv2_3_conv2_3/relu_0_split
I0708 16:37:37.858819 29489 net.cpp:106] Creating Layer conv2_3_conv2_3/relu_0_split
I0708 16:37:37.858824 29489 net.cpp:454] conv2_3_conv2_3/relu_0_split <- conv2_3
I0708 16:37:37.858830 29489 net.cpp:411] conv2_3_conv2_3/relu_0_split -> conv2_3_conv2_3/relu_0_split_0
I0708 16:37:37.858846 29489 net.cpp:411] conv2_3_conv2_3/relu_0_split -> conv2_3_conv2_3/relu_0_split_1
I0708 16:37:37.858878 29489 net.cpp:150] Setting up conv2_3_conv2_3/relu_0_split
I0708 16:37:37.858886 29489 net.cpp:157] Top shape: 10 256 81 81 (16796160)
I0708 16:37:37.858891 29489 net.cpp:157] Top shape: 10 256 81 81 (16796160)
I0708 16:37:37.858894 29489 net.cpp:165] Memory required for data: 2559580400
I0708 16:37:37.858899 29489 layer_factory.hpp:77] Creating layer conv3_1_1x1_reduce
I0708 16:37:37.858907 29489 net.cpp:106] Creating Layer conv3_1_1x1_reduce
I0708 16:37:37.858912 29489 net.cpp:454] conv3_1_1x1_reduce <- conv2_3_conv2_3/relu_0_split_0
I0708 16:37:37.858919 29489 net.cpp:411] conv3_1_1x1_reduce -> conv3_1_1x1_reduce
I0708 16:37:37.859769 29489 net.cpp:150] Setting up conv3_1_1x1_reduce
I0708 16:37:37.859786 29489 net.cpp:157] Top shape: 10 128 41 41 (2151680)
I0708 16:37:37.859792 29489 net.cpp:165] Memory required for data: 2568187120
I0708 16:37:37.859803 29489 layer_factory.hpp:77] Creating layer conv3_1_1x1_reduce/bn
I0708 16:37:37.859813 29489 net.cpp:106] Creating Layer conv3_1_1x1_reduce/bn
I0708 16:37:37.859819 29489 net.cpp:454] conv3_1_1x1_reduce/bn <- conv3_1_1x1_reduce
I0708 16:37:37.859828 29489 net.cpp:397] conv3_1_1x1_reduce/bn -> conv3_1_1x1_reduce (in-place)
I0708 16:37:37.859989 29489 net.cpp:150] Setting up conv3_1_1x1_reduce/bn
I0708 16:37:37.859998 29489 net.cpp:157] Top shape: 10 128 41 41 (2151680)
I0708 16:37:37.860004 29489 net.cpp:165] Memory required for data: 2576793840
I0708 16:37:37.860013 29489 layer_factory.hpp:77] Creating layer conv3_1_1x1_reduce/relu
I0708 16:37:37.860021 29489 net.cpp:106] Creating Layer conv3_1_1x1_reduce/relu
I0708 16:37:37.860028 29489 net.cpp:454] conv3_1_1x1_reduce/relu <- conv3_1_1x1_reduce
I0708 16:37:37.860033 29489 net.cpp:397] conv3_1_1x1_reduce/relu -> conv3_1_1x1_reduce (in-place)
I0708 16:37:37.860043 29489 net.cpp:150] Setting up conv3_1_1x1_reduce/relu
I0708 16:37:37.860050 29489 net.cpp:157] Top shape: 10 128 41 41 (2151680)
I0708 16:37:37.860054 29489 net.cpp:165] Memory required for data: 2585400560
I0708 16:37:37.860061 29489 layer_factory.hpp:77] Creating layer conv3_1_3x3
I0708 16:37:37.860069 29489 net.cpp:106] Creating Layer conv3_1_3x3
I0708 16:37:37.860074 29489 net.cpp:454] conv3_1_3x3 <- conv3_1_1x1_reduce
I0708 16:37:37.860083 29489 net.cpp:411] conv3_1_3x3 -> conv3_1_3x3
I0708 16:37:37.861563 29489 net.cpp:150] Setting up conv3_1_3x3
I0708 16:37:37.861573 29489 net.cpp:157] Top shape: 10 128 41 41 (2151680)
I0708 16:37:37.861577 29489 net.cpp:165] Memory required for data: 2594007280
I0708 16:37:37.861582 29489 layer_factory.hpp:77] Creating layer conv3_1_3x3/bn
I0708 16:37:37.861591 29489 net.cpp:106] Creating Layer conv3_1_3x3/bn
I0708 16:37:37.861600 29489 net.cpp:454] conv3_1_3x3/bn <- conv3_1_3x3
I0708 16:37:37.861611 29489 net.cpp:397] conv3_1_3x3/bn -> conv3_1_3x3 (in-place)
I0708 16:37:37.861773 29489 net.cpp:150] Setting up conv3_1_3x3/bn
I0708 16:37:37.861784 29489 net.cpp:157] Top shape: 10 128 41 41 (2151680)
I0708 16:37:37.861790 29489 net.cpp:165] Memory required for data: 2602614000
I0708 16:37:37.861804 29489 layer_factory.hpp:77] Creating layer conv3_1_3x3/relu
I0708 16:37:37.861815 29489 net.cpp:106] Creating Layer conv3_1_3x3/relu
I0708 16:37:37.861827 29489 net.cpp:454] conv3_1_3x3/relu <- conv3_1_3x3
I0708 16:37:37.861834 29489 net.cpp:397] conv3_1_3x3/relu -> conv3_1_3x3 (in-place)
I0708 16:37:37.861841 29489 net.cpp:150] Setting up conv3_1_3x3/relu
I0708 16:37:37.861851 29489 net.cpp:157] Top shape: 10 128 41 41 (2151680)
I0708 16:37:37.861857 29489 net.cpp:165] Memory required for data: 2611220720
I0708 16:37:37.861865 29489 layer_factory.hpp:77] Creating layer conv3_1_1x1_increase
I0708 16:37:37.861879 29489 net.cpp:106] Creating Layer conv3_1_1x1_increase
I0708 16:37:37.861891 29489 net.cpp:454] conv3_1_1x1_increase <- conv3_1_3x3
I0708 16:37:37.861902 29489 net.cpp:411] conv3_1_1x1_increase -> conv3_1_1x1_increase
I0708 16:37:37.862637 29489 net.cpp:150] Setting up conv3_1_1x1_increase
I0708 16:37:37.862658 29489 net.cpp:157] Top shape: 10 512 41 41 (8606720)
I0708 16:37:37.862665 29489 net.cpp:165] Memory required for data: 2645647600
I0708 16:37:37.862678 29489 layer_factory.hpp:77] Creating layer conv3_1_1x1_increase/bn
I0708 16:37:37.862685 29489 net.cpp:106] Creating Layer conv3_1_1x1_increase/bn
I0708 16:37:37.862690 29489 net.cpp:454] conv3_1_1x1_increase/bn <- conv3_1_1x1_increase
I0708 16:37:37.862699 29489 net.cpp:397] conv3_1_1x1_increase/bn -> conv3_1_1x1_increase (in-place)
I0708 16:37:37.863236 29489 net.cpp:150] Setting up conv3_1_1x1_increase/bn
I0708 16:37:37.863250 29489 net.cpp:157] Top shape: 10 512 41 41 (8606720)
I0708 16:37:37.863255 29489 net.cpp:165] Memory required for data: 2680074480
I0708 16:37:37.863265 29489 layer_factory.hpp:77] Creating layer conv3_1_1x1_proj
I0708 16:37:37.863275 29489 net.cpp:106] Creating Layer conv3_1_1x1_proj
I0708 16:37:37.863279 29489 net.cpp:454] conv3_1_1x1_proj <- conv2_3_conv2_3/relu_0_split_1
I0708 16:37:37.863287 29489 net.cpp:411] conv3_1_1x1_proj -> conv3_1_1x1_proj
I0708 16:37:37.865001 29489 net.cpp:150] Setting up conv3_1_1x1_proj
I0708 16:37:37.865018 29489 net.cpp:157] Top shape: 10 512 41 41 (8606720)
I0708 16:37:37.865025 29489 net.cpp:165] Memory required for data: 2714501360
I0708 16:37:37.865036 29489 layer_factory.hpp:77] Creating layer conv3_1_1x1_proj/bn
I0708 16:37:37.865051 29489 net.cpp:106] Creating Layer conv3_1_1x1_proj/bn
I0708 16:37:37.865062 29489 net.cpp:454] conv3_1_1x1_proj/bn <- conv3_1_1x1_proj
I0708 16:37:37.865077 29489 net.cpp:397] conv3_1_1x1_proj/bn -> conv3_1_1x1_proj (in-place)
I0708 16:37:37.865247 29489 net.cpp:150] Setting up conv3_1_1x1_proj/bn
I0708 16:37:37.865258 29489 net.cpp:157] Top shape: 10 512 41 41 (8606720)
I0708 16:37:37.865265 29489 net.cpp:165] Memory required for data: 2748928240
I0708 16:37:37.865294 29489 layer_factory.hpp:77] Creating layer conv3_1
I0708 16:37:37.865308 29489 net.cpp:106] Creating Layer conv3_1
I0708 16:37:37.865315 29489 net.cpp:454] conv3_1 <- conv3_1_1x1_proj
I0708 16:37:37.865326 29489 net.cpp:454] conv3_1 <- conv3_1_1x1_increase
I0708 16:37:37.865339 29489 net.cpp:411] conv3_1 -> conv3_1
I0708 16:37:37.865376 29489 net.cpp:150] Setting up conv3_1
I0708 16:37:37.865388 29489 net.cpp:157] Top shape: 10 512 41 41 (8606720)
I0708 16:37:37.865396 29489 net.cpp:165] Memory required for data: 2783355120
I0708 16:37:37.865404 29489 layer_factory.hpp:77] Creating layer conv3_1/relu
I0708 16:37:37.865416 29489 net.cpp:106] Creating Layer conv3_1/relu
I0708 16:37:37.865427 29489 net.cpp:454] conv3_1/relu <- conv3_1
I0708 16:37:37.865439 29489 net.cpp:397] conv3_1/relu -> conv3_1 (in-place)
I0708 16:37:37.865452 29489 net.cpp:150] Setting up conv3_1/relu
I0708 16:37:37.865463 29489 net.cpp:157] Top shape: 10 512 41 41 (8606720)
I0708 16:37:37.865473 29489 net.cpp:165] Memory required for data: 2817782000
I0708 16:37:37.865481 29489 layer_factory.hpp:77] Creating layer conv3_1_conv3_1/relu_0_split
I0708 16:37:37.865492 29489 net.cpp:106] Creating Layer conv3_1_conv3_1/relu_0_split
I0708 16:37:37.865502 29489 net.cpp:454] conv3_1_conv3_1/relu_0_split <- conv3_1
I0708 16:37:37.865517 29489 net.cpp:411] conv3_1_conv3_1/relu_0_split -> conv3_1_conv3_1/relu_0_split_0
I0708 16:37:37.865530 29489 net.cpp:411] conv3_1_conv3_1/relu_0_split -> conv3_1_conv3_1/relu_0_split_1
I0708 16:37:37.865589 29489 net.cpp:150] Setting up conv3_1_conv3_1/relu_0_split
I0708 16:37:37.865603 29489 net.cpp:157] Top shape: 10 512 41 41 (8606720)
I0708 16:37:37.865612 29489 net.cpp:157] Top shape: 10 512 41 41 (8606720)
I0708 16:37:37.865622 29489 net.cpp:165] Memory required for data: 2886635760
I0708 16:37:37.865630 29489 layer_factory.hpp:77] Creating layer conv3_2_1x1_reduce
I0708 16:37:37.865650 29489 net.cpp:106] Creating Layer conv3_2_1x1_reduce
I0708 16:37:37.865659 29489 net.cpp:454] conv3_2_1x1_reduce <- conv3_1_conv3_1/relu_0_split_0
I0708 16:37:37.865674 29489 net.cpp:411] conv3_2_1x1_reduce -> conv3_2_1x1_reduce
I0708 16:37:37.866411 29489 net.cpp:150] Setting up conv3_2_1x1_reduce
I0708 16:37:37.866433 29489 net.cpp:157] Top shape: 10 128 41 41 (2151680)
I0708 16:37:37.866441 29489 net.cpp:165] Memory required for data: 2895242480
I0708 16:37:37.866451 29489 layer_factory.hpp:77] Creating layer conv3_2_1x1_reduce/bn
I0708 16:37:37.866464 29489 net.cpp:106] Creating Layer conv3_2_1x1_reduce/bn
I0708 16:37:37.866474 29489 net.cpp:454] conv3_2_1x1_reduce/bn <- conv3_2_1x1_reduce
I0708 16:37:37.866490 29489 net.cpp:397] conv3_2_1x1_reduce/bn -> conv3_2_1x1_reduce (in-place)
I0708 16:37:37.866660 29489 net.cpp:150] Setting up conv3_2_1x1_reduce/bn
I0708 16:37:37.866672 29489 net.cpp:157] Top shape: 10 128 41 41 (2151680)
I0708 16:37:37.866679 29489 net.cpp:165] Memory required for data: 2903849200
I0708 16:37:37.866706 29489 layer_factory.hpp:77] Creating layer conv3_2_1x1_reduce/relu
I0708 16:37:37.866717 29489 net.cpp:106] Creating Layer conv3_2_1x1_reduce/relu
I0708 16:37:37.866724 29489 net.cpp:454] conv3_2_1x1_reduce/relu <- conv3_2_1x1_reduce
I0708 16:37:37.866735 29489 net.cpp:397] conv3_2_1x1_reduce/relu -> conv3_2_1x1_reduce (in-place)
I0708 16:37:37.866749 29489 net.cpp:150] Setting up conv3_2_1x1_reduce/relu
I0708 16:37:37.866760 29489 net.cpp:157] Top shape: 10 128 41 41 (2151680)
I0708 16:37:37.866770 29489 net.cpp:165] Memory required for data: 2912455920
I0708 16:37:37.866780 29489 layer_factory.hpp:77] Creating layer conv3_2_3x3
I0708 16:37:37.866792 29489 net.cpp:106] Creating Layer conv3_2_3x3
I0708 16:37:37.866801 29489 net.cpp:454] conv3_2_3x3 <- conv3_2_1x1_reduce
I0708 16:37:37.866814 29489 net.cpp:411] conv3_2_3x3 -> conv3_2_3x3
I0708 16:37:37.868625 29489 net.cpp:150] Setting up conv3_2_3x3
I0708 16:37:37.868641 29489 net.cpp:157] Top shape: 10 128 41 41 (2151680)
I0708 16:37:37.868649 29489 net.cpp:165] Memory required for data: 2921062640
I0708 16:37:37.868657 29489 layer_factory.hpp:77] Creating layer conv3_2_3x3/bn
I0708 16:37:37.868682 29489 net.cpp:106] Creating Layer conv3_2_3x3/bn
I0708 16:37:37.868692 29489 net.cpp:454] conv3_2_3x3/bn <- conv3_2_3x3
I0708 16:37:37.868703 29489 net.cpp:397] conv3_2_3x3/bn -> conv3_2_3x3 (in-place)
I0708 16:37:37.868861 29489 net.cpp:150] Setting up conv3_2_3x3/bn
I0708 16:37:37.868875 29489 net.cpp:157] Top shape: 10 128 41 41 (2151680)
I0708 16:37:37.868880 29489 net.cpp:165] Memory required for data: 2929669360
I0708 16:37:37.868893 29489 layer_factory.hpp:77] Creating layer conv3_2_3x3/relu
I0708 16:37:37.868903 29489 net.cpp:106] Creating Layer conv3_2_3x3/relu
I0708 16:37:37.868911 29489 net.cpp:454] conv3_2_3x3/relu <- conv3_2_3x3
I0708 16:37:37.868921 29489 net.cpp:397] conv3_2_3x3/relu -> conv3_2_3x3 (in-place)
I0708 16:37:37.868932 29489 net.cpp:150] Setting up conv3_2_3x3/relu
I0708 16:37:37.868943 29489 net.cpp:157] Top shape: 10 128 41 41 (2151680)
I0708 16:37:37.868949 29489 net.cpp:165] Memory required for data: 2938276080
I0708 16:37:37.868959 29489 layer_factory.hpp:77] Creating layer conv3_2_1x1_increase
I0708 16:37:37.868979 29489 net.cpp:106] Creating Layer conv3_2_1x1_increase
I0708 16:37:37.868990 29489 net.cpp:454] conv3_2_1x1_increase <- conv3_2_3x3
I0708 16:37:37.869001 29489 net.cpp:411] conv3_2_1x1_increase -> conv3_2_1x1_increase
I0708 16:37:37.869686 29489 net.cpp:150] Setting up conv3_2_1x1_increase
I0708 16:37:37.869699 29489 net.cpp:157] Top shape: 10 512 41 41 (8606720)
I0708 16:37:37.869704 29489 net.cpp:165] Memory required for data: 2972702960
I0708 16:37:37.869712 29489 layer_factory.hpp:77] Creating layer conv3_2_1x1_increase/bn
I0708 16:37:37.869726 29489 net.cpp:106] Creating Layer conv3_2_1x1_increase/bn
I0708 16:37:37.869735 29489 net.cpp:454] conv3_2_1x1_increase/bn <- conv3_2_1x1_increase
I0708 16:37:37.869750 29489 net.cpp:397] conv3_2_1x1_increase/bn -> conv3_2_1x1_increase (in-place)
I0708 16:37:37.869909 29489 net.cpp:150] Setting up conv3_2_1x1_increase/bn
I0708 16:37:37.869920 29489 net.cpp:157] Top shape: 10 512 41 41 (8606720)
I0708 16:37:37.869926 29489 net.cpp:165] Memory required for data: 3007129840
I0708 16:37:37.869956 29489 layer_factory.hpp:77] Creating layer conv3_2
I0708 16:37:37.869976 29489 net.cpp:106] Creating Layer conv3_2
I0708 16:37:37.869985 29489 net.cpp:454] conv3_2 <- conv3_1_conv3_1/relu_0_split_1
I0708 16:37:37.869994 29489 net.cpp:454] conv3_2 <- conv3_2_1x1_increase
I0708 16:37:37.870005 29489 net.cpp:411] conv3_2 -> conv3_2
I0708 16:37:37.870036 29489 net.cpp:150] Setting up conv3_2
I0708 16:37:37.870048 29489 net.cpp:157] Top shape: 10 512 41 41 (8606720)
I0708 16:37:37.870054 29489 net.cpp:165] Memory required for data: 3041556720
I0708 16:37:37.870062 29489 layer_factory.hpp:77] Creating layer conv3_2/relu
I0708 16:37:37.870074 29489 net.cpp:106] Creating Layer conv3_2/relu
I0708 16:37:37.870084 29489 net.cpp:454] conv3_2/relu <- conv3_2
I0708 16:37:37.870095 29489 net.cpp:397] conv3_2/relu -> conv3_2 (in-place)
I0708 16:37:37.870106 29489 net.cpp:150] Setting up conv3_2/relu
I0708 16:37:37.870127 29489 net.cpp:157] Top shape: 10 512 41 41 (8606720)
I0708 16:37:37.870136 29489 net.cpp:165] Memory required for data: 3075983600
I0708 16:37:37.870142 29489 layer_factory.hpp:77] Creating layer conv3_2_conv3_2/relu_0_split
I0708 16:37:37.870163 29489 net.cpp:106] Creating Layer conv3_2_conv3_2/relu_0_split
I0708 16:37:37.870172 29489 net.cpp:454] conv3_2_conv3_2/relu_0_split <- conv3_2
I0708 16:37:37.870183 29489 net.cpp:411] conv3_2_conv3_2/relu_0_split -> conv3_2_conv3_2/relu_0_split_0
I0708 16:37:37.870198 29489 net.cpp:411] conv3_2_conv3_2/relu_0_split -> conv3_2_conv3_2/relu_0_split_1
I0708 16:37:37.870237 29489 net.cpp:150] Setting up conv3_2_conv3_2/relu_0_split
I0708 16:37:37.870249 29489 net.cpp:157] Top shape: 10 512 41 41 (8606720)
I0708 16:37:37.870257 29489 net.cpp:157] Top shape: 10 512 41 41 (8606720)
I0708 16:37:37.870267 29489 net.cpp:165] Memory required for data: 3144837360
I0708 16:37:37.870275 29489 layer_factory.hpp:77] Creating layer conv3_3_1x1_reduce
I0708 16:37:37.870291 29489 net.cpp:106] Creating Layer conv3_3_1x1_reduce
I0708 16:37:37.870301 29489 net.cpp:454] conv3_3_1x1_reduce <- conv3_2_conv3_2/relu_0_split_0
I0708 16:37:37.870312 29489 net.cpp:411] conv3_3_1x1_reduce -> conv3_3_1x1_reduce
I0708 16:37:37.871351 29489 net.cpp:150] Setting up conv3_3_1x1_reduce
I0708 16:37:37.871366 29489 net.cpp:157] Top shape: 10 128 41 41 (2151680)
I0708 16:37:37.871373 29489 net.cpp:165] Memory required for data: 3153444080
I0708 16:37:37.871382 29489 layer_factory.hpp:77] Creating layer conv3_3_1x1_reduce/bn
I0708 16:37:37.871394 29489 net.cpp:106] Creating Layer conv3_3_1x1_reduce/bn
I0708 16:37:37.871404 29489 net.cpp:454] conv3_3_1x1_reduce/bn <- conv3_3_1x1_reduce
I0708 16:37:37.871418 29489 net.cpp:397] conv3_3_1x1_reduce/bn -> conv3_3_1x1_reduce (in-place)
I0708 16:37:37.871577 29489 net.cpp:150] Setting up conv3_3_1x1_reduce/bn
I0708 16:37:37.871589 29489 net.cpp:157] Top shape: 10 128 41 41 (2151680)
I0708 16:37:37.871595 29489 net.cpp:165] Memory required for data: 3162050800
I0708 16:37:37.871635 29489 layer_factory.hpp:77] Creating layer conv3_3_1x1_reduce/relu
I0708 16:37:37.871650 29489 net.cpp:106] Creating Layer conv3_3_1x1_reduce/relu
I0708 16:37:37.871659 29489 net.cpp:454] conv3_3_1x1_reduce/relu <- conv3_3_1x1_reduce
I0708 16:37:37.871667 29489 net.cpp:397] conv3_3_1x1_reduce/relu -> conv3_3_1x1_reduce (in-place)
I0708 16:37:37.871680 29489 net.cpp:150] Setting up conv3_3_1x1_reduce/relu
I0708 16:37:37.871690 29489 net.cpp:157] Top shape: 10 128 41 41 (2151680)
I0708 16:37:37.871697 29489 net.cpp:165] Memory required for data: 3170657520
I0708 16:37:37.871704 29489 layer_factory.hpp:77] Creating layer conv3_3_3x3
I0708 16:37:37.871718 29489 net.cpp:106] Creating Layer conv3_3_3x3
I0708 16:37:37.871727 29489 net.cpp:454] conv3_3_3x3 <- conv3_3_1x1_reduce
I0708 16:37:37.871739 29489 net.cpp:411] conv3_3_3x3 -> conv3_3_3x3
I0708 16:37:37.873445 29489 net.cpp:150] Setting up conv3_3_3x3
I0708 16:37:37.873459 29489 net.cpp:157] Top shape: 10 128 41 41 (2151680)
I0708 16:37:37.873466 29489 net.cpp:165] Memory required for data: 3179264240
I0708 16:37:37.873476 29489 layer_factory.hpp:77] Creating layer conv3_3_3x3/bn
I0708 16:37:37.873500 29489 net.cpp:106] Creating Layer conv3_3_3x3/bn
I0708 16:37:37.873509 29489 net.cpp:454] conv3_3_3x3/bn <- conv3_3_3x3
I0708 16:37:37.873525 29489 net.cpp:397] conv3_3_3x3/bn -> conv3_3_3x3 (in-place)
I0708 16:37:37.873687 29489 net.cpp:150] Setting up conv3_3_3x3/bn
I0708 16:37:37.873698 29489 net.cpp:157] Top shape: 10 128 41 41 (2151680)
I0708 16:37:37.873704 29489 net.cpp:165] Memory required for data: 3187870960
I0708 16:37:37.873718 29489 layer_factory.hpp:77] Creating layer conv3_3_3x3/relu
I0708 16:37:37.873731 29489 net.cpp:106] Creating Layer conv3_3_3x3/relu
I0708 16:37:37.873741 29489 net.cpp:454] conv3_3_3x3/relu <- conv3_3_3x3
I0708 16:37:37.873750 29489 net.cpp:397] conv3_3_3x3/relu -> conv3_3_3x3 (in-place)
I0708 16:37:37.873764 29489 net.cpp:150] Setting up conv3_3_3x3/relu
I0708 16:37:37.873774 29489 net.cpp:157] Top shape: 10 128 41 41 (2151680)
I0708 16:37:37.873780 29489 net.cpp:165] Memory required for data: 3196477680
I0708 16:37:37.873787 29489 layer_factory.hpp:77] Creating layer conv3_3_1x1_increase
I0708 16:37:37.873800 29489 net.cpp:106] Creating Layer conv3_3_1x1_increase
I0708 16:37:37.873811 29489 net.cpp:454] conv3_3_1x1_increase <- conv3_3_3x3
I0708 16:37:37.873824 29489 net.cpp:411] conv3_3_1x1_increase -> conv3_3_1x1_increase
I0708 16:37:37.874511 29489 net.cpp:150] Setting up conv3_3_1x1_increase
I0708 16:37:37.874522 29489 net.cpp:157] Top shape: 10 512 41 41 (8606720)
I0708 16:37:37.874528 29489 net.cpp:165] Memory required for data: 3230904560
I0708 16:37:37.874536 29489 layer_factory.hpp:77] Creating layer conv3_3_1x1_increase/bn
I0708 16:37:37.874550 29489 net.cpp:106] Creating Layer conv3_3_1x1_increase/bn
I0708 16:37:37.874562 29489 net.cpp:454] conv3_3_1x1_increase/bn <- conv3_3_1x1_increase
I0708 16:37:37.874572 29489 net.cpp:397] conv3_3_1x1_increase/bn -> conv3_3_1x1_increase (in-place)
I0708 16:37:37.874734 29489 net.cpp:150] Setting up conv3_3_1x1_increase/bn
I0708 16:37:37.874745 29489 net.cpp:157] Top shape: 10 512 41 41 (8606720)
I0708 16:37:37.874752 29489 net.cpp:165] Memory required for data: 3265331440
I0708 16:37:37.874764 29489 layer_factory.hpp:77] Creating layer conv3_3
I0708 16:37:37.874775 29489 net.cpp:106] Creating Layer conv3_3
I0708 16:37:37.874784 29489 net.cpp:454] conv3_3 <- conv3_2_conv3_2/relu_0_split_1
I0708 16:37:37.874793 29489 net.cpp:454] conv3_3 <- conv3_3_1x1_increase
I0708 16:37:37.874804 29489 net.cpp:411] conv3_3 -> conv3_3
I0708 16:37:37.874835 29489 net.cpp:150] Setting up conv3_3
I0708 16:37:37.874847 29489 net.cpp:157] Top shape: 10 512 41 41 (8606720)
I0708 16:37:37.874853 29489 net.cpp:165] Memory required for data: 3299758320
I0708 16:37:37.874862 29489 layer_factory.hpp:77] Creating layer conv3_3/relu
I0708 16:37:37.874873 29489 net.cpp:106] Creating Layer conv3_3/relu
I0708 16:37:37.874884 29489 net.cpp:454] conv3_3/relu <- conv3_3
I0708 16:37:37.874893 29489 net.cpp:397] conv3_3/relu -> conv3_3 (in-place)
I0708 16:37:37.874905 29489 net.cpp:150] Setting up conv3_3/relu
I0708 16:37:37.874915 29489 net.cpp:157] Top shape: 10 512 41 41 (8606720)
I0708 16:37:37.874924 29489 net.cpp:165] Memory required for data: 3334185200
I0708 16:37:37.874932 29489 layer_factory.hpp:77] Creating layer conv3_3_conv3_3/relu_0_split
I0708 16:37:37.874941 29489 net.cpp:106] Creating Layer conv3_3_conv3_3/relu_0_split
I0708 16:37:37.874950 29489 net.cpp:454] conv3_3_conv3_3/relu_0_split <- conv3_3
I0708 16:37:37.874961 29489 net.cpp:411] conv3_3_conv3_3/relu_0_split -> conv3_3_conv3_3/relu_0_split_0
I0708 16:37:37.874974 29489 net.cpp:411] conv3_3_conv3_3/relu_0_split -> conv3_3_conv3_3/relu_0_split_1
I0708 16:37:37.875010 29489 net.cpp:150] Setting up conv3_3_conv3_3/relu_0_split
I0708 16:37:37.875021 29489 net.cpp:157] Top shape: 10 512 41 41 (8606720)
I0708 16:37:37.875028 29489 net.cpp:157] Top shape: 10 512 41 41 (8606720)
I0708 16:37:37.875035 29489 net.cpp:165] Memory required for data: 3403038960
I0708 16:37:37.875041 29489 layer_factory.hpp:77] Creating layer conv3_4_1x1_reduce
I0708 16:37:37.875056 29489 net.cpp:106] Creating Layer conv3_4_1x1_reduce
I0708 16:37:37.875075 29489 net.cpp:454] conv3_4_1x1_reduce <- conv3_3_conv3_3/relu_0_split_0
I0708 16:37:37.875087 29489 net.cpp:411] conv3_4_1x1_reduce -> conv3_4_1x1_reduce
I0708 16:37:37.875789 29489 net.cpp:150] Setting up conv3_4_1x1_reduce
I0708 16:37:37.875802 29489 net.cpp:157] Top shape: 10 128 41 41 (2151680)
I0708 16:37:37.875808 29489 net.cpp:165] Memory required for data: 3411645680
I0708 16:37:37.875818 29489 layer_factory.hpp:77] Creating layer conv3_4_1x1_reduce/bn
I0708 16:37:37.875829 29489 net.cpp:106] Creating Layer conv3_4_1x1_reduce/bn
I0708 16:37:37.875838 29489 net.cpp:454] conv3_4_1x1_reduce/bn <- conv3_4_1x1_reduce
I0708 16:37:37.875850 29489 net.cpp:397] conv3_4_1x1_reduce/bn -> conv3_4_1x1_reduce (in-place)
I0708 16:37:37.876014 29489 net.cpp:150] Setting up conv3_4_1x1_reduce/bn
I0708 16:37:37.876026 29489 net.cpp:157] Top shape: 10 128 41 41 (2151680)
I0708 16:37:37.876034 29489 net.cpp:165] Memory required for data: 3420252400
I0708 16:37:37.876046 29489 layer_factory.hpp:77] Creating layer conv3_4_1x1_reduce/relu
I0708 16:37:37.876056 29489 net.cpp:106] Creating Layer conv3_4_1x1_reduce/relu
I0708 16:37:37.876063 29489 net.cpp:454] conv3_4_1x1_reduce/relu <- conv3_4_1x1_reduce
I0708 16:37:37.876072 29489 net.cpp:397] conv3_4_1x1_reduce/relu -> conv3_4_1x1_reduce (in-place)
I0708 16:37:37.876085 29489 net.cpp:150] Setting up conv3_4_1x1_reduce/relu
I0708 16:37:37.876096 29489 net.cpp:157] Top shape: 10 128 41 41 (2151680)
I0708 16:37:37.876102 29489 net.cpp:165] Memory required for data: 3428859120
I0708 16:37:37.876111 29489 layer_factory.hpp:77] Creating layer conv3_4_3x3
I0708 16:37:37.876124 29489 net.cpp:106] Creating Layer conv3_4_3x3
I0708 16:37:37.876137 29489 net.cpp:454] conv3_4_3x3 <- conv3_4_1x1_reduce
I0708 16:37:37.876148 29489 net.cpp:411] conv3_4_3x3 -> conv3_4_3x3
I0708 16:37:37.877861 29489 net.cpp:150] Setting up conv3_4_3x3
I0708 16:37:37.877876 29489 net.cpp:157] Top shape: 10 128 41 41 (2151680)
I0708 16:37:37.877882 29489 net.cpp:165] Memory required for data: 3437465840
I0708 16:37:37.877892 29489 layer_factory.hpp:77] Creating layer conv3_4_3x3/bn
I0708 16:37:37.877903 29489 net.cpp:106] Creating Layer conv3_4_3x3/bn
I0708 16:37:37.877912 29489 net.cpp:454] conv3_4_3x3/bn <- conv3_4_3x3
I0708 16:37:37.877925 29489 net.cpp:397] conv3_4_3x3/bn -> conv3_4_3x3 (in-place)
I0708 16:37:37.878087 29489 net.cpp:150] Setting up conv3_4_3x3/bn
I0708 16:37:37.878098 29489 net.cpp:157] Top shape: 10 128 41 41 (2151680)
I0708 16:37:37.878105 29489 net.cpp:165] Memory required for data: 3446072560
I0708 16:37:37.878118 29489 layer_factory.hpp:77] Creating layer conv3_4_3x3/relu
I0708 16:37:37.878130 29489 net.cpp:106] Creating Layer conv3_4_3x3/relu
I0708 16:37:37.878137 29489 net.cpp:454] conv3_4_3x3/relu <- conv3_4_3x3
I0708 16:37:37.878149 29489 net.cpp:397] conv3_4_3x3/relu -> conv3_4_3x3 (in-place)
I0708 16:37:37.878160 29489 net.cpp:150] Setting up conv3_4_3x3/relu
I0708 16:37:37.878170 29489 net.cpp:157] Top shape: 10 128 41 41 (2151680)
I0708 16:37:37.878177 29489 net.cpp:165] Memory required for data: 3454679280
I0708 16:37:37.878185 29489 layer_factory.hpp:77] Creating layer conv3_4_1x1_increase
I0708 16:37:37.878198 29489 net.cpp:106] Creating Layer conv3_4_1x1_increase
I0708 16:37:37.878207 29489 net.cpp:454] conv3_4_1x1_increase <- conv3_4_3x3
I0708 16:37:37.878222 29489 net.cpp:411] conv3_4_1x1_increase -> conv3_4_1x1_increase
I0708 16:37:37.878908 29489 net.cpp:150] Setting up conv3_4_1x1_increase
I0708 16:37:37.878921 29489 net.cpp:157] Top shape: 10 512 41 41 (8606720)
I0708 16:37:37.878927 29489 net.cpp:165] Memory required for data: 3489106160
I0708 16:37:37.878936 29489 layer_factory.hpp:77] Creating layer conv3_4_1x1_increase/bn
I0708 16:37:37.878948 29489 net.cpp:106] Creating Layer conv3_4_1x1_increase/bn
I0708 16:37:37.878957 29489 net.cpp:454] conv3_4_1x1_increase/bn <- conv3_4_1x1_increase
I0708 16:37:37.878968 29489 net.cpp:397] conv3_4_1x1_increase/bn -> conv3_4_1x1_increase (in-place)
I0708 16:37:37.879127 29489 net.cpp:150] Setting up conv3_4_1x1_increase/bn
I0708 16:37:37.879148 29489 net.cpp:157] Top shape: 10 512 41 41 (8606720)
I0708 16:37:37.879155 29489 net.cpp:165] Memory required for data: 3523533040
I0708 16:37:37.879189 29489 layer_factory.hpp:77] Creating layer conv3_4
I0708 16:37:37.879200 29489 net.cpp:106] Creating Layer conv3_4
I0708 16:37:37.879207 29489 net.cpp:454] conv3_4 <- conv3_3_conv3_3/relu_0_split_1
I0708 16:37:37.879216 29489 net.cpp:454] conv3_4 <- conv3_4_1x1_increase
I0708 16:37:37.879230 29489 net.cpp:411] conv3_4 -> conv3_4
I0708 16:37:37.879263 29489 net.cpp:150] Setting up conv3_4
I0708 16:37:37.879273 29489 net.cpp:157] Top shape: 10 512 41 41 (8606720)
I0708 16:37:37.879279 29489 net.cpp:165] Memory required for data: 3557959920
I0708 16:37:37.879287 29489 layer_factory.hpp:77] Creating layer conv3_4/relu
I0708 16:37:37.879297 29489 net.cpp:106] Creating Layer conv3_4/relu
I0708 16:37:37.879304 29489 net.cpp:454] conv3_4/relu <- conv3_4
I0708 16:37:37.879317 29489 net.cpp:397] conv3_4/relu -> conv3_4 (in-place)
I0708 16:37:37.879329 29489 net.cpp:150] Setting up conv3_4/relu
I0708 16:37:37.879338 29489 net.cpp:157] Top shape: 10 512 41 41 (8606720)
I0708 16:37:37.879346 29489 net.cpp:165] Memory required for data: 3592386800
I0708 16:37:37.879354 29489 layer_factory.hpp:77] Creating layer conv3_4_conv3_4/relu_0_split
I0708 16:37:37.879362 29489 net.cpp:106] Creating Layer conv3_4_conv3_4/relu_0_split
I0708 16:37:37.879371 29489 net.cpp:454] conv3_4_conv3_4/relu_0_split <- conv3_4
I0708 16:37:37.879380 29489 net.cpp:411] conv3_4_conv3_4/relu_0_split -> conv3_4_conv3_4/relu_0_split_0
I0708 16:37:37.879390 29489 net.cpp:411] conv3_4_conv3_4/relu_0_split -> conv3_4_conv3_4/relu_0_split_1
I0708 16:37:37.879431 29489 net.cpp:150] Setting up conv3_4_conv3_4/relu_0_split
I0708 16:37:37.879442 29489 net.cpp:157] Top shape: 10 512 41 41 (8606720)
I0708 16:37:37.879451 29489 net.cpp:157] Top shape: 10 512 41 41 (8606720)
I0708 16:37:37.879458 29489 net.cpp:165] Memory required for data: 3661240560
I0708 16:37:37.879465 29489 layer_factory.hpp:77] Creating layer conv4_1_1x1_reduce
I0708 16:37:37.879480 29489 net.cpp:106] Creating Layer conv4_1_1x1_reduce
I0708 16:37:37.879489 29489 net.cpp:454] conv4_1_1x1_reduce <- conv3_4_conv3_4/relu_0_split_0
I0708 16:37:37.879501 29489 net.cpp:411] conv4_1_1x1_reduce -> conv4_1_1x1_reduce
I0708 16:37:37.880756 29489 net.cpp:150] Setting up conv4_1_1x1_reduce
I0708 16:37:37.880770 29489 net.cpp:157] Top shape: 10 256 41 41 (4303360)
I0708 16:37:37.880776 29489 net.cpp:165] Memory required for data: 3678454000
I0708 16:37:37.880785 29489 layer_factory.hpp:77] Creating layer conv4_1_1x1_reduce/bn
I0708 16:37:37.880798 29489 net.cpp:106] Creating Layer conv4_1_1x1_reduce/bn
I0708 16:37:37.880810 29489 net.cpp:454] conv4_1_1x1_reduce/bn <- conv4_1_1x1_reduce
I0708 16:37:37.880820 29489 net.cpp:397] conv4_1_1x1_reduce/bn -> conv4_1_1x1_reduce (in-place)
I0708 16:37:37.880985 29489 net.cpp:150] Setting up conv4_1_1x1_reduce/bn
I0708 16:37:37.880996 29489 net.cpp:157] Top shape: 10 256 41 41 (4303360)
I0708 16:37:37.881002 29489 net.cpp:165] Memory required for data: 3695667440
I0708 16:37:37.881016 29489 layer_factory.hpp:77] Creating layer conv4_1_1x1_reduce/relu
I0708 16:37:37.881026 29489 net.cpp:106] Creating Layer conv4_1_1x1_reduce/relu
I0708 16:37:37.881033 29489 net.cpp:454] conv4_1_1x1_reduce/relu <- conv4_1_1x1_reduce
I0708 16:37:37.881044 29489 net.cpp:397] conv4_1_1x1_reduce/relu -> conv4_1_1x1_reduce (in-place)
I0708 16:37:37.881057 29489 net.cpp:150] Setting up conv4_1_1x1_reduce/relu
I0708 16:37:37.881065 29489 net.cpp:157] Top shape: 10 256 41 41 (4303360)
I0708 16:37:37.881074 29489 net.cpp:165] Memory required for data: 3712880880
I0708 16:37:37.881081 29489 layer_factory.hpp:77] Creating layer conv4_1_3x3
I0708 16:37:37.881094 29489 net.cpp:106] Creating Layer conv4_1_3x3
I0708 16:37:37.881103 29489 net.cpp:454] conv4_1_3x3 <- conv4_1_1x1_reduce
I0708 16:37:37.881115 29489 net.cpp:411] conv4_1_3x3 -> conv4_1_3x3
I0708 16:37:37.886775 29489 net.cpp:150] Setting up conv4_1_3x3
I0708 16:37:37.886800 29489 net.cpp:157] Top shape: 10 256 41 41 (4303360)
I0708 16:37:37.886807 29489 net.cpp:165] Memory required for data: 3730094320
I0708 16:37:37.886816 29489 layer_factory.hpp:77] Creating layer conv4_1_3x3/bn
I0708 16:37:37.886831 29489 net.cpp:106] Creating Layer conv4_1_3x3/bn
I0708 16:37:37.886840 29489 net.cpp:454] conv4_1_3x3/bn <- conv4_1_3x3
I0708 16:37:37.886852 29489 net.cpp:397] conv4_1_3x3/bn -> conv4_1_3x3 (in-place)
I0708 16:37:37.887017 29489 net.cpp:150] Setting up conv4_1_3x3/bn
I0708 16:37:37.887028 29489 net.cpp:157] Top shape: 10 256 41 41 (4303360)
I0708 16:37:37.887034 29489 net.cpp:165] Memory required for data: 3747307760
I0708 16:37:37.887047 29489 layer_factory.hpp:77] Creating layer conv4_1_3x3/relu
I0708 16:37:37.887059 29489 net.cpp:106] Creating Layer conv4_1_3x3/relu
I0708 16:37:37.887068 29489 net.cpp:454] conv4_1_3x3/relu <- conv4_1_3x3
I0708 16:37:37.887076 29489 net.cpp:397] conv4_1_3x3/relu -> conv4_1_3x3 (in-place)
I0708 16:37:37.887089 29489 net.cpp:150] Setting up conv4_1_3x3/relu
I0708 16:37:37.887100 29489 net.cpp:157] Top shape: 10 256 41 41 (4303360)
I0708 16:37:37.887107 29489 net.cpp:165] Memory required for data: 3764521200
I0708 16:37:37.887115 29489 layer_factory.hpp:77] Creating layer conv4_1_1x1_increase
I0708 16:37:37.887132 29489 net.cpp:106] Creating Layer conv4_1_1x1_increase
I0708 16:37:37.887141 29489 net.cpp:454] conv4_1_1x1_increase <- conv4_1_3x3
I0708 16:37:37.887153 29489 net.cpp:411] conv4_1_1x1_increase -> conv4_1_1x1_increase
I0708 16:37:37.889787 29489 net.cpp:150] Setting up conv4_1_1x1_increase
I0708 16:37:37.889802 29489 net.cpp:157] Top shape: 10 1024 41 41 (17213440)
I0708 16:37:37.889809 29489 net.cpp:165] Memory required for data: 3833374960
I0708 16:37:37.889819 29489 layer_factory.hpp:77] Creating layer conv4_1_1x1_increase/bn
I0708 16:37:37.889833 29489 net.cpp:106] Creating Layer conv4_1_1x1_increase/bn
I0708 16:37:37.889844 29489 net.cpp:454] conv4_1_1x1_increase/bn <- conv4_1_1x1_increase
I0708 16:37:37.889855 29489 net.cpp:397] conv4_1_1x1_increase/bn -> conv4_1_1x1_increase (in-place)
I0708 16:37:37.890023 29489 net.cpp:150] Setting up conv4_1_1x1_increase/bn
I0708 16:37:37.890036 29489 net.cpp:157] Top shape: 10 1024 41 41 (17213440)
I0708 16:37:37.890043 29489 net.cpp:165] Memory required for data: 3902228720
I0708 16:37:37.890056 29489 layer_factory.hpp:77] Creating layer conv4_1_1x1_proj
I0708 16:37:37.890070 29489 net.cpp:106] Creating Layer conv4_1_1x1_proj
I0708 16:37:37.890079 29489 net.cpp:454] conv4_1_1x1_proj <- conv3_4_conv3_4/relu_0_split_1
I0708 16:37:37.890094 29489 net.cpp:411] conv4_1_1x1_proj -> conv4_1_1x1_proj
I0708 16:37:37.895229 29489 net.cpp:150] Setting up conv4_1_1x1_proj
I0708 16:37:37.895263 29489 net.cpp:157] Top shape: 10 1024 41 41 (17213440)
I0708 16:37:37.895269 29489 net.cpp:165] Memory required for data: 3971082480
I0708 16:37:37.895279 29489 layer_factory.hpp:77] Creating layer conv4_1_1x1_proj/bn
I0708 16:37:37.895298 29489 net.cpp:106] Creating Layer conv4_1_1x1_proj/bn
I0708 16:37:37.895315 29489 net.cpp:454] conv4_1_1x1_proj/bn <- conv4_1_1x1_proj
I0708 16:37:37.895330 29489 net.cpp:397] conv4_1_1x1_proj/bn -> conv4_1_1x1_proj (in-place)
I0708 16:37:37.895529 29489 net.cpp:150] Setting up conv4_1_1x1_proj/bn
I0708 16:37:37.895540 29489 net.cpp:157] Top shape: 10 1024 41 41 (17213440)
I0708 16:37:37.895547 29489 net.cpp:165] Memory required for data: 4039936240
I0708 16:37:37.895561 29489 layer_factory.hpp:77] Creating layer conv4_1
I0708 16:37:37.895576 29489 net.cpp:106] Creating Layer conv4_1
I0708 16:37:37.895586 29489 net.cpp:454] conv4_1 <- conv4_1_1x1_proj
I0708 16:37:37.895594 29489 net.cpp:454] conv4_1 <- conv4_1_1x1_increase
I0708 16:37:37.895629 29489 net.cpp:411] conv4_1 -> conv4_1
I0708 16:37:37.895664 29489 net.cpp:150] Setting up conv4_1
I0708 16:37:37.895675 29489 net.cpp:157] Top shape: 10 1024 41 41 (17213440)
I0708 16:37:37.895680 29489 net.cpp:165] Memory required for data: 4108790000
I0708 16:37:37.895687 29489 layer_factory.hpp:77] Creating layer conv4_1/relu
I0708 16:37:37.895714 29489 net.cpp:106] Creating Layer conv4_1/relu
I0708 16:37:37.895722 29489 net.cpp:454] conv4_1/relu <- conv4_1
I0708 16:37:37.895735 29489 net.cpp:397] conv4_1/relu -> conv4_1 (in-place)
I0708 16:37:37.895747 29489 net.cpp:150] Setting up conv4_1/relu
I0708 16:37:37.895758 29489 net.cpp:157] Top shape: 10 1024 41 41 (17213440)
I0708 16:37:37.895764 29489 net.cpp:165] Memory required for data: 4177643760
I0708 16:37:37.895772 29489 layer_factory.hpp:77] Creating layer conv4_1_conv4_1/relu_0_split
I0708 16:37:37.895783 29489 net.cpp:106] Creating Layer conv4_1_conv4_1/relu_0_split
I0708 16:37:37.895793 29489 net.cpp:454] conv4_1_conv4_1/relu_0_split <- conv4_1
I0708 16:37:37.895804 29489 net.cpp:411] conv4_1_conv4_1/relu_0_split -> conv4_1_conv4_1/relu_0_split_0
I0708 16:37:37.895817 29489 net.cpp:411] conv4_1_conv4_1/relu_0_split -> conv4_1_conv4_1/relu_0_split_1
I0708 16:37:37.895856 29489 net.cpp:150] Setting up conv4_1_conv4_1/relu_0_split
I0708 16:37:37.895866 29489 net.cpp:157] Top shape: 10 1024 41 41 (17213440)
I0708 16:37:37.895874 29489 net.cpp:157] Top shape: 10 1024 41 41 (17213440)
I0708 16:37:37.895879 29489 net.cpp:165] Memory required for data: 4315351280
I0708 16:37:37.895886 29489 layer_factory.hpp:77] Creating layer conv4_2_1x1_reduce
I0708 16:37:37.895902 29489 net.cpp:106] Creating Layer conv4_2_1x1_reduce
I0708 16:37:37.895912 29489 net.cpp:454] conv4_2_1x1_reduce <- conv4_1_conv4_1/relu_0_split_0
I0708 16:37:37.895925 29489 net.cpp:411] conv4_2_1x1_reduce -> conv4_2_1x1_reduce
I0708 16:37:37.898702 29489 net.cpp:150] Setting up conv4_2_1x1_reduce
I0708 16:37:37.898736 29489 net.cpp:157] Top shape: 10 256 41 41 (4303360)
I0708 16:37:37.898742 29489 net.cpp:165] Memory required for data: 4332564720
I0708 16:37:37.898753 29489 layer_factory.hpp:77] Creating layer conv4_2_1x1_reduce/bn
I0708 16:37:37.898774 29489 net.cpp:106] Creating Layer conv4_2_1x1_reduce/bn
I0708 16:37:37.898785 29489 net.cpp:454] conv4_2_1x1_reduce/bn <- conv4_2_1x1_reduce
I0708 16:37:37.898800 29489 net.cpp:397] conv4_2_1x1_reduce/bn -> conv4_2_1x1_reduce (in-place)
I0708 16:37:37.898988 29489 net.cpp:150] Setting up conv4_2_1x1_reduce/bn
I0708 16:37:37.899000 29489 net.cpp:157] Top shape: 10 256 41 41 (4303360)
I0708 16:37:37.899006 29489 net.cpp:165] Memory required for data: 4349778160
I0708 16:37:37.899019 29489 layer_factory.hpp:77] Creating layer conv4_2_1x1_reduce/relu
I0708 16:37:37.899031 29489 net.cpp:106] Creating Layer conv4_2_1x1_reduce/relu
I0708 16:37:37.899044 29489 net.cpp:454] conv4_2_1x1_reduce/relu <- conv4_2_1x1_reduce
I0708 16:37:37.899055 29489 net.cpp:397] conv4_2_1x1_reduce/relu -> conv4_2_1x1_reduce (in-place)
I0708 16:37:37.899071 29489 net.cpp:150] Setting up conv4_2_1x1_reduce/relu
I0708 16:37:37.899082 29489 net.cpp:157] Top shape: 10 256 41 41 (4303360)
I0708 16:37:37.899090 29489 net.cpp:165] Memory required for data: 4366991600
I0708 16:37:37.899096 29489 layer_factory.hpp:77] Creating layer conv4_2_3x3
I0708 16:37:37.899116 29489 net.cpp:106] Creating Layer conv4_2_3x3
I0708 16:37:37.899127 29489 net.cpp:454] conv4_2_3x3 <- conv4_2_1x1_reduce
I0708 16:37:37.899135 29489 net.cpp:411] conv4_2_3x3 -> conv4_2_3x3
I0708 16:37:37.904954 29489 net.cpp:150] Setting up conv4_2_3x3
I0708 16:37:37.904980 29489 net.cpp:157] Top shape: 10 256 41 41 (4303360)
I0708 16:37:37.904986 29489 net.cpp:165] Memory required for data: 4384205040
I0708 16:37:37.904996 29489 layer_factory.hpp:77] Creating layer conv4_2_3x3/bn
I0708 16:37:37.905015 29489 net.cpp:106] Creating Layer conv4_2_3x3/bn
I0708 16:37:37.905028 29489 net.cpp:454] conv4_2_3x3/bn <- conv4_2_3x3
I0708 16:37:37.905041 29489 net.cpp:397] conv4_2_3x3/bn -> conv4_2_3x3 (in-place)
I0708 16:37:37.905228 29489 net.cpp:150] Setting up conv4_2_3x3/bn
I0708 16:37:37.905241 29489 net.cpp:157] Top shape: 10 256 41 41 (4303360)
I0708 16:37:37.905247 29489 net.cpp:165] Memory required for data: 4401418480
I0708 16:37:37.905261 29489 layer_factory.hpp:77] Creating layer conv4_2_3x3/relu
I0708 16:37:37.905272 29489 net.cpp:106] Creating Layer conv4_2_3x3/relu
I0708 16:37:37.905292 29489 net.cpp:454] conv4_2_3x3/relu <- conv4_2_3x3
I0708 16:37:37.905303 29489 net.cpp:397] conv4_2_3x3/relu -> conv4_2_3x3 (in-place)
I0708 16:37:37.905315 29489 net.cpp:150] Setting up conv4_2_3x3/relu
I0708 16:37:37.905324 29489 net.cpp:157] Top shape: 10 256 41 41 (4303360)
I0708 16:37:37.905334 29489 net.cpp:165] Memory required for data: 4418631920
I0708 16:37:37.905341 29489 layer_factory.hpp:77] Creating layer conv4_2_1x1_increase
I0708 16:37:37.905357 29489 net.cpp:106] Creating Layer conv4_2_1x1_increase
I0708 16:37:37.905366 29489 net.cpp:454] conv4_2_1x1_increase <- conv4_2_3x3
I0708 16:37:37.905378 29489 net.cpp:411] conv4_2_1x1_increase -> conv4_2_1x1_increase
I0708 16:37:37.908087 29489 net.cpp:150] Setting up conv4_2_1x1_increase
I0708 16:37:37.908103 29489 net.cpp:157] Top shape: 10 1024 41 41 (17213440)
I0708 16:37:37.908109 29489 net.cpp:165] Memory required for data: 4487485680
I0708 16:37:37.908119 29489 layer_factory.hpp:77] Creating layer conv4_2_1x1_increase/bn
I0708 16:37:37.908134 29489 net.cpp:106] Creating Layer conv4_2_1x1_increase/bn
I0708 16:37:37.908144 29489 net.cpp:454] conv4_2_1x1_increase/bn <- conv4_2_1x1_increase
I0708 16:37:37.908154 29489 net.cpp:397] conv4_2_1x1_increase/bn -> conv4_2_1x1_increase (in-place)
I0708 16:37:37.908326 29489 net.cpp:150] Setting up conv4_2_1x1_increase/bn
I0708 16:37:37.908339 29489 net.cpp:157] Top shape: 10 1024 41 41 (17213440)
I0708 16:37:37.908345 29489 net.cpp:165] Memory required for data: 4556339440
I0708 16:37:37.908359 29489 layer_factory.hpp:77] Creating layer conv4_2
I0708 16:37:37.908372 29489 net.cpp:106] Creating Layer conv4_2
I0708 16:37:37.908381 29489 net.cpp:454] conv4_2 <- conv4_1_conv4_1/relu_0_split_1
I0708 16:37:37.908390 29489 net.cpp:454] conv4_2 <- conv4_2_1x1_increase
I0708 16:37:37.908401 29489 net.cpp:411] conv4_2 -> conv4_2
I0708 16:37:37.908432 29489 net.cpp:150] Setting up conv4_2
I0708 16:37:37.908442 29489 net.cpp:157] Top shape: 10 1024 41 41 (17213440)
I0708 16:37:37.908448 29489 net.cpp:165] Memory required for data: 4625193200
I0708 16:37:37.908454 29489 layer_factory.hpp:77] Creating layer conv4_2/relu
I0708 16:37:37.908464 29489 net.cpp:106] Creating Layer conv4_2/relu
I0708 16:37:37.908474 29489 net.cpp:454] conv4_2/relu <- conv4_2
I0708 16:37:37.908486 29489 net.cpp:397] conv4_2/relu -> conv4_2 (in-place)
I0708 16:37:37.908499 29489 net.cpp:150] Setting up conv4_2/relu
I0708 16:37:37.908509 29489 net.cpp:157] Top shape: 10 1024 41 41 (17213440)
I0708 16:37:37.908516 29489 net.cpp:165] Memory required for data: 4694046960
I0708 16:37:37.908524 29489 layer_factory.hpp:77] Creating layer conv4_2_conv4_2/relu_0_split
I0708 16:37:37.908534 29489 net.cpp:106] Creating Layer conv4_2_conv4_2/relu_0_split
I0708 16:37:37.908542 29489 net.cpp:454] conv4_2_conv4_2/relu_0_split <- conv4_2
I0708 16:37:37.908551 29489 net.cpp:411] conv4_2_conv4_2/relu_0_split -> conv4_2_conv4_2/relu_0_split_0
I0708 16:37:37.908574 29489 net.cpp:411] conv4_2_conv4_2/relu_0_split -> conv4_2_conv4_2/relu_0_split_1
I0708 16:37:37.908618 29489 net.cpp:150] Setting up conv4_2_conv4_2/relu_0_split
I0708 16:37:37.908630 29489 net.cpp:157] Top shape: 10 1024 41 41 (17213440)
I0708 16:37:37.908638 29489 net.cpp:157] Top shape: 10 1024 41 41 (17213440)
I0708 16:37:37.908644 29489 net.cpp:165] Memory required for data: 4831754480
I0708 16:37:37.908651 29489 layer_factory.hpp:77] Creating layer conv4_3_1x1_reduce
I0708 16:37:37.908668 29489 net.cpp:106] Creating Layer conv4_3_1x1_reduce
I0708 16:37:37.908677 29489 net.cpp:454] conv4_3_1x1_reduce <- conv4_2_conv4_2/relu_0_split_0
I0708 16:37:37.908689 29489 net.cpp:411] conv4_3_1x1_reduce -> conv4_3_1x1_reduce
I0708 16:37:37.911315 29489 net.cpp:150] Setting up conv4_3_1x1_reduce
I0708 16:37:37.911330 29489 net.cpp:157] Top shape: 10 256 41 41 (4303360)
I0708 16:37:37.911337 29489 net.cpp:165] Memory required for data: 4848967920
I0708 16:37:37.911348 29489 layer_factory.hpp:77] Creating layer conv4_3_1x1_reduce/bn
I0708 16:37:37.911360 29489 net.cpp:106] Creating Layer conv4_3_1x1_reduce/bn
I0708 16:37:37.911381 29489 net.cpp:454] conv4_3_1x1_reduce/bn <- conv4_3_1x1_reduce
I0708 16:37:37.911391 29489 net.cpp:397] conv4_3_1x1_reduce/bn -> conv4_3_1x1_reduce (in-place)
I0708 16:37:37.911556 29489 net.cpp:150] Setting up conv4_3_1x1_reduce/bn
I0708 16:37:37.911569 29489 net.cpp:157] Top shape: 10 256 41 41 (4303360)
I0708 16:37:37.911576 29489 net.cpp:165] Memory required for data: 4866181360
I0708 16:37:37.911589 29489 layer_factory.hpp:77] Creating layer conv4_3_1x1_reduce/relu
I0708 16:37:37.911631 29489 net.cpp:106] Creating Layer conv4_3_1x1_reduce/relu
I0708 16:37:37.911641 29489 net.cpp:454] conv4_3_1x1_reduce/relu <- conv4_3_1x1_reduce
I0708 16:37:37.911653 29489 net.cpp:397] conv4_3_1x1_reduce/relu -> conv4_3_1x1_reduce (in-place)
I0708 16:37:37.911665 29489 net.cpp:150] Setting up conv4_3_1x1_reduce/relu
I0708 16:37:37.911676 29489 net.cpp:157] Top shape: 10 256 41 41 (4303360)
I0708 16:37:37.911685 29489 net.cpp:165] Memory required for data: 4883394800
I0708 16:37:37.911692 29489 layer_factory.hpp:77] Creating layer conv4_3_3x3
I0708 16:37:37.911706 29489 net.cpp:106] Creating Layer conv4_3_3x3
I0708 16:37:37.911715 29489 net.cpp:454] conv4_3_3x3 <- conv4_3_1x1_reduce
I0708 16:37:37.911725 29489 net.cpp:411] conv4_3_3x3 -> conv4_3_3x3
I0708 16:37:37.918032 29489 net.cpp:150] Setting up conv4_3_3x3
I0708 16:37:37.918059 29489 net.cpp:157] Top shape: 10 256 41 41 (4303360)
I0708 16:37:37.918066 29489 net.cpp:165] Memory required for data: 4900608240
I0708 16:37:37.918077 29489 layer_factory.hpp:77] Creating layer conv4_3_3x3/bn
I0708 16:37:37.918097 29489 net.cpp:106] Creating Layer conv4_3_3x3/bn
I0708 16:37:37.918108 29489 net.cpp:454] conv4_3_3x3/bn <- conv4_3_3x3
I0708 16:37:37.918121 29489 net.cpp:397] conv4_3_3x3/bn -> conv4_3_3x3 (in-place)
I0708 16:37:37.918313 29489 net.cpp:150] Setting up conv4_3_3x3/bn
I0708 16:37:37.918326 29489 net.cpp:157] Top shape: 10 256 41 41 (4303360)
I0708 16:37:37.918332 29489 net.cpp:165] Memory required for data: 4917821680
I0708 16:37:37.918346 29489 layer_factory.hpp:77] Creating layer conv4_3_3x3/relu
I0708 16:37:37.918359 29489 net.cpp:106] Creating Layer conv4_3_3x3/relu
I0708 16:37:37.918370 29489 net.cpp:454] conv4_3_3x3/relu <- conv4_3_3x3
I0708 16:37:37.918378 29489 net.cpp:397] conv4_3_3x3/relu -> conv4_3_3x3 (in-place)
I0708 16:37:37.918391 29489 net.cpp:150] Setting up conv4_3_3x3/relu
I0708 16:37:37.918401 29489 net.cpp:157] Top shape: 10 256 41 41 (4303360)
I0708 16:37:37.918408 29489 net.cpp:165] Memory required for data: 4935035120
I0708 16:37:37.918416 29489 layer_factory.hpp:77] Creating layer conv4_3_1x1_increase
I0708 16:37:37.918431 29489 net.cpp:106] Creating Layer conv4_3_1x1_increase
I0708 16:37:37.918440 29489 net.cpp:454] conv4_3_1x1_increase <- conv4_3_3x3
I0708 16:37:37.918452 29489 net.cpp:411] conv4_3_1x1_increase -> conv4_3_1x1_increase
I0708 16:37:37.921223 29489 net.cpp:150] Setting up conv4_3_1x1_increase
I0708 16:37:37.921247 29489 net.cpp:157] Top shape: 10 1024 41 41 (17213440)
I0708 16:37:37.921253 29489 net.cpp:165] Memory required for data: 5003888880
I0708 16:37:37.921263 29489 layer_factory.hpp:77] Creating layer conv4_3_1x1_increase/bn
I0708 16:37:37.921279 29489 net.cpp:106] Creating Layer conv4_3_1x1_increase/bn
I0708 16:37:37.921290 29489 net.cpp:454] conv4_3_1x1_increase/bn <- conv4_3_1x1_increase
I0708 16:37:37.921303 29489 net.cpp:397] conv4_3_1x1_increase/bn -> conv4_3_1x1_increase (in-place)
I0708 16:37:37.921492 29489 net.cpp:150] Setting up conv4_3_1x1_increase/bn
I0708 16:37:37.921505 29489 net.cpp:157] Top shape: 10 1024 41 41 (17213440)
I0708 16:37:37.921511 29489 net.cpp:165] Memory required for data: 5072742640
I0708 16:37:37.921525 29489 layer_factory.hpp:77] Creating layer conv4_3
I0708 16:37:37.921540 29489 net.cpp:106] Creating Layer conv4_3
I0708 16:37:37.921550 29489 net.cpp:454] conv4_3 <- conv4_2_conv4_2/relu_0_split_1
I0708 16:37:37.921558 29489 net.cpp:454] conv4_3 <- conv4_3_1x1_increase
I0708 16:37:37.921568 29489 net.cpp:411] conv4_3 -> conv4_3
I0708 16:37:37.921602 29489 net.cpp:150] Setting up conv4_3
I0708 16:37:37.921624 29489 net.cpp:157] Top shape: 10 1024 41 41 (17213440)
I0708 16:37:37.921632 29489 net.cpp:165] Memory required for data: 5141596400
I0708 16:37:37.921638 29489 layer_factory.hpp:77] Creating layer conv4_3/relu
I0708 16:37:37.921651 29489 net.cpp:106] Creating Layer conv4_3/relu
I0708 16:37:37.921661 29489 net.cpp:454] conv4_3/relu <- conv4_3
I0708 16:37:37.921671 29489 net.cpp:397] conv4_3/relu -> conv4_3 (in-place)
I0708 16:37:37.921682 29489 net.cpp:150] Setting up conv4_3/relu
I0708 16:37:37.921694 29489 net.cpp:157] Top shape: 10 1024 41 41 (17213440)
I0708 16:37:37.921700 29489 net.cpp:165] Memory required for data: 5210450160
I0708 16:37:37.921706 29489 layer_factory.hpp:77] Creating layer conv4_3_conv4_3/relu_0_split
I0708 16:37:37.921715 29489 net.cpp:106] Creating Layer conv4_3_conv4_3/relu_0_split
I0708 16:37:37.921725 29489 net.cpp:454] conv4_3_conv4_3/relu_0_split <- conv4_3
I0708 16:37:37.921733 29489 net.cpp:411] conv4_3_conv4_3/relu_0_split -> conv4_3_conv4_3/relu_0_split_0
I0708 16:37:37.921744 29489 net.cpp:411] conv4_3_conv4_3/relu_0_split -> conv4_3_conv4_3/relu_0_split_1
I0708 16:37:37.921788 29489 net.cpp:150] Setting up conv4_3_conv4_3/relu_0_split
I0708 16:37:37.921799 29489 net.cpp:157] Top shape: 10 1024 41 41 (17213440)
I0708 16:37:37.921807 29489 net.cpp:157] Top shape: 10 1024 41 41 (17213440)
I0708 16:37:37.921813 29489 net.cpp:165] Memory required for data: 5348157680
I0708 16:37:37.921819 29489 layer_factory.hpp:77] Creating layer conv4_4_1x1_reduce
I0708 16:37:37.921846 29489 net.cpp:106] Creating Layer conv4_4_1x1_reduce
I0708 16:37:37.921855 29489 net.cpp:454] conv4_4_1x1_reduce <- conv4_3_conv4_3/relu_0_split_0
I0708 16:37:37.921865 29489 net.cpp:411] conv4_4_1x1_reduce -> conv4_4_1x1_reduce
I0708 16:37:37.924585 29489 net.cpp:150] Setting up conv4_4_1x1_reduce
I0708 16:37:37.924602 29489 net.cpp:157] Top shape: 10 256 41 41 (4303360)
I0708 16:37:37.924608 29489 net.cpp:165] Memory required for data: 5365371120
I0708 16:37:37.924618 29489 layer_factory.hpp:77] Creating layer conv4_4_1x1_reduce/bn
I0708 16:37:37.924635 29489 net.cpp:106] Creating Layer conv4_4_1x1_reduce/bn
I0708 16:37:37.924645 29489 net.cpp:454] conv4_4_1x1_reduce/bn <- conv4_4_1x1_reduce
I0708 16:37:37.924659 29489 net.cpp:397] conv4_4_1x1_reduce/bn -> conv4_4_1x1_reduce (in-place)
I0708 16:37:37.924830 29489 net.cpp:150] Setting up conv4_4_1x1_reduce/bn
I0708 16:37:37.924841 29489 net.cpp:157] Top shape: 10 256 41 41 (4303360)
I0708 16:37:37.924849 29489 net.cpp:165] Memory required for data: 5382584560
I0708 16:37:37.924861 29489 layer_factory.hpp:77] Creating layer conv4_4_1x1_reduce/relu
I0708 16:37:37.924875 29489 net.cpp:106] Creating Layer conv4_4_1x1_reduce/relu
I0708 16:37:37.924885 29489 net.cpp:454] conv4_4_1x1_reduce/relu <- conv4_4_1x1_reduce
I0708 16:37:37.924892 29489 net.cpp:397] conv4_4_1x1_reduce/relu -> conv4_4_1x1_reduce (in-place)
I0708 16:37:37.924903 29489 net.cpp:150] Setting up conv4_4_1x1_reduce/relu
I0708 16:37:37.924916 29489 net.cpp:157] Top shape: 10 256 41 41 (4303360)
I0708 16:37:37.924922 29489 net.cpp:165] Memory required for data: 5399798000
I0708 16:37:37.924929 29489 layer_factory.hpp:77] Creating layer conv4_4_3x3
I0708 16:37:37.924942 29489 net.cpp:106] Creating Layer conv4_4_3x3
I0708 16:37:37.924949 29489 net.cpp:454] conv4_4_3x3 <- conv4_4_1x1_reduce
I0708 16:37:37.924962 29489 net.cpp:411] conv4_4_3x3 -> conv4_4_3x3
I0708 16:37:37.930594 29489 net.cpp:150] Setting up conv4_4_3x3
I0708 16:37:37.930610 29489 net.cpp:157] Top shape: 10 256 41 41 (4303360)
I0708 16:37:37.930619 29489 net.cpp:165] Memory required for data: 5417011440
I0708 16:37:37.930629 29489 layer_factory.hpp:77] Creating layer conv4_4_3x3/bn
I0708 16:37:37.930640 29489 net.cpp:106] Creating Layer conv4_4_3x3/bn
I0708 16:37:37.930654 29489 net.cpp:454] conv4_4_3x3/bn <- conv4_4_3x3
I0708 16:37:37.930668 29489 net.cpp:397] conv4_4_3x3/bn -> conv4_4_3x3 (in-place)
I0708 16:37:37.930841 29489 net.cpp:150] Setting up conv4_4_3x3/bn
I0708 16:37:37.930855 29489 net.cpp:157] Top shape: 10 256 41 41 (4303360)
I0708 16:37:37.930876 29489 net.cpp:165] Memory required for data: 5434224880
I0708 16:37:37.930892 29489 layer_factory.hpp:77] Creating layer conv4_4_3x3/relu
I0708 16:37:37.930903 29489 net.cpp:106] Creating Layer conv4_4_3x3/relu
I0708 16:37:37.930910 29489 net.cpp:454] conv4_4_3x3/relu <- conv4_4_3x3
I0708 16:37:37.930922 29489 net.cpp:397] conv4_4_3x3/relu -> conv4_4_3x3 (in-place)
I0708 16:37:37.930935 29489 net.cpp:150] Setting up conv4_4_3x3/relu
I0708 16:37:37.930944 29489 net.cpp:157] Top shape: 10 256 41 41 (4303360)
I0708 16:37:37.930954 29489 net.cpp:165] Memory required for data: 5451438320
I0708 16:37:37.930963 29489 layer_factory.hpp:77] Creating layer conv4_4_1x1_increase
I0708 16:37:37.930977 29489 net.cpp:106] Creating Layer conv4_4_1x1_increase
I0708 16:37:37.930989 29489 net.cpp:454] conv4_4_1x1_increase <- conv4_4_3x3
I0708 16:37:37.930999 29489 net.cpp:411] conv4_4_1x1_increase -> conv4_4_1x1_increase
I0708 16:37:37.933656 29489 net.cpp:150] Setting up conv4_4_1x1_increase
I0708 16:37:37.933676 29489 net.cpp:157] Top shape: 10 1024 41 41 (17213440)
I0708 16:37:37.933681 29489 net.cpp:165] Memory required for data: 5520292080
I0708 16:37:37.933691 29489 layer_factory.hpp:77] Creating layer conv4_4_1x1_increase/bn
I0708 16:37:37.933706 29489 net.cpp:106] Creating Layer conv4_4_1x1_increase/bn
I0708 16:37:37.933719 29489 net.cpp:454] conv4_4_1x1_increase/bn <- conv4_4_1x1_increase
I0708 16:37:37.933732 29489 net.cpp:397] conv4_4_1x1_increase/bn -> conv4_4_1x1_increase (in-place)
I0708 16:37:37.933918 29489 net.cpp:150] Setting up conv4_4_1x1_increase/bn
I0708 16:37:37.933931 29489 net.cpp:157] Top shape: 10 1024 41 41 (17213440)
I0708 16:37:37.933938 29489 net.cpp:165] Memory required for data: 5589145840
I0708 16:37:37.933953 29489 layer_factory.hpp:77] Creating layer conv4_4
I0708 16:37:37.933965 29489 net.cpp:106] Creating Layer conv4_4
I0708 16:37:37.933980 29489 net.cpp:454] conv4_4 <- conv4_3_conv4_3/relu_0_split_1
I0708 16:37:37.933989 29489 net.cpp:454] conv4_4 <- conv4_4_1x1_increase
I0708 16:37:37.933998 29489 net.cpp:411] conv4_4 -> conv4_4
I0708 16:37:37.934034 29489 net.cpp:150] Setting up conv4_4
I0708 16:37:37.934046 29489 net.cpp:157] Top shape: 10 1024 41 41 (17213440)
I0708 16:37:37.934052 29489 net.cpp:165] Memory required for data: 5657999600
I0708 16:37:37.934059 29489 layer_factory.hpp:77] Creating layer conv4_4/relu
I0708 16:37:37.934074 29489 net.cpp:106] Creating Layer conv4_4/relu
I0708 16:37:37.934083 29489 net.cpp:454] conv4_4/relu <- conv4_4
I0708 16:37:37.934092 29489 net.cpp:397] conv4_4/relu -> conv4_4 (in-place)
I0708 16:37:37.934103 29489 net.cpp:150] Setting up conv4_4/relu
I0708 16:37:37.934114 29489 net.cpp:157] Top shape: 10 1024 41 41 (17213440)
I0708 16:37:37.934123 29489 net.cpp:165] Memory required for data: 5726853360
I0708 16:37:37.934130 29489 layer_factory.hpp:77] Creating layer conv4_4_conv4_4/relu_0_split
I0708 16:37:37.934139 29489 net.cpp:106] Creating Layer conv4_4_conv4_4/relu_0_split
I0708 16:37:37.934149 29489 net.cpp:454] conv4_4_conv4_4/relu_0_split <- conv4_4
I0708 16:37:37.934159 29489 net.cpp:411] conv4_4_conv4_4/relu_0_split -> conv4_4_conv4_4/relu_0_split_0
I0708 16:37:37.934173 29489 net.cpp:411] conv4_4_conv4_4/relu_0_split -> conv4_4_conv4_4/relu_0_split_1
I0708 16:37:37.934216 29489 net.cpp:150] Setting up conv4_4_conv4_4/relu_0_split
I0708 16:37:37.934229 29489 net.cpp:157] Top shape: 10 1024 41 41 (17213440)
I0708 16:37:37.934237 29489 net.cpp:157] Top shape: 10 1024 41 41 (17213440)
I0708 16:37:37.934244 29489 net.cpp:165] Memory required for data: 5864560880
I0708 16:37:37.934252 29489 layer_factory.hpp:77] Creating layer conv4_5_1x1_reduce
I0708 16:37:37.934267 29489 net.cpp:106] Creating Layer conv4_5_1x1_reduce
I0708 16:37:37.934276 29489 net.cpp:454] conv4_5_1x1_reduce <- conv4_4_conv4_4/relu_0_split_0
I0708 16:37:37.934288 29489 net.cpp:411] conv4_5_1x1_reduce -> conv4_5_1x1_reduce
I0708 16:37:37.936985 29489 net.cpp:150] Setting up conv4_5_1x1_reduce
I0708 16:37:37.937002 29489 net.cpp:157] Top shape: 10 256 41 41 (4303360)
I0708 16:37:37.937023 29489 net.cpp:165] Memory required for data: 5881774320
I0708 16:37:37.937036 29489 layer_factory.hpp:77] Creating layer conv4_5_1x1_reduce/bn
I0708 16:37:37.937052 29489 net.cpp:106] Creating Layer conv4_5_1x1_reduce/bn
I0708 16:37:37.937062 29489 net.cpp:454] conv4_5_1x1_reduce/bn <- conv4_5_1x1_reduce
I0708 16:37:37.937072 29489 net.cpp:397] conv4_5_1x1_reduce/bn -> conv4_5_1x1_reduce (in-place)
I0708 16:37:37.937248 29489 net.cpp:150] Setting up conv4_5_1x1_reduce/bn
I0708 16:37:37.937260 29489 net.cpp:157] Top shape: 10 256 41 41 (4303360)
I0708 16:37:37.937268 29489 net.cpp:165] Memory required for data: 5898987760
I0708 16:37:37.937280 29489 layer_factory.hpp:77] Creating layer conv4_5_1x1_reduce/relu
I0708 16:37:37.937293 29489 net.cpp:106] Creating Layer conv4_5_1x1_reduce/relu
I0708 16:37:37.937299 29489 net.cpp:454] conv4_5_1x1_reduce/relu <- conv4_5_1x1_reduce
I0708 16:37:37.937310 29489 net.cpp:397] conv4_5_1x1_reduce/relu -> conv4_5_1x1_reduce (in-place)
I0708 16:37:37.937321 29489 net.cpp:150] Setting up conv4_5_1x1_reduce/relu
I0708 16:37:37.937330 29489 net.cpp:157] Top shape: 10 256 41 41 (4303360)
I0708 16:37:37.937340 29489 net.cpp:165] Memory required for data: 5916201200
I0708 16:37:37.937346 29489 layer_factory.hpp:77] Creating layer conv4_5_3x3
I0708 16:37:37.937363 29489 net.cpp:106] Creating Layer conv4_5_3x3
I0708 16:37:37.937373 29489 net.cpp:454] conv4_5_3x3 <- conv4_5_1x1_reduce
I0708 16:37:37.937386 29489 net.cpp:411] conv4_5_3x3 -> conv4_5_3x3
I0708 16:37:37.943063 29489 net.cpp:150] Setting up conv4_5_3x3
I0708 16:37:37.943078 29489 net.cpp:157] Top shape: 10 256 41 41 (4303360)
I0708 16:37:37.943084 29489 net.cpp:165] Memory required for data: 5933414640
I0708 16:37:37.943094 29489 layer_factory.hpp:77] Creating layer conv4_5_3x3/bn
I0708 16:37:37.943109 29489 net.cpp:106] Creating Layer conv4_5_3x3/bn
I0708 16:37:37.943121 29489 net.cpp:454] conv4_5_3x3/bn <- conv4_5_3x3
I0708 16:37:37.943132 29489 net.cpp:397] conv4_5_3x3/bn -> conv4_5_3x3 (in-place)
I0708 16:37:37.943310 29489 net.cpp:150] Setting up conv4_5_3x3/bn
I0708 16:37:37.943321 29489 net.cpp:157] Top shape: 10 256 41 41 (4303360)
I0708 16:37:37.943328 29489 net.cpp:165] Memory required for data: 5950628080
I0708 16:37:37.943341 29489 layer_factory.hpp:77] Creating layer conv4_5_3x3/relu
I0708 16:37:37.943353 29489 net.cpp:106] Creating Layer conv4_5_3x3/relu
I0708 16:37:37.943362 29489 net.cpp:454] conv4_5_3x3/relu <- conv4_5_3x3
I0708 16:37:37.943372 29489 net.cpp:397] conv4_5_3x3/relu -> conv4_5_3x3 (in-place)
I0708 16:37:37.943384 29489 net.cpp:150] Setting up conv4_5_3x3/relu
I0708 16:37:37.943397 29489 net.cpp:157] Top shape: 10 256 41 41 (4303360)
I0708 16:37:37.943404 29489 net.cpp:165] Memory required for data: 5967841520
I0708 16:37:37.943411 29489 layer_factory.hpp:77] Creating layer conv4_5_1x1_increase
I0708 16:37:37.943428 29489 net.cpp:106] Creating Layer conv4_5_1x1_increase
I0708 16:37:37.943439 29489 net.cpp:454] conv4_5_1x1_increase <- conv4_5_3x3
I0708 16:37:37.943449 29489 net.cpp:411] conv4_5_1x1_increase -> conv4_5_1x1_increase
I0708 16:37:37.946123 29489 net.cpp:150] Setting up conv4_5_1x1_increase
I0708 16:37:37.946138 29489 net.cpp:157] Top shape: 10 1024 41 41 (17213440)
I0708 16:37:37.946146 29489 net.cpp:165] Memory required for data: 6036695280
I0708 16:37:37.946156 29489 layer_factory.hpp:77] Creating layer conv4_5_1x1_increase/bn
I0708 16:37:37.946167 29489 net.cpp:106] Creating Layer conv4_5_1x1_increase/bn
I0708 16:37:37.946180 29489 net.cpp:454] conv4_5_1x1_increase/bn <- conv4_5_1x1_increase
I0708 16:37:37.946195 29489 net.cpp:397] conv4_5_1x1_increase/bn -> conv4_5_1x1_increase (in-place)
I0708 16:37:37.946375 29489 net.cpp:150] Setting up conv4_5_1x1_increase/bn
I0708 16:37:37.946388 29489 net.cpp:157] Top shape: 10 1024 41 41 (17213440)
I0708 16:37:37.946393 29489 net.cpp:165] Memory required for data: 6105549040
I0708 16:37:37.946408 29489 layer_factory.hpp:77] Creating layer conv4_5
I0708 16:37:37.946422 29489 net.cpp:106] Creating Layer conv4_5
I0708 16:37:37.946444 29489 net.cpp:454] conv4_5 <- conv4_4_conv4_4/relu_0_split_1
I0708 16:37:37.946452 29489 net.cpp:454] conv4_5 <- conv4_5_1x1_increase
I0708 16:37:37.946462 29489 net.cpp:411] conv4_5 -> conv4_5
I0708 16:37:37.946496 29489 net.cpp:150] Setting up conv4_5
I0708 16:37:37.946509 29489 net.cpp:157] Top shape: 10 1024 41 41 (17213440)
I0708 16:37:37.946516 29489 net.cpp:165] Memory required for data: 6174402800
I0708 16:37:37.946522 29489 layer_factory.hpp:77] Creating layer conv4_5/relu
I0708 16:37:37.946534 29489 net.cpp:106] Creating Layer conv4_5/relu
I0708 16:37:37.946543 29489 net.cpp:454] conv4_5/relu <- conv4_5
I0708 16:37:37.946552 29489 net.cpp:397] conv4_5/relu -> conv4_5 (in-place)
I0708 16:37:37.946563 29489 net.cpp:150] Setting up conv4_5/relu
I0708 16:37:37.946574 29489 net.cpp:157] Top shape: 10 1024 41 41 (17213440)
I0708 16:37:37.946580 29489 net.cpp:165] Memory required for data: 6243256560
I0708 16:37:37.946588 29489 layer_factory.hpp:77] Creating layer conv4_5_conv4_5/relu_0_split
I0708 16:37:37.946599 29489 net.cpp:106] Creating Layer conv4_5_conv4_5/relu_0_split
I0708 16:37:37.946609 29489 net.cpp:454] conv4_5_conv4_5/relu_0_split <- conv4_5
I0708 16:37:37.946616 29489 net.cpp:411] conv4_5_conv4_5/relu_0_split -> conv4_5_conv4_5/relu_0_split_0
I0708 16:37:37.946627 29489 net.cpp:411] conv4_5_conv4_5/relu_0_split -> conv4_5_conv4_5/relu_0_split_1
I0708 16:37:37.946669 29489 net.cpp:150] Setting up conv4_5_conv4_5/relu_0_split
I0708 16:37:37.946681 29489 net.cpp:157] Top shape: 10 1024 41 41 (17213440)
I0708 16:37:37.946687 29489 net.cpp:157] Top shape: 10 1024 41 41 (17213440)
I0708 16:37:37.946694 29489 net.cpp:165] Memory required for data: 6380964080
I0708 16:37:37.946701 29489 layer_factory.hpp:77] Creating layer conv4_6_1x1_reduce
I0708 16:37:37.946717 29489 net.cpp:106] Creating Layer conv4_6_1x1_reduce
I0708 16:37:37.946727 29489 net.cpp:454] conv4_6_1x1_reduce <- conv4_5_conv4_5/relu_0_split_0
I0708 16:37:37.946738 29489 net.cpp:411] conv4_6_1x1_reduce -> conv4_6_1x1_reduce
I0708 16:37:37.949388 29489 net.cpp:150] Setting up conv4_6_1x1_reduce
I0708 16:37:37.949404 29489 net.cpp:157] Top shape: 10 256 41 41 (4303360)
I0708 16:37:37.949410 29489 net.cpp:165] Memory required for data: 6398177520
I0708 16:37:37.949420 29489 layer_factory.hpp:77] Creating layer conv4_6_1x1_reduce/bn
I0708 16:37:37.949432 29489 net.cpp:106] Creating Layer conv4_6_1x1_reduce/bn
I0708 16:37:37.949441 29489 net.cpp:454] conv4_6_1x1_reduce/bn <- conv4_6_1x1_reduce
I0708 16:37:37.949455 29489 net.cpp:397] conv4_6_1x1_reduce/bn -> conv4_6_1x1_reduce (in-place)
I0708 16:37:37.949630 29489 net.cpp:150] Setting up conv4_6_1x1_reduce/bn
I0708 16:37:37.949643 29489 net.cpp:157] Top shape: 10 256 41 41 (4303360)
I0708 16:37:37.949651 29489 net.cpp:165] Memory required for data: 6415390960
I0708 16:37:37.949663 29489 layer_factory.hpp:77] Creating layer conv4_6_1x1_reduce/relu
I0708 16:37:37.949676 29489 net.cpp:106] Creating Layer conv4_6_1x1_reduce/relu
I0708 16:37:37.949686 29489 net.cpp:454] conv4_6_1x1_reduce/relu <- conv4_6_1x1_reduce
I0708 16:37:37.949694 29489 net.cpp:397] conv4_6_1x1_reduce/relu -> conv4_6_1x1_reduce (in-place)
I0708 16:37:37.949707 29489 net.cpp:150] Setting up conv4_6_1x1_reduce/relu
I0708 16:37:37.949714 29489 net.cpp:157] Top shape: 10 256 41 41 (4303360)
I0708 16:37:37.949724 29489 net.cpp:165] Memory required for data: 6432604400
I0708 16:37:37.949731 29489 layer_factory.hpp:77] Creating layer conv4_6_3x3
I0708 16:37:37.949743 29489 net.cpp:106] Creating Layer conv4_6_3x3
I0708 16:37:37.949753 29489 net.cpp:454] conv4_6_3x3 <- conv4_6_1x1_reduce
I0708 16:37:37.949781 29489 net.cpp:411] conv4_6_3x3 -> conv4_6_3x3
I0708 16:37:37.956367 29489 net.cpp:150] Setting up conv4_6_3x3
I0708 16:37:37.956393 29489 net.cpp:157] Top shape: 10 256 41 41 (4303360)
I0708 16:37:37.956399 29489 net.cpp:165] Memory required for data: 6449817840
I0708 16:37:37.956409 29489 layer_factory.hpp:77] Creating layer conv4_6_3x3/bn
I0708 16:37:37.956420 29489 net.cpp:106] Creating Layer conv4_6_3x3/bn
I0708 16:37:37.956441 29489 net.cpp:454] conv4_6_3x3/bn <- conv4_6_3x3
I0708 16:37:37.956499 29489 net.cpp:397] conv4_6_3x3/bn -> conv4_6_3x3 (in-place)
I0708 16:37:37.957093 29489 net.cpp:150] Setting up conv4_6_3x3/bn
I0708 16:37:37.957123 29489 net.cpp:157] Top shape: 10 256 41 41 (4303360)
I0708 16:37:37.957136 29489 net.cpp:165] Memory required for data: 6467031280
I0708 16:37:37.957164 29489 layer_factory.hpp:77] Creating layer conv4_6_3x3/relu
I0708 16:37:37.957183 29489 net.cpp:106] Creating Layer conv4_6_3x3/relu
I0708 16:37:37.957197 29489 net.cpp:454] conv4_6_3x3/relu <- conv4_6_3x3
I0708 16:37:37.957218 29489 net.cpp:397] conv4_6_3x3/relu -> conv4_6_3x3 (in-place)
I0708 16:37:37.957240 29489 net.cpp:150] Setting up conv4_6_3x3/relu
I0708 16:37:37.957263 29489 net.cpp:157] Top shape: 10 256 41 41 (4303360)
I0708 16:37:37.957274 29489 net.cpp:165] Memory required for data: 6484244720
I0708 16:37:37.957283 29489 layer_factory.hpp:77] Creating layer conv4_6_1x1_increase
I0708 16:37:37.957301 29489 net.cpp:106] Creating Layer conv4_6_1x1_increase
I0708 16:37:37.957312 29489 net.cpp:454] conv4_6_1x1_increase <- conv4_6_3x3
I0708 16:37:37.957326 29489 net.cpp:411] conv4_6_1x1_increase -> conv4_6_1x1_increase
I0708 16:37:37.962739 29489 net.cpp:150] Setting up conv4_6_1x1_increase
I0708 16:37:37.962777 29489 net.cpp:157] Top shape: 10 1024 41 41 (17213440)
I0708 16:37:37.962787 29489 net.cpp:165] Memory required for data: 6553098480
I0708 16:37:37.962803 29489 layer_factory.hpp:77] Creating layer conv4_6_1x1_increase/bn
I0708 16:37:37.962832 29489 net.cpp:106] Creating Layer conv4_6_1x1_increase/bn
I0708 16:37:37.962858 29489 net.cpp:454] conv4_6_1x1_increase/bn <- conv4_6_1x1_increase
I0708 16:37:37.962879 29489 net.cpp:397] conv4_6_1x1_increase/bn -> conv4_6_1x1_increase (in-place)
I0708 16:37:37.963223 29489 net.cpp:150] Setting up conv4_6_1x1_increase/bn
I0708 16:37:37.963249 29489 net.cpp:157] Top shape: 10 1024 41 41 (17213440)
I0708 16:37:37.963260 29489 net.cpp:165] Memory required for data: 6621952240
I0708 16:37:37.963282 29489 layer_factory.hpp:77] Creating layer conv4_6
I0708 16:37:37.963309 29489 net.cpp:106] Creating Layer conv4_6
I0708 16:37:37.963322 29489 net.cpp:454] conv4_6 <- conv4_5_conv4_5/relu_0_split_1
I0708 16:37:37.963337 29489 net.cpp:454] conv4_6 <- conv4_6_1x1_increase
I0708 16:37:37.963356 29489 net.cpp:411] conv4_6 -> conv4_6
I0708 16:37:37.963410 29489 net.cpp:150] Setting up conv4_6
I0708 16:37:37.963428 29489 net.cpp:157] Top shape: 10 1024 41 41 (17213440)
I0708 16:37:37.963438 29489 net.cpp:165] Memory required for data: 6690806000
I0708 16:37:37.963450 29489 layer_factory.hpp:77] Creating layer conv4_6/relu
I0708 16:37:37.963472 29489 net.cpp:106] Creating Layer conv4_6/relu
I0708 16:37:37.963487 29489 net.cpp:454] conv4_6/relu <- conv4_6
I0708 16:37:37.963501 29489 net.cpp:397] conv4_6/relu -> conv4_6 (in-place)
I0708 16:37:37.963518 29489 net.cpp:150] Setting up conv4_6/relu
I0708 16:37:37.963537 29489 net.cpp:157] Top shape: 10 1024 41 41 (17213440)
I0708 16:37:37.963548 29489 net.cpp:165] Memory required for data: 6759659760
I0708 16:37:37.963558 29489 layer_factory.hpp:77] Creating layer conv4_6_conv4_6/relu_0_split
I0708 16:37:37.963575 29489 net.cpp:106] Creating Layer conv4_6_conv4_6/relu_0_split
I0708 16:37:37.963587 29489 net.cpp:454] conv4_6_conv4_6/relu_0_split <- conv4_6
I0708 16:37:37.963649 29489 net.cpp:411] conv4_6_conv4_6/relu_0_split -> conv4_6_conv4_6/relu_0_split_0
I0708 16:37:37.963672 29489 net.cpp:411] conv4_6_conv4_6/relu_0_split -> conv4_6_conv4_6/relu_0_split_1
I0708 16:37:37.963743 29489 net.cpp:150] Setting up conv4_6_conv4_6/relu_0_split
I0708 16:37:37.963764 29489 net.cpp:157] Top shape: 10 1024 41 41 (17213440)
I0708 16:37:37.963783 29489 net.cpp:157] Top shape: 10 1024 41 41 (17213440)
I0708 16:37:37.963798 29489 net.cpp:165] Memory required for data: 6897367280
I0708 16:37:37.963809 29489 layer_factory.hpp:77] Creating layer conv5_1_1x1_reduce
I0708 16:37:37.963832 29489 net.cpp:106] Creating Layer conv5_1_1x1_reduce
I0708 16:37:37.963870 29489 net.cpp:454] conv5_1_1x1_reduce <- conv4_6_conv4_6/relu_0_split_0
I0708 16:37:37.963881 29489 net.cpp:411] conv5_1_1x1_reduce -> conv5_1_1x1_reduce
I0708 16:37:37.969157 29489 net.cpp:150] Setting up conv5_1_1x1_reduce
I0708 16:37:37.969173 29489 net.cpp:157] Top shape: 10 512 41 41 (8606720)
I0708 16:37:37.969180 29489 net.cpp:165] Memory required for data: 6931794160
I0708 16:37:37.969190 29489 layer_factory.hpp:77] Creating layer conv5_1_1x1_reduce/bn
I0708 16:37:37.969207 29489 net.cpp:106] Creating Layer conv5_1_1x1_reduce/bn
I0708 16:37:37.969216 29489 net.cpp:454] conv5_1_1x1_reduce/bn <- conv5_1_1x1_reduce
I0708 16:37:37.969228 29489 net.cpp:397] conv5_1_1x1_reduce/bn -> conv5_1_1x1_reduce (in-place)
I0708 16:37:37.969413 29489 net.cpp:150] Setting up conv5_1_1x1_reduce/bn
I0708 16:37:37.969426 29489 net.cpp:157] Top shape: 10 512 41 41 (8606720)
I0708 16:37:37.969434 29489 net.cpp:165] Memory required for data: 6966221040
I0708 16:37:37.969446 29489 layer_factory.hpp:77] Creating layer conv5_1_1x1_reduce/relu
I0708 16:37:37.969460 29489 net.cpp:106] Creating Layer conv5_1_1x1_reduce/relu
I0708 16:37:37.969468 29489 net.cpp:454] conv5_1_1x1_reduce/relu <- conv5_1_1x1_reduce
I0708 16:37:37.969478 29489 net.cpp:397] conv5_1_1x1_reduce/relu -> conv5_1_1x1_reduce (in-place)
I0708 16:37:37.969491 29489 net.cpp:150] Setting up conv5_1_1x1_reduce/relu
I0708 16:37:37.969501 29489 net.cpp:157] Top shape: 10 512 41 41 (8606720)
I0708 16:37:37.969508 29489 net.cpp:165] Memory required for data: 7000647920
I0708 16:37:37.969516 29489 layer_factory.hpp:77] Creating layer conv5_1_3x3
I0708 16:37:37.969530 29489 net.cpp:106] Creating Layer conv5_1_3x3
I0708 16:37:37.969539 29489 net.cpp:454] conv5_1_3x3 <- conv5_1_1x1_reduce
I0708 16:37:37.969549 29489 net.cpp:411] conv5_1_3x3 -> conv5_1_3x3
I0708 16:37:37.991955 29489 net.cpp:150] Setting up conv5_1_3x3
I0708 16:37:37.991987 29489 net.cpp:157] Top shape: 10 512 41 41 (8606720)
I0708 16:37:37.991993 29489 net.cpp:165] Memory required for data: 7035074800
I0708 16:37:37.992004 29489 layer_factory.hpp:77] Creating layer conv5_1_3x3/bn
I0708 16:37:37.992029 29489 net.cpp:106] Creating Layer conv5_1_3x3/bn
I0708 16:37:37.992041 29489 net.cpp:454] conv5_1_3x3/bn <- conv5_1_3x3
I0708 16:37:37.992055 29489 net.cpp:397] conv5_1_3x3/bn -> conv5_1_3x3 (in-place)
I0708 16:37:37.992265 29489 net.cpp:150] Setting up conv5_1_3x3/bn
I0708 16:37:37.992279 29489 net.cpp:157] Top shape: 10 512 41 41 (8606720)
I0708 16:37:37.992285 29489 net.cpp:165] Memory required for data: 7069501680
I0708 16:37:37.992297 29489 layer_factory.hpp:77] Creating layer conv5_1_3x3/relu
I0708 16:37:37.992313 29489 net.cpp:106] Creating Layer conv5_1_3x3/relu
I0708 16:37:37.992323 29489 net.cpp:454] conv5_1_3x3/relu <- conv5_1_3x3
I0708 16:37:37.992332 29489 net.cpp:397] conv5_1_3x3/relu -> conv5_1_3x3 (in-place)
I0708 16:37:37.992347 29489 net.cpp:150] Setting up conv5_1_3x3/relu
I0708 16:37:37.992359 29489 net.cpp:157] Top shape: 10 512 41 41 (8606720)
I0708 16:37:37.992367 29489 net.cpp:165] Memory required for data: 7103928560
I0708 16:37:37.992373 29489 layer_factory.hpp:77] Creating layer conv5_1_1x1_increase
I0708 16:37:37.992388 29489 net.cpp:106] Creating Layer conv5_1_1x1_increase
I0708 16:37:37.992398 29489 net.cpp:454] conv5_1_1x1_increase <- conv5_1_3x3
I0708 16:37:37.992408 29489 net.cpp:411] conv5_1_1x1_increase -> conv5_1_1x1_increase
I0708 16:37:38.002640 29489 net.cpp:150] Setting up conv5_1_1x1_increase
I0708 16:37:38.002672 29489 net.cpp:157] Top shape: 10 2048 41 41 (34426880)
I0708 16:37:38.002679 29489 net.cpp:165] Memory required for data: 7241636080
I0708 16:37:38.002689 29489 layer_factory.hpp:77] Creating layer conv5_1_1x1_increase/bn
I0708 16:37:38.002709 29489 net.cpp:106] Creating Layer conv5_1_1x1_increase/bn
I0708 16:37:38.002719 29489 net.cpp:454] conv5_1_1x1_increase/bn <- conv5_1_1x1_increase
I0708 16:37:38.002743 29489 net.cpp:397] conv5_1_1x1_increase/bn -> conv5_1_1x1_increase (in-place)
I0708 16:37:38.002957 29489 net.cpp:150] Setting up conv5_1_1x1_increase/bn
I0708 16:37:38.002984 29489 net.cpp:157] Top shape: 10 2048 41 41 (34426880)
I0708 16:37:38.002993 29489 net.cpp:165] Memory required for data: 7379343600
I0708 16:37:38.003013 29489 layer_factory.hpp:77] Creating layer conv5_1_1x1_proj
I0708 16:37:38.003029 29489 net.cpp:106] Creating Layer conv5_1_1x1_proj
I0708 16:37:38.003038 29489 net.cpp:454] conv5_1_1x1_proj <- conv4_6_conv4_6/relu_0_split_1
I0708 16:37:38.003049 29489 net.cpp:411] conv5_1_1x1_proj -> conv5_1_1x1_proj
I0708 16:37:38.023020 29489 net.cpp:150] Setting up conv5_1_1x1_proj
I0708 16:37:38.023047 29489 net.cpp:157] Top shape: 10 2048 41 41 (34426880)
I0708 16:37:38.023054 29489 net.cpp:165] Memory required for data: 7517051120
I0708 16:37:38.023066 29489 layer_factory.hpp:77] Creating layer conv5_1_1x1_proj/bn
I0708 16:37:38.023088 29489 net.cpp:106] Creating Layer conv5_1_1x1_proj/bn
I0708 16:37:38.023099 29489 net.cpp:454] conv5_1_1x1_proj/bn <- conv5_1_1x1_proj
I0708 16:37:38.023113 29489 net.cpp:397] conv5_1_1x1_proj/bn -> conv5_1_1x1_proj (in-place)
I0708 16:37:38.023324 29489 net.cpp:150] Setting up conv5_1_1x1_proj/bn
I0708 16:37:38.023336 29489 net.cpp:157] Top shape: 10 2048 41 41 (34426880)
I0708 16:37:38.023344 29489 net.cpp:165] Memory required for data: 7654758640
I0708 16:37:38.023356 29489 layer_factory.hpp:77] Creating layer conv5_1
I0708 16:37:38.023370 29489 net.cpp:106] Creating Layer conv5_1
I0708 16:37:38.023380 29489 net.cpp:454] conv5_1 <- conv5_1_1x1_proj
I0708 16:37:38.023389 29489 net.cpp:454] conv5_1 <- conv5_1_1x1_increase
I0708 16:37:38.023399 29489 net.cpp:411] conv5_1 -> conv5_1
I0708 16:37:38.023435 29489 net.cpp:150] Setting up conv5_1
I0708 16:37:38.023447 29489 net.cpp:157] Top shape: 10 2048 41 41 (34426880)
I0708 16:37:38.023453 29489 net.cpp:165] Memory required for data: 7792466160
I0708 16:37:38.023461 29489 layer_factory.hpp:77] Creating layer conv5_1/relu
I0708 16:37:38.023478 29489 net.cpp:106] Creating Layer conv5_1/relu
I0708 16:37:38.023486 29489 net.cpp:454] conv5_1/relu <- conv5_1
I0708 16:37:38.023494 29489 net.cpp:397] conv5_1/relu -> conv5_1 (in-place)
I0708 16:37:38.023506 29489 net.cpp:150] Setting up conv5_1/relu
I0708 16:37:38.023519 29489 net.cpp:157] Top shape: 10 2048 41 41 (34426880)
I0708 16:37:38.023526 29489 net.cpp:165] Memory required for data: 7930173680
I0708 16:37:38.023533 29489 layer_factory.hpp:77] Creating layer conv5_1_conv5_1/relu_0_split
I0708 16:37:38.023543 29489 net.cpp:106] Creating Layer conv5_1_conv5_1/relu_0_split
I0708 16:37:38.023552 29489 net.cpp:454] conv5_1_conv5_1/relu_0_split <- conv5_1
I0708 16:37:38.023563 29489 net.cpp:411] conv5_1_conv5_1/relu_0_split -> conv5_1_conv5_1/relu_0_split_0
I0708 16:37:38.023577 29489 net.cpp:411] conv5_1_conv5_1/relu_0_split -> conv5_1_conv5_1/relu_0_split_1
I0708 16:37:38.023659 29489 net.cpp:150] Setting up conv5_1_conv5_1/relu_0_split
I0708 16:37:38.023671 29489 net.cpp:157] Top shape: 10 2048 41 41 (34426880)
I0708 16:37:38.023680 29489 net.cpp:157] Top shape: 10 2048 41 41 (34426880)
I0708 16:37:38.023687 29489 net.cpp:165] Memory required for data: 8205588720
I0708 16:37:38.023694 29489 layer_factory.hpp:77] Creating layer conv5_2_1x1_reduce
I0708 16:37:38.023712 29489 net.cpp:106] Creating Layer conv5_2_1x1_reduce
I0708 16:37:38.023721 29489 net.cpp:454] conv5_2_1x1_reduce <- conv5_1_conv5_1/relu_0_split_0
I0708 16:37:38.023731 29489 net.cpp:411] conv5_2_1x1_reduce -> conv5_2_1x1_reduce
I0708 16:37:38.033869 29489 net.cpp:150] Setting up conv5_2_1x1_reduce
I0708 16:37:38.033887 29489 net.cpp:157] Top shape: 10 512 41 41 (8606720)
I0708 16:37:38.033895 29489 net.cpp:165] Memory required for data: 8240015600
I0708 16:37:38.033905 29489 layer_factory.hpp:77] Creating layer conv5_2_1x1_reduce/bn
I0708 16:37:38.033921 29489 net.cpp:106] Creating Layer conv5_2_1x1_reduce/bn
I0708 16:37:38.033931 29489 net.cpp:454] conv5_2_1x1_reduce/bn <- conv5_2_1x1_reduce
I0708 16:37:38.033942 29489 net.cpp:397] conv5_2_1x1_reduce/bn -> conv5_2_1x1_reduce (in-place)
I0708 16:37:38.034132 29489 net.cpp:150] Setting up conv5_2_1x1_reduce/bn
I0708 16:37:38.034154 29489 net.cpp:157] Top shape: 10 512 41 41 (8606720)
I0708 16:37:38.034162 29489 net.cpp:165] Memory required for data: 8274442480
I0708 16:37:38.034175 29489 layer_factory.hpp:77] Creating layer conv5_2_1x1_reduce/relu
I0708 16:37:38.034186 29489 net.cpp:106] Creating Layer conv5_2_1x1_reduce/relu
I0708 16:37:38.034195 29489 net.cpp:454] conv5_2_1x1_reduce/relu <- conv5_2_1x1_reduce
I0708 16:37:38.034204 29489 net.cpp:397] conv5_2_1x1_reduce/relu -> conv5_2_1x1_reduce (in-place)
I0708 16:37:38.034219 29489 net.cpp:150] Setting up conv5_2_1x1_reduce/relu
I0708 16:37:38.034229 29489 net.cpp:157] Top shape: 10 512 41 41 (8606720)
I0708 16:37:38.034235 29489 net.cpp:165] Memory required for data: 8308869360
I0708 16:37:38.034245 29489 layer_factory.hpp:77] Creating layer conv5_2_3x3
I0708 16:37:38.034260 29489 net.cpp:106] Creating Layer conv5_2_3x3
I0708 16:37:38.034270 29489 net.cpp:454] conv5_2_3x3 <- conv5_2_1x1_reduce
I0708 16:37:38.034281 29489 net.cpp:411] conv5_2_3x3 -> conv5_2_3x3
I0708 16:37:38.056653 29489 net.cpp:150] Setting up conv5_2_3x3
I0708 16:37:38.056681 29489 net.cpp:157] Top shape: 10 512 41 41 (8606720)
I0708 16:37:38.056687 29489 net.cpp:165] Memory required for data: 8343296240
I0708 16:37:38.056699 29489 layer_factory.hpp:77] Creating layer conv5_2_3x3/bn
I0708 16:37:38.056717 29489 net.cpp:106] Creating Layer conv5_2_3x3/bn
I0708 16:37:38.056730 29489 net.cpp:454] conv5_2_3x3/bn <- conv5_2_3x3
I0708 16:37:38.056742 29489 net.cpp:397] conv5_2_3x3/bn -> conv5_2_3x3 (in-place)
I0708 16:37:38.056951 29489 net.cpp:150] Setting up conv5_2_3x3/bn
I0708 16:37:38.056962 29489 net.cpp:157] Top shape: 10 512 41 41 (8606720)
I0708 16:37:38.056969 29489 net.cpp:165] Memory required for data: 8377723120
I0708 16:37:38.056982 29489 layer_factory.hpp:77] Creating layer conv5_2_3x3/relu
I0708 16:37:38.057000 29489 net.cpp:106] Creating Layer conv5_2_3x3/relu
I0708 16:37:38.057013 29489 net.cpp:454] conv5_2_3x3/relu <- conv5_2_3x3
I0708 16:37:38.057024 29489 net.cpp:397] conv5_2_3x3/relu -> conv5_2_3x3 (in-place)
I0708 16:37:38.057037 29489 net.cpp:150] Setting up conv5_2_3x3/relu
I0708 16:37:38.057049 29489 net.cpp:157] Top shape: 10 512 41 41 (8606720)
I0708 16:37:38.057055 29489 net.cpp:165] Memory required for data: 8412150000
I0708 16:37:38.057062 29489 layer_factory.hpp:77] Creating layer conv5_2_1x1_increase
I0708 16:37:38.057083 29489 net.cpp:106] Creating Layer conv5_2_1x1_increase
I0708 16:37:38.057092 29489 net.cpp:454] conv5_2_1x1_increase <- conv5_2_3x3
I0708 16:37:38.057102 29489 net.cpp:411] conv5_2_1x1_increase -> conv5_2_1x1_increase
I0708 16:37:38.067881 29489 net.cpp:150] Setting up conv5_2_1x1_increase
I0708 16:37:38.067906 29489 net.cpp:157] Top shape: 10 2048 41 41 (34426880)
I0708 16:37:38.067914 29489 net.cpp:165] Memory required for data: 8549857520
I0708 16:37:38.067925 29489 layer_factory.hpp:77] Creating layer conv5_2_1x1_increase/bn
I0708 16:37:38.067942 29489 net.cpp:106] Creating Layer conv5_2_1x1_increase/bn
I0708 16:37:38.067957 29489 net.cpp:454] conv5_2_1x1_increase/bn <- conv5_2_1x1_increase
I0708 16:37:38.067978 29489 net.cpp:397] conv5_2_1x1_increase/bn -> conv5_2_1x1_increase (in-place)
I0708 16:37:38.068191 29489 net.cpp:150] Setting up conv5_2_1x1_increase/bn
I0708 16:37:38.068202 29489 net.cpp:157] Top shape: 10 2048 41 41 (34426880)
I0708 16:37:38.068209 29489 net.cpp:165] Memory required for data: 8687565040
I0708 16:37:38.068254 29489 layer_factory.hpp:77] Creating layer conv5_2
I0708 16:37:38.068269 29489 net.cpp:106] Creating Layer conv5_2
I0708 16:37:38.068277 29489 net.cpp:454] conv5_2 <- conv5_1_conv5_1/relu_0_split_1
I0708 16:37:38.068289 29489 net.cpp:454] conv5_2 <- conv5_2_1x1_increase
I0708 16:37:38.068300 29489 net.cpp:411] conv5_2 -> conv5_2
I0708 16:37:38.068336 29489 net.cpp:150] Setting up conv5_2
I0708 16:37:38.068349 29489 net.cpp:157] Top shape: 10 2048 41 41 (34426880)
I0708 16:37:38.068356 29489 net.cpp:165] Memory required for data: 8825272560
I0708 16:37:38.068363 29489 layer_factory.hpp:77] Creating layer conv5_2/relu
I0708 16:37:38.068390 29489 net.cpp:106] Creating Layer conv5_2/relu
I0708 16:37:38.068399 29489 net.cpp:454] conv5_2/relu <- conv5_2
I0708 16:37:38.068408 29489 net.cpp:397] conv5_2/relu -> conv5_2 (in-place)
I0708 16:37:38.068419 29489 net.cpp:150] Setting up conv5_2/relu
I0708 16:37:38.068431 29489 net.cpp:157] Top shape: 10 2048 41 41 (34426880)
I0708 16:37:38.068439 29489 net.cpp:165] Memory required for data: 8962980080
I0708 16:37:38.068445 29489 layer_factory.hpp:77] Creating layer conv5_2_conv5_2/relu_0_split
I0708 16:37:38.068456 29489 net.cpp:106] Creating Layer conv5_2_conv5_2/relu_0_split
I0708 16:37:38.068465 29489 net.cpp:454] conv5_2_conv5_2/relu_0_split <- conv5_2
I0708 16:37:38.068476 29489 net.cpp:411] conv5_2_conv5_2/relu_0_split -> conv5_2_conv5_2/relu_0_split_0
I0708 16:37:38.068488 29489 net.cpp:411] conv5_2_conv5_2/relu_0_split -> conv5_2_conv5_2/relu_0_split_1
I0708 16:37:38.068536 29489 net.cpp:150] Setting up conv5_2_conv5_2/relu_0_split
I0708 16:37:38.068549 29489 net.cpp:157] Top shape: 10 2048 41 41 (34426880)
I0708 16:37:38.068558 29489 net.cpp:157] Top shape: 10 2048 41 41 (34426880)
I0708 16:37:38.068568 29489 net.cpp:165] Memory required for data: 9238395120
I0708 16:37:38.068575 29489 layer_factory.hpp:77] Creating layer conv5_3_1x1_reduce
I0708 16:37:38.068589 29489 net.cpp:106] Creating Layer conv5_3_1x1_reduce
I0708 16:37:38.068598 29489 net.cpp:454] conv5_3_1x1_reduce <- conv5_2_conv5_2/relu_0_split_0
I0708 16:37:38.068608 29489 net.cpp:411] conv5_3_1x1_reduce -> conv5_3_1x1_reduce
I0708 16:37:38.078719 29489 net.cpp:150] Setting up conv5_3_1x1_reduce
I0708 16:37:38.078740 29489 net.cpp:157] Top shape: 10 512 41 41 (8606720)
I0708 16:37:38.078747 29489 net.cpp:165] Memory required for data: 9272822000
I0708 16:37:38.078758 29489 layer_factory.hpp:77] Creating layer conv5_3_1x1_reduce/bn
I0708 16:37:38.078773 29489 net.cpp:106] Creating Layer conv5_3_1x1_reduce/bn
I0708 16:37:38.078788 29489 net.cpp:454] conv5_3_1x1_reduce/bn <- conv5_3_1x1_reduce
I0708 16:37:38.078799 29489 net.cpp:397] conv5_3_1x1_reduce/bn -> conv5_3_1x1_reduce (in-place)
I0708 16:37:38.079005 29489 net.cpp:150] Setting up conv5_3_1x1_reduce/bn
I0708 16:37:38.079020 29489 net.cpp:157] Top shape: 10 512 41 41 (8606720)
I0708 16:37:38.079026 29489 net.cpp:165] Memory required for data: 9307248880
I0708 16:37:38.079041 29489 layer_factory.hpp:77] Creating layer conv5_3_1x1_reduce/relu
I0708 16:37:38.079054 29489 net.cpp:106] Creating Layer conv5_3_1x1_reduce/relu
I0708 16:37:38.079063 29489 net.cpp:454] conv5_3_1x1_reduce/relu <- conv5_3_1x1_reduce
I0708 16:37:38.079072 29489 net.cpp:397] conv5_3_1x1_reduce/relu -> conv5_3_1x1_reduce (in-place)
I0708 16:37:38.079084 29489 net.cpp:150] Setting up conv5_3_1x1_reduce/relu
I0708 16:37:38.079093 29489 net.cpp:157] Top shape: 10 512 41 41 (8606720)
I0708 16:37:38.079104 29489 net.cpp:165] Memory required for data: 9341675760
I0708 16:37:38.079111 29489 layer_factory.hpp:77] Creating layer conv5_3_3x3
I0708 16:37:38.079128 29489 net.cpp:106] Creating Layer conv5_3_3x3
I0708 16:37:38.079136 29489 net.cpp:454] conv5_3_3x3 <- conv5_3_1x1_reduce
I0708 16:37:38.079147 29489 net.cpp:411] conv5_3_3x3 -> conv5_3_3x3
I0708 16:37:38.101490 29489 net.cpp:150] Setting up conv5_3_3x3
I0708 16:37:38.101518 29489 net.cpp:157] Top shape: 10 512 41 41 (8606720)
I0708 16:37:38.101524 29489 net.cpp:165] Memory required for data: 9376102640
I0708 16:37:38.101536 29489 layer_factory.hpp:77] Creating layer conv5_3_3x3/bn
I0708 16:37:38.101557 29489 net.cpp:106] Creating Layer conv5_3_3x3/bn
I0708 16:37:38.101568 29489 net.cpp:454] conv5_3_3x3/bn <- conv5_3_3x3
I0708 16:37:38.101582 29489 net.cpp:397] conv5_3_3x3/bn -> conv5_3_3x3 (in-place)
I0708 16:37:38.101796 29489 net.cpp:150] Setting up conv5_3_3x3/bn
I0708 16:37:38.101809 29489 net.cpp:157] Top shape: 10 512 41 41 (8606720)
I0708 16:37:38.101814 29489 net.cpp:165] Memory required for data: 9410529520
I0708 16:37:38.101827 29489 layer_factory.hpp:77] Creating layer conv5_3_3x3/relu
I0708 16:37:38.101840 29489 net.cpp:106] Creating Layer conv5_3_3x3/relu
I0708 16:37:38.101861 29489 net.cpp:454] conv5_3_3x3/relu <- conv5_3_3x3
I0708 16:37:38.101872 29489 net.cpp:397] conv5_3_3x3/relu -> conv5_3_3x3 (in-place)
I0708 16:37:38.101886 29489 net.cpp:150] Setting up conv5_3_3x3/relu
I0708 16:37:38.101896 29489 net.cpp:157] Top shape: 10 512 41 41 (8606720)
I0708 16:37:38.101902 29489 net.cpp:165] Memory required for data: 9444956400
I0708 16:37:38.101909 29489 layer_factory.hpp:77] Creating layer conv5_3_1x1_increase
I0708 16:37:38.101925 29489 net.cpp:106] Creating Layer conv5_3_1x1_increase
I0708 16:37:38.101933 29489 net.cpp:454] conv5_3_1x1_increase <- conv5_3_3x3
I0708 16:37:38.101945 29489 net.cpp:411] conv5_3_1x1_increase -> conv5_3_1x1_increase
I0708 16:37:38.112161 29489 net.cpp:150] Setting up conv5_3_1x1_increase
I0708 16:37:38.112190 29489 net.cpp:157] Top shape: 10 2048 41 41 (34426880)
I0708 16:37:38.112196 29489 net.cpp:165] Memory required for data: 9582663920
I0708 16:37:38.112206 29489 layer_factory.hpp:77] Creating layer conv5_3_1x1_increase/bn
I0708 16:37:38.112223 29489 net.cpp:106] Creating Layer conv5_3_1x1_increase/bn
I0708 16:37:38.112237 29489 net.cpp:454] conv5_3_1x1_increase/bn <- conv5_3_1x1_increase
I0708 16:37:38.112253 29489 net.cpp:397] conv5_3_1x1_increase/bn -> conv5_3_1x1_increase (in-place)
I0708 16:37:38.112464 29489 net.cpp:150] Setting up conv5_3_1x1_increase/bn
I0708 16:37:38.112476 29489 net.cpp:157] Top shape: 10 2048 41 41 (34426880)
I0708 16:37:38.112483 29489 net.cpp:165] Memory required for data: 9720371440
I0708 16:37:38.112495 29489 layer_factory.hpp:77] Creating layer conv5_3
I0708 16:37:38.112509 29489 net.cpp:106] Creating Layer conv5_3
I0708 16:37:38.112516 29489 net.cpp:454] conv5_3 <- conv5_2_conv5_2/relu_0_split_1
I0708 16:37:38.112525 29489 net.cpp:454] conv5_3 <- conv5_3_1x1_increase
I0708 16:37:38.112534 29489 net.cpp:411] conv5_3 -> conv5_3
I0708 16:37:38.112568 29489 net.cpp:150] Setting up conv5_3
I0708 16:37:38.112578 29489 net.cpp:157] Top shape: 10 2048 41 41 (34426880)
I0708 16:37:38.112584 29489 net.cpp:165] Memory required for data: 9858078960
I0708 16:37:38.112591 29489 layer_factory.hpp:77] Creating layer conv5_3/relu
I0708 16:37:38.112603 29489 net.cpp:106] Creating Layer conv5_3/relu
I0708 16:37:38.112612 29489 net.cpp:454] conv5_3/relu <- conv5_3
I0708 16:37:38.112622 29489 net.cpp:397] conv5_3/relu -> conv5_3 (in-place)
I0708 16:37:38.112632 29489 net.cpp:150] Setting up conv5_3/relu
I0708 16:37:38.112642 29489 net.cpp:157] Top shape: 10 2048 41 41 (34426880)
I0708 16:37:38.112648 29489 net.cpp:165] Memory required for data: 9995786480
I0708 16:37:38.112659 29489 layer_factory.hpp:77] Creating layer conv6
I0708 16:37:38.112675 29489 net.cpp:106] Creating Layer conv6
I0708 16:37:38.112682 29489 net.cpp:454] conv6 <- conv5_3
I0708 16:37:38.112694 29489 net.cpp:411] conv6 -> conv6
I0708 16:37:38.113616 29489 net.cpp:150] Setting up conv6
I0708 16:37:38.113631 29489 net.cpp:157] Top shape: 10 19 41 41 (319390)
I0708 16:37:38.113637 29489 net.cpp:165] Memory required for data: 9997064040
I0708 16:37:38.113646 29489 layer_factory.hpp:77] Creating layer conv6_conv6_0_split
I0708 16:37:38.113657 29489 net.cpp:106] Creating Layer conv6_conv6_0_split
I0708 16:37:38.113667 29489 net.cpp:454] conv6_conv6_0_split <- conv6
I0708 16:37:38.113675 29489 net.cpp:411] conv6_conv6_0_split -> conv6_conv6_0_split_0
I0708 16:37:38.113688 29489 net.cpp:411] conv6_conv6_0_split -> conv6_conv6_0_split_1
I0708 16:37:38.113736 29489 net.cpp:150] Setting up conv6_conv6_0_split
I0708 16:37:38.113747 29489 net.cpp:157] Top shape: 10 19 41 41 (319390)
I0708 16:37:38.113755 29489 net.cpp:157] Top shape: 10 19 41 41 (319390)
I0708 16:37:38.113761 29489 net.cpp:165] Memory required for data: 9999619160
I0708 16:37:38.113768 29489 layer_factory.hpp:77] Creating layer label_shrink
I0708 16:37:38.113783 29489 net.cpp:106] Creating Layer label_shrink
I0708 16:37:38.113790 29489 net.cpp:454] label_shrink <- label
I0708 16:37:38.113802 29489 net.cpp:411] label_shrink -> label_shrink
I0708 16:37:38.113842 29489 net.cpp:150] Setting up label_shrink
I0708 16:37:38.113862 29489 net.cpp:157] Top shape: 10 1 41 41 (16810)
I0708 16:37:38.113868 29489 net.cpp:165] Memory required for data: 9999686400
I0708 16:37:38.113875 29489 layer_factory.hpp:77] Creating layer label_shrink_label_shrink_0_split
I0708 16:37:38.113886 29489 net.cpp:106] Creating Layer label_shrink_label_shrink_0_split
I0708 16:37:38.113894 29489 net.cpp:454] label_shrink_label_shrink_0_split <- label_shrink
I0708 16:37:38.113903 29489 net.cpp:411] label_shrink_label_shrink_0_split -> label_shrink_label_shrink_0_split_0
I0708 16:37:38.113914 29489 net.cpp:411] label_shrink_label_shrink_0_split -> label_shrink_label_shrink_0_split_1
I0708 16:37:38.113958 29489 net.cpp:150] Setting up label_shrink_label_shrink_0_split
I0708 16:37:38.113968 29489 net.cpp:157] Top shape: 10 1 41 41 (16810)
I0708 16:37:38.113976 29489 net.cpp:157] Top shape: 10 1 41 41 (16810)
I0708 16:37:38.113981 29489 net.cpp:165] Memory required for data: 9999820880
I0708 16:37:38.113987 29489 layer_factory.hpp:77] Creating layer loss
I0708 16:37:38.114004 29489 net.cpp:106] Creating Layer loss
I0708 16:37:38.114013 29489 net.cpp:454] loss <- conv6_conv6_0_split_0
I0708 16:37:38.114022 29489 net.cpp:454] loss <- label_shrink_label_shrink_0_split_0
I0708 16:37:38.114030 29489 net.cpp:411] loss -> loss
I0708 16:37:38.114049 29489 layer_factory.hpp:77] Creating layer loss
I0708 16:37:38.114701 29489 net.cpp:150] Setting up loss
I0708 16:37:38.114714 29489 net.cpp:157] Top shape: (1)
I0708 16:37:38.114720 29489 net.cpp:160]     with loss weight 1
I0708 16:37:38.114747 29489 net.cpp:165] Memory required for data: 9999820884
I0708 16:37:38.114754 29489 layer_factory.hpp:77] Creating layer accuracy
I0708 16:37:38.114769 29489 net.cpp:106] Creating Layer accuracy
I0708 16:37:38.114778 29489 net.cpp:454] accuracy <- conv6_conv6_0_split_1
I0708 16:37:38.114785 29489 net.cpp:454] accuracy <- label_shrink_label_shrink_0_split_1
I0708 16:37:38.114799 29489 net.cpp:411] accuracy -> accuracy
I0708 16:37:38.114845 29489 net.cpp:150] Setting up accuracy
I0708 16:37:38.114856 29489 net.cpp:157] Top shape: 1 1 1 3 (3)
I0708 16:37:38.114861 29489 net.cpp:165] Memory required for data: 9999820896
I0708 16:37:38.114868 29489 net.cpp:228] accuracy does not need backward computation.
I0708 16:37:38.114876 29489 net.cpp:226] loss needs backward computation.
I0708 16:37:38.114883 29489 net.cpp:228] label_shrink_label_shrink_0_split does not need backward computation.
I0708 16:37:38.114891 29489 net.cpp:228] label_shrink does not need backward computation.
…
