…
I0729 23:11:48.336850 10431 net.cpp:49] Initializing net from parameters: 
state {
  phase: TRAIN
}
layer {
  name: "data"
  type: "ImageSegData"
  top: "data"
  top: "label"
  include {
    phase: TRAIN
  }
  transform_param {
    mirror: true
    crop_size: 321
    mean_value: 103.939
    mean_value: 116.779
    mean_value: 123.68
    scale_factors: 1
  }
  image_data_param {
    source: "/research/leojia2/xjqi/data/imagenet/training.txt"
    batch_size: 9
    shuffle: true
    root_folder: "/data/ssd/public/xjqi/Imagenet/"
    label_type: PIXEL
  }
}
layer {
  name: "conv1_1_3x3_s2"
  type: "Convolution"
  bottom: "data"
  top: "conv1_1_3x3_s2"
  param {
    lr_mult: 1
    decay_mult: 1
  }
  convolution_param {
    num_output: 64
    bias_term: false
    pad: 1
    kernel_size: 3
    stride: 2
    weight_filler {
      type: "msra"
    }
  }
}
layer {
  name: "conv1_1_3x3_s2/bn"
  type: "BN"
  bottom: "conv1_1_3x3_s2"
  top: "conv1_1_3x3_s2"
  param {
    lr_mult: 1
    decay_mult: 0
  }
  param {
    lr_mult: 1
    decay_mult: 0
  }
  param {
    lr_mult: 0
    decay_mult: 0
  }
  param {
    lr_mult: 0
    decay_mult: 0
  }
  bn_param {
    scale_filler {
      type: "constant"
      value: 1
    }
    shift_filler {
      type: "constant"
      value: 0
    }
    moving_average: true
    decay: 0.2
  }
}
layer {
  name: "conv1_1_3x3_s2/relu"
  type: "ReLU"
  bottom: "conv1_1_3x3_s2"
  top: "conv1_1_3x3_s2"
}
layer {
  name: "conv1_2_3x3"
  type: "Convolution"
  bottom: "conv1_1_3x3_s2"
  top: "conv1_2_3x3"
  param {
    lr_mult: 1
    decay_mult: 1
  }
  convolution_param {
    num_output: 64
    bias_term: false
    pad: 1
    kernel_size: 3
    stride: 1
    weight_filler {
      type: "msra"
    }
  }
}
layer {
  name: "conv1_2_3x3/bn"
  type: "BN"
  bottom: "conv1_2_3x3"
  top: "conv1_2_3x3"
  param {
    lr_mult: 1
    decay_mult: 0
  }
  param {
    lr_mult: 1
    decay_mult: 0
  }
  param {
    lr_mult: 0
    decay_mult: 0
  }
  param {
    lr_mult: 0
    decay_mult: 0
  }
  bn_param {
    scale_filler {
      type: "constant"
      value: 1
    }
    shift_filler {
      type: "constant"
      value: 0
    }
    moving_average: true
    decay: 0.2
  }
}
layer {
  name: "conv1_2_3x3/relu"
  type: "ReLU"
  bottom: "conv1_2_3x3"
  top: "conv1_2_3x3"
}
layer {
  name: "conv1_3_3x3"
  type: "Convolution"
  bottom: "conv1_2_3x3"
  top: "conv1_3_3x3"
  param {
    lr_mult: 1
    decay_mult: 1
  }
  convolution_param {
    num_output: 128
    bias_term: false
    pad: 1
    kernel_size: 3
    stride: 1
    weight_filler {
      type: "msra"
    }
  }
}
layer {
  name: "conv1_3_3x3/bn"
  type: "BN"
  bottom: "conv1_3_3x3"
  top: "conv1_3_3x3"
  param {
    lr_mult: 1
    decay_mult: 0
  }
  param {
    lr_mult: 1
    decay_mult: 0
  }
  param {
    lr_mult: 0
    decay_mult: 0
  }
  param {
    lr_mult: 0
    decay_mult: 0
  }
  bn_param {
    scale_filler {
      type: "constant"
      value: 1
    }
    shift_filler {
      type: "constant"
      value: 0
    }
    moving_average: true
    decay: 0.2
  }
}
layer {
  name: "conv1_3_3x3/relu"
  type: "ReLU"
  bottom: "conv1_3_3x3"
  top: "conv1_3_3x3"
}
layer {
  name: "pool1_3x3_s2"
  type: "Pooling"
  bottom: "conv1_3_3x3"
  top: "pool1_3x3_s2"
  pooling_param {
    pool: MAX
    kernel_size: 3
    stride: 2
    pad: 1
  }
}
layer {
  name: "conv2_1_1x1_reduce"
  type: "Convolution"
  bottom: "pool1_3x3_s2"
  top: "conv2_1_1x1_reduce"
  param {
    lr_mult: 1
    decay_mult: 1
  }
  convolution_param {
    num_output: 64
    bias_term: false
    pad: 0
    kernel_size: 1
    stride: 1
    weight_filler {
      type: "msra"
    }
  }
}
layer {
  name: "conv2_1_1x1_reduce/bn"
  type: "BN"
  bottom: "conv2_1_1x1_reduce"
  top: "conv2_1_1x1_reduce"
  param {
    lr_mult: 1
    decay_mult: 0
  }
  param {
    lr_mult: 1
    decay_mult: 0
  }
  param {
    lr_mult: 0
    decay_mult: 0
  }
  param {
    lr_mult: 0
    decay_mult: 0
  }
  bn_param {
    scale_filler {
      type: "constant"
      value: 1
    }
    shift_filler {
      type: "constant"
      value: 0
    }
    moving_average: true
    decay: 0.2
  }
}
layer {
  name: "conv2_1_1x1_reduce/relu"
  type: "ReLU"
  bottom: "conv2_1_1x1_reduce"
  top: "conv2_1_1x1_reduce"
}
layer {
  name: "conv2_1_3x3"
  type: "Convolution"
  bottom: "conv2_1_1x1_reduce"
  top: "conv2_1_3x3"
  param {
    lr_mult: 1
    decay_mult: 1
  }
  convolution_param {
    num_output: 64
    bias_term: false
    pad: 1
    kernel_size: 3
    stride: 1
    weight_filler {
      type: "msra"
    }
  }
}
layer {
  name: "conv2_1_3x3/bn"
  type: "BN"
  bottom: "conv2_1_3x3"
  top: "conv2_1_3x3"
  param {
    lr_mult: 1
    decay_mult: 0
  }
  param {
    lr_mult: 1
    decay_mult: 0
  }
  param {
    lr_mult: 0
    decay_mult: 0
  }
  param {
    lr_mult: 0
    decay_mult: 0
  }
  bn_param {
    scale_filler {
      type: "constant"
      value: 1
    }
    shift_filler {
      type: "constant"
      value: 0
    }
    moving_average: true
    decay: 0.2
  }
}
layer {
  name: "conv2_1_3x3/relu"
  type: "ReLU"
  bottom: "conv2_1_3x3"
  top: "conv2_1_3x3"
}
layer {
  name: "conv2_1_1x1_increase"
  type: "Convolution"
  bottom: "conv2_1_3x3"
  top: "conv2_1_1x1_increase"
  param {
    lr_mult: 1
    decay_mult: 1
  }
  convolution_param {
    num_output: 256
    bias_term: false
    pad: 0
    kernel_size: 1
    stride: 1
    weight_filler {
      type: "msra"
    }
  }
}
layer {
  name: "conv2_1_1x1_increase/bn"
  type: "BN"
  bottom: "conv2_1_1x1_increase"
  top: "conv2_1_1x1_increase"
  param {
    lr_mult: 1
    decay_mult: 0
  }
  param {
    lr_mult: 1
    decay_mult: 0
  }
  param {
    lr_mult: 0
    decay_mult: 0
  }
  param {
    lr_mult: 0
    decay_mult: 0
  }
  bn_param {
    scale_filler {
      type: "constant"
      value: 1
    }
    shift_filler {
      type: "constant"
      value: 0
    }
    moving_average: true
    decay: 0.2
  }
}
layer {
  name: "conv2_1_1x1_proj"
  type: "Convolution"
  bottom: "pool1_3x3_s2"
  top: "conv2_1_1x1_proj"
  param {
    lr_mult: 1
    decay_mult: 1
  }
  convolution_param {
    num_output: 256
    bias_term: false
    pad: 0
    kernel_size: 1
    stride: 1
    weight_filler {
      type: "msra"
    }
  }
}
layer {
  name: "conv2_1_1x1_proj/bn"
  type: "BN"
  bottom: "conv2_1_1x1_proj"
  top: "conv2_1_1x1_proj"
  param {
    lr_mult: 1
    decay_mult: 0
  }
  param {
    lr_mult: 1
    decay_mult: 0
  }
  param {
    lr_mult: 0
    decay_mult: 0
  }
  param {
    lr_mult: 0
    decay_mult: 0
  }
  bn_param {
    scale_filler {
      type: "constant"
      value: 1
    }
    shift_filler {
      type: "constant"
      value: 0
    }
    moving_average: true
    decay: 0.2
  }
}
layer {
  name: "conv2_1"
  type: "Eltwise"
  bottom: "conv2_1_1x1_proj"
  bottom: "conv2_1_1x1_increase"
  top: "conv2_1"
  eltwise_param {
    operation: SUM
  }
}
layer {
  name: "conv2_1/relu"
  type: "ReLU"
  bottom: "conv2_1"
  top: "conv2_1"
}
layer {
  name: "conv2_2_1x1_reduce"
  type: "Convolution"
  bottom: "conv2_1"
  top: "conv2_2_1x1_reduce"
  param {
    lr_mult: 1
    decay_mult: 1
  }
  convolution_param {
    num_output: 64
    bias_term: false
    pad: 0
    kernel_size: 1
    stride: 1
    weight_filler {
      type: "msra"
    }
  }
}
layer {
  name: "conv2_2_1x1_reduce/bn"
  type: "BN"
  bottom: "conv2_2_1x1_reduce"
  top: "conv2_2_1x1_reduce"
  param {
    lr_mult: 1
    decay_mult: 0
  }
  param {
    lr_mult: 1
    decay_mult: 0
  }
  param {
    lr_mult: 0
    decay_mult: 0
  }
  param {
    lr_mult: 0
    decay_mult: 0
  }
  bn_param {
    scale_filler {
      type: "constant"
      value: 1
    }
    shift_filler {
      type: "constant"
      value: 0
    }
    moving_average: true
    decay: 0.2
  }
}
layer {
  name: "conv2_2_1x1_reduce/relu"
  type: "ReLU"
  bottom: "conv2_2_1x1_reduce"
  top: "conv2_2_1x1_reduce"
}
layer {
  name: "conv2_2_3x3"
  type: "Convolution"
  bottom: "conv2_2_1x1_reduce"
  top: "conv2_2_3x3"
  param {
    lr_mult: 1
    decay_mult: 1
  }
  convolution_param {
    num_output: 64
    bias_term: false
    pad: 1
    kernel_size: 3
    stride: 1
    weight_filler {
      type: "msra"
    }
  }
}
layer {
  name: "conv2_2_3x3/bn"
  type: "BN"
  bottom: "conv2_2_3x3"
  top: "conv2_2_3x3"
  param {
    lr_mult: 1
    decay_mult: 0
  }
  param {
    lr_mult: 1
    decay_mult: 0
  }
  param {
    lr_mult: 0
    decay_mult: 0
  }
  param {
    lr_mult: 0
    decay_mult: 0
  }
  bn_param {
    scale_filler {
      type: "constant"
      value: 1
    }
    shift_filler {
      type: "constant"
      value: 0
    }
    moving_average: true
    decay: 0.2
  }
}
layer {
  name: "conv2_2_3x3/relu"
  type: "ReLU"
  bottom: "conv2_2_3x3"
  top: "conv2_2_3x3"
}
layer {
  name: "conv2_2_1x1_increase"
  type: "Convolution"
  bottom: "conv2_2_3x3"
  top: "conv2_2_1x1_increase"
  param {
    lr_mult: 1
    decay_mult: 1
  }
  convolution_param {
    num_output: 256
    bias_term: false
    pad: 0
    kernel_size: 1
    stride: 1
    weight_filler {
      type: "msra"
    }
  }
}
layer {
  name: "conv2_2_1x1_increase/bn"
  type: "BN"
  bottom: "conv2_2_1x1_increase"
  top: "conv2_2_1x1_increase"
  param {
    lr_mult: 1
    decay_mult: 0
  }
  param {
    lr_mult: 1
    decay_mult: 0
  }
  param {
    lr_mult: 0
    decay_mult: 0
  }
  param {
    lr_mult: 0
    decay_mult: 0
  }
  bn_param {
    scale_filler {
      type: "constant"
      value: 1
    }
    shift_filler {
      type: "constant"
      value: 0
    }
    moving_average: true
    decay: 0.2
  }
}
layer {
  name: "conv2_2"
  type: "Eltwise"
  bottom: "conv2_1"
  bottom: "conv2_2_1x1_increase"
  top: "conv2_2"
  eltwise_param {
    operation: SUM
  }
}
layer {
  name: "conv2_2/relu"
  type: "ReLU"
  bottom: "conv2_2"
  top: "conv2_2"
}
layer {
  name: "conv2_3_1x1_reduce"
  type: "Convolution"
  bottom: "conv2_2"
  top: "conv2_3_1x1_reduce"
  param {
    lr_mult: 1
    decay_mult: 1
  }
  convolution_param {
    num_output: 64
    bias_term: false
    pad: 0
    kernel_size: 1
    stride: 1
    weight_filler {
      type: "msra"
    }
  }
}
layer {
  name: "conv2_3_1x1_reduce/bn"
  type: "BN"
  bottom: "conv2_3_1x1_reduce"
  top: "conv2_3_1x1_reduce"
  param {
    lr_mult: 1
    decay_mult: 0
  }
  param {
    lr_mult: 1
    decay_mult: 0
  }
  param {
    lr_mult: 0
    decay_mult: 0
  }
  param {
    lr_mult: 0
    decay_mult: 0
  }
  bn_param {
    scale_filler {
      type: "constant"
      value: 1
    }
    shift_filler {
      type: "constant"
      value: 0
    }
    moving_average: true
    decay: 0.2
  }
}
layer {
  name: "conv2_3_1x1_reduce/relu"
  type: "ReLU"
  bottom: "conv2_3_1x1_reduce"
  top: "conv2_3_1x1_reduce"
}
layer {
  name: "conv2_3_3x3"
  type: "Convolution"
  bottom: "conv2_3_1x1_reduce"
  top: "conv2_3_3x3"
  param {
    lr_mult: 1
    decay_mult: 1
  }
  convolution_param {
    num_output: 64
    bias_term: false
    pad: 1
    kernel_size: 3
    stride: 1
    weight_filler {
      type: "msra"
    }
  }
}
layer {
  name: "conv2_3_3x3/bn"
  type: "BN"
  bottom: "conv2_3_3x3"
  top: "conv2_3_3x3"
  param {
    lr_mult: 1
    decay_mult: 0
  }
  param {
    lr_mult: 1
    decay_mult: 0
  }
  param {
    lr_mult: 0
    decay_mult: 0
  }
  param {
    lr_mult: 0
    decay_mult: 0
  }
  bn_param {
    scale_filler {
      type: "constant"
      value: 1
    }
    shift_filler {
      type: "constant"
      value: 0
    }
    moving_average: true
    decay: 0.2
  }
}
layer {
  name: "conv2_3_3x3/relu"
  type: "ReLU"
  bottom: "conv2_3_3x3"
  top: "conv2_3_3x3"
}
layer {
  name: "conv2_3_1x1_increase"
  type: "Convolution"
  bottom: "conv2_3_3x3"
  top: "conv2_3_1x1_increase"
  param {
    lr_mult: 1
    decay_mult: 1
  }
  convolution_param {
    num_output: 256
    bias_term: false
    pad: 0
    kernel_size: 1
    stride: 1
    weight_filler {
      type: "msra"
    }
  }
}
layer {
  name: "conv2_3_1x1_increase/bn"
  type: "BN"
  bottom: "conv2_3_1x1_increase"
  top: "conv2_3_1x1_increase"
  param {
    lr_mult: 1
    decay_mult: 0
  }
  param {
    lr_mult: 1
    decay_mult: 0
  }
  param {
    lr_mult: 0
    decay_mult: 0
  }
  param {
    lr_mult: 0
    decay_mult: 0
  }
  bn_param {
    scale_filler {
      type: "constant"
      value: 1
    }
    shift_filler {
      type: "constant"
      value: 0
    }
    moving_average: true
    decay: 0.2
  }
}
layer {
  name: "conv2_3"
  type: "Eltwise"
  bottom: "conv2_2"
  bottom: "conv2_3_1x1_increase"
  top: "conv2_3"
  eltwise_param {
    operation: SUM
  }
}
layer {
  name: "conv2_3/relu"
  type: "ReLU"
  bottom: "conv2_3"
  top: "conv2_3"
}
layer {
  name: "conv3_1_1x1_reduce"
  type: "Convolution"
  bottom: "conv2_3"
  top: "conv3_1_1x1_reduce"
  param {
    lr_mult: 1
    decay_mult: 1
  }
  convolution_param {
    num_output: 128
    bias_term: false
    pad: 0
    kernel_size: 1
    stride: 2
    weight_filler {
      type: "msra"
    }
  }
}
layer {
  name: "conv3_1_1x1_reduce/bn"
  type: "BN"
  bottom: "conv3_1_1x1_reduce"
  top: "conv3_1_1x1_reduce"
  param {
    lr_mult: 1
    decay_mult: 0
  }
  param {
    lr_mult: 1
    decay_mult: 0
  }
  param {
    lr_mult: 0
    decay_mult: 0
  }
  param {
    lr_mult: 0
    decay_mult: 0
  }
  bn_param {
    scale_filler {
      type: "constant"
      value: 1
    }
    shift_filler {
      type: "constant"
      value: 0
    }
    moving_average: true
    decay: 0.2
  }
}
layer {
  name: "conv3_1_1x1_reduce/relu"
  type: "ReLU"
  bottom: "conv3_1_1x1_reduce"
  top: "conv3_1_1x1_reduce"
}
layer {
  name: "conv3_1_3x3"
  type: "Convolution"
  bottom: "conv3_1_1x1_reduce"
  top: "conv3_1_3x3"
  param {
    lr_mult: 1
    decay_mult: 1
  }
  convolution_param {
    num_output: 128
    bias_term: false
    pad: 1
    kernel_size: 3
    stride: 1
    weight_filler {
      type: "msra"
    }
  }
}
layer {
  name: "conv3_1_3x3/bn"
  type: "BN"
  bottom: "conv3_1_3x3"
  top: "conv3_1_3x3"
  param {
    lr_mult: 1
    decay_mult: 0
  }
  param {
    lr_mult: 1
    decay_mult: 0
  }
  param {
    lr_mult: 0
    decay_mult: 0
  }
  param {
    lr_mult: 0
    decay_mult: 0
  }
  bn_param {
    scale_filler {
      type: "constant"
      value: 1
    }
    shift_filler {
      type: "constant"
      value: 0
    }
    moving_average: true
    decay: 0.2
  }
}
layer {
  name: "conv3_1_3x3/relu"
  type: "ReLU"
  bottom: "conv3_1_3x3"
  top: "conv3_1_3x3"
}
layer {
  name: "conv3_1_1x1_increase"
  type: "Convolution"
  bottom: "conv3_1_3x3"
  top: "conv3_1_1x1_increase"
  param {
    lr_mult: 1
    decay_mult: 1
  }
  convolution_param {
    num_output: 512
    bias_term: false
    pad: 0
    kernel_size: 1
    stride: 1
    weight_filler {
      type: "msra"
    }
  }
}
layer {
  name: "conv3_1_1x1_increase/bn"
  type: "BN"
  bottom: "conv3_1_1x1_increase"
  top: "conv3_1_1x1_increase"
  param {
    lr_mult: 1
    decay_mult: 0
  }
  param {
    lr_mult: 1
    decay_mult: 0
  }
  param {
    lr_mult: 0
    decay_mult: 0
  }
  param {
    lr_mult: 0
    decay_mult: 0
  }
  bn_param {
    scale_filler {
      type: "constant"
      value: 1
    }
    shift_filler {
      type: "constant"
      value: 0
    }
    moving_average: true
    decay: 0.2
  }
}
layer {
  name: "conv3_1_1x1_proj"
  type: "Convolution"
  bottom: "conv2_3"
  top: "conv3_1_1x1_proj"
  param {
    lr_mult: 1
    decay_mult: 1
  }
  convolution_param {
    num_output: 512
    bias_term: false
    pad: 0
    kernel_size: 1
    stride: 2
    weight_filler {
      type: "msra"
    }
  }
}
layer {
  name: "conv3_1_1x1_proj/bn"
  type: "BN"
  bottom: "conv3_1_1x1_proj"
  top: "conv3_1_1x1_proj"
  param {
    lr_mult: 1
    decay_mult: 0
  }
  param {
    lr_mult: 1
    decay_mult: 0
  }
  param {
    lr_mult: 0
    decay_mult: 0
  }
  param {
    lr_mult: 0
    decay_mult: 0
  }
  bn_param {
    scale_filler {
      type: "constant"
      value: 1
    }
    shift_filler {
      type: "constant"
      value: 0
    }
    moving_average: true
    decay: 0.2
  }
}
layer {
  name: "conv3_1"
  type: "Eltwise"
  bottom: "conv3_1_1x1_proj"
  bottom: "conv3_1_1x1_increase"
  top: "conv3_1"
  eltwise_param {
    operation: SUM
  }
}
layer {
  name: "conv3_1/relu"
  type: "ReLU"
  bottom: "conv3_1"
  top: "conv3_1"
}
layer {
  name: "conv3_2_1x1_reduce"
  type: "Convolution"
  bottom: "conv3_1"
  top: "conv3_2_1x1_reduce"
  param {
    lr_mult: 1
    decay_mult: 1
  }
  convolution_param {
    num_output: 128
    bias_term: false
    pad: 0
    kernel_size: 1
    stride: 1
    weight_filler {
      type: "msra"
    }
  }
}
layer {
  name: "conv3_2_1x1_reduce/bn"
  type: "BN"
  bottom: "conv3_2_1x1_reduce"
  top: "conv3_2_1x1_reduce"
  param {
    lr_mult: 1
    decay_mult: 0
  }
  param {
    lr_mult: 1
    decay_mult: 0
  }
  param {
    lr_mult: 0
    decay_mult: 0
  }
  param {
    lr_mult: 0
    decay_mult: 0
  }
  bn_param {
    scale_filler {
      type: "constant"
      value: 1
    }
    shift_filler {
      type: "constant"
      value: 0
    }
    moving_average: true
    decay: 0.2
  }
}
layer {
  name: "conv3_2_1x1_reduce/relu"
  type: "ReLU"
  bottom: "conv3_2_1x1_reduce"
  top: "conv3_2_1x1_reduce"
}
layer {
  name: "conv3_2_3x3"
  type: "Convolution"
  bottom: "conv3_2_1x1_reduce"
  top: "conv3_2_3x3"
  param {
    lr_mult: 1
    decay_mult: 1
  }
  convolution_param {
    num_output: 128
    bias_term: false
    pad: 1
    kernel_size: 3
    stride: 1
    weight_filler {
      type: "msra"
    }
  }
}
layer {
  name: "conv3_2_3x3/bn"
  type: "BN"
  bottom: "conv3_2_3x3"
  top: "conv3_2_3x3"
  param {
    lr_mult: 1
    decay_mult: 0
  }
  param {
    lr_mult: 1
    decay_mult: 0
  }
  param {
    lr_mult: 0
    decay_mult: 0
  }
  param {
    lr_mult: 0
    decay_mult: 0
  }
  bn_param {
    scale_filler {
      type: "constant"
      value: 1
    }
    shift_filler {
      type: "constant"
      value: 0
    }
    moving_average: true
    decay: 0.2
  }
}
layer {
  name: "conv3_2_3x3/relu"
  type: "ReLU"
  bottom: "conv3_2_3x3"
  top: "conv3_2_3x3"
}
layer {
  name: "conv3_2_1x1_increase"
  type: "Convolution"
  bottom: "conv3_2_3x3"
  top: "conv3_2_1x1_increase"
  param {
    lr_mult: 1
    decay_mult: 1
  }
  convolution_param {
    num_output: 512
    bias_term: false
    pad: 0
    kernel_size: 1
    stride: 1
    weight_filler {
      type: "msra"
    }
  }
}
layer {
  name: "conv3_2_1x1_increase/bn"
  type: "BN"
  bottom: "conv3_2_1x1_increase"
  top: "conv3_2_1x1_increase"
  param {
    lr_mult: 1
    decay_mult: 0
  }
  param {
    lr_mult: 1
    decay_mult: 0
  }
  param {
    lr_mult: 0
    decay_mult: 0
  }
  param {
    lr_mult: 0
    decay_mult: 0
  }
  bn_param {
    scale_filler {
      type: "constant"
      value: 1
    }
    shift_filler {
      type: "constant"
      value: 0
    }
    moving_average: true
    decay: 0.2
  }
}
layer {
  name: "conv3_2"
  type: "Eltwise"
  bottom: "conv3_1"
  bottom: "conv3_2_1x1_increase"
  top: "conv3_2"
  eltwise_param {
    operation: SUM
  }
}
layer {
  name: "conv3_2/relu"
  type: "ReLU"
  bottom: "conv3_2"
  top: "conv3_2"
}
layer {
  name: "conv3_3_1x1_reduce"
  type: "Convolution"
  bottom: "conv3_2"
  top: "conv3_3_1x1_reduce"
  param {
    lr_mult: 1
    decay_mult: 1
  }
  convolution_param {
    num_output: 128
    bias_term: false
    pad: 0
    kernel_size: 1
    stride: 1
    weight_filler {
      type: "msra"
    }
  }
}
layer {
  name: "conv3_3_1x1_reduce/bn"
  type: "BN"
  bottom: "conv3_3_1x1_reduce"
  top: "conv3_3_1x1_reduce"
  param {
    lr_mult: 1
    decay_mult: 0
  }
  param {
    lr_mult: 1
    decay_mult: 0
  }
  param {
    lr_mult: 0
    decay_mult: 0
  }
  param {
    lr_mult: 0
    decay_mult: 0
  }
  bn_param {
    scale_filler {
      type: "constant"
      value: 1
    }
    shift_filler {
      type: "constant"
      value: 0
    }
    moving_average: true
    decay: 0.2
  }
}
layer {
  name: "conv3_3_1x1_reduce/relu"
  type: "ReLU"
  bottom: "conv3_3_1x1_reduce"
  top: "conv3_3_1x1_reduce"
}
layer {
  name: "conv3_3_3x3"
  type: "Convolution"
  bottom: "conv3_3_1x1_reduce"
  top: "conv3_3_3x3"
  param {
    lr_mult: 1
    decay_mult: 1
  }
  convolution_param {
    num_output: 128
    bias_term: false
    pad: 1
    kernel_size: 3
    stride: 1
    weight_filler {
      type: "msra"
    }
  }
}
layer {
  name: "conv3_3_3x3/bn"
  type: "BN"
  bottom: "conv3_3_3x3"
  top: "conv3_3_3x3"
  param {
    lr_mult: 1
    decay_mult: 0
  }
  param {
    lr_mult: 1
    decay_mult: 0
  }
  param {
    lr_mult: 0
    decay_mult: 0
  }
  param {
    lr_mult: 0
    decay_mult: 0
  }
  bn_param {
    scale_filler {
      type: "constant"
      value: 1
    }
    shift_filler {
      type: "constant"
      value: 0
    }
    moving_average: true
    decay: 0.2
  }
}
layer {
  name: "conv3_3_3x3/relu"
  type: "ReLU"
  bottom: "conv3_3_3x3"
  top: "conv3_3_3x3"
}
layer {
  name: "conv3_3_1x1_increase"
  type: "Convolution"
  bottom: "conv3_3_3x3"
  top: "conv3_3_1x1_increase"
  param {
    lr_mult: 1
    decay_mult: 1
  }
  convolution_param {
    num_output: 512
    bias_term: false
    pad: 0
    kernel_size: 1
    stride: 1
    weight_filler {
      type: "msra"
    }
  }
}
layer {
  name: "conv3_3_1x1_increase/bn"
  type: "BN"
  bottom: "conv3_3_1x1_increase"
  top: "conv3_3_1x1_increase"
  param {
    lr_mult: 1
    decay_mult: 0
  }
  param {
    lr_mult: 1
    decay_mult: 0
  }
  param {
    lr_mult: 0
    decay_mult: 0
  }
  param {
    lr_mult: 0
    decay_mult: 0
  }
  bn_param {
    scale_filler {
      type: "constant"
      value: 1
    }
    shift_filler {
      type: "constant"
      value: 0
    }
    moving_average: true
    decay: 0.2
  }
}
layer {
  name: "conv3_3"
  type: "Eltwise"
  bottom: "conv3_2"
  bottom: "conv3_3_1x1_increase"
  top: "conv3_3"
  eltwise_param {
    operation: SUM
  }
}
layer {
  name: "conv3_3/relu"
  type: "ReLU"
  bottom: "conv3_3"
  top: "conv3_3"
}
layer {
  name: "conv3_4_1x1_reduce"
  type: "Convolution"
  bottom: "conv3_3"
  top: "conv3_4_1x1_reduce"
  param {
    lr_mult: 1
    decay_mult: 1
  }
  convolution_param {
    num_output: 128
    bias_term: false
    pad: 0
    kernel_size: 1
    stride: 1
    weight_filler {
      type: "msra"
    }
  }
}
layer {
  name: "conv3_4_1x1_reduce/bn"
  type: "BN"
  bottom: "conv3_4_1x1_reduce"
  top: "conv3_4_1x1_reduce"
  param {
    lr_mult: 1
    decay_mult: 0
  }
  param {
    lr_mult: 1
    decay_mult: 0
  }
  param {
    lr_mult: 0
    decay_mult: 0
  }
  param {
    lr_mult: 0
    decay_mult: 0
  }
  bn_param {
    scale_filler {
      type: "constant"
      value: 1
    }
    shift_filler {
      type: "constant"
      value: 0
    }
    moving_average: true
    decay: 0.2
  }
}
layer {
  name: "conv3_4_1x1_reduce/relu"
  type: "ReLU"
  bottom: "conv3_4_1x1_reduce"
  top: "conv3_4_1x1_reduce"
}
layer {
  name: "conv3_4_3x3"
  type: "Convolution"
  bottom: "conv3_4_1x1_reduce"
  top: "conv3_4_3x3"
  param {
    lr_mult: 1
    decay_mult: 1
  }
  convolution_param {
    num_output: 128
    bias_term: false
    pad: 1
    kernel_size: 3
    stride: 1
    weight_filler {
      type: "msra"
    }
  }
}
layer {
  name: "conv3_4_3x3/bn"
  type: "BN"
  bottom: "conv3_4_3x3"
  top: "conv3_4_3x3"
  param {
    lr_mult: 1
    decay_mult: 0
  }
  param {
    lr_mult: 1
    decay_mult: 0
  }
  param {
    lr_mult: 0
    decay_mult: 0
  }
  param {
    lr_mult: 0
    decay_mult: 0
  }
  bn_param {
    scale_filler {
      type: "constant"
      value: 1
    }
    shift_filler {
      type: "constant"
      value: 0
    }
    moving_average: true
    decay: 0.2
  }
}
layer {
  name: "conv3_4_3x3/relu"
  type: "ReLU"
  bottom: "conv3_4_3x3"
  top: "conv3_4_3x3"
}
layer {
  name: "conv3_4_1x1_increase"
  type: "Convolution"
  bottom: "conv3_4_3x3"
  top: "conv3_4_1x1_increase"
  param {
    lr_mult: 1
    decay_mult: 1
  }
  convolution_param {
    num_output: 512
    bias_term: false
    pad: 0
    kernel_size: 1
    stride: 1
    weight_filler {
      type: "msra"
    }
  }
}
layer {
  name: "conv3_4_1x1_increase/bn"
  type: "BN"
  bottom: "conv3_4_1x1_increase"
  top: "conv3_4_1x1_increase"
  param {
    lr_mult: 1
    decay_mult: 0
  }
  param {
    lr_mult: 1
    decay_mult: 0
  }
  param {
    lr_mult: 0
    decay_mult: 0
  }
  param {
    lr_mult: 0
    decay_mult: 0
  }
  bn_param {
    scale_filler {
      type: "constant"
      value: 1
    }
    shift_filler {
      type: "constant"
      value: 0
    }
    moving_average: true
    decay: 0.2
  }
}
layer {
  name: "conv3_4"
  type: "Eltwise"
  bottom: "conv3_3"
  bottom: "conv3_4_1x1_increase"
  top: "conv3_4"
  eltwise_param {
    operation: SUM
  }
}
layer {
  name: "conv3_4/relu"
  type: "ReLU"
  bottom: "conv3_4"
  top: "conv3_4"
}
layer {
  name: "conv4_1_1x1_reduce"
  type: "Convolution"
  bottom: "conv3_4"
  top: "conv4_1_1x1_reduce"
  param {
    lr_mult: 1
    decay_mult: 1
  }
  convolution_param {
    num_output: 256
    bias_term: false
    pad: 0
    kernel_size: 1
    stride: 1
    weight_filler {
      type: "msra"
    }
  }
}
layer {
  name: "conv4_1_1x1_reduce/bn"
  type: "BN"
  bottom: "conv4_1_1x1_reduce"
  top: "conv4_1_1x1_reduce"
  param {
    lr_mult: 1
    decay_mult: 0
  }
  param {
    lr_mult: 1
    decay_mult: 0
  }
  param {
    lr_mult: 0
    decay_mult: 0
  }
  param {
    lr_mult: 0
    decay_mult: 0
  }
  bn_param {
    scale_filler {
      type: "constant"
      value: 1
    }
    shift_filler {
      type: "constant"
      value: 0
    }
    moving_average: true
    decay: 0.2
  }
}
layer {
  name: "conv4_1_1x1_reduce/relu"
  type: "ReLU"
  bottom: "conv4_1_1x1_reduce"
  top: "conv4_1_1x1_reduce"
}
layer {
  name: "conv4_1_3x3"
  type: "Convolution"
  bottom: "conv4_1_1x1_reduce"
  top: "conv4_1_3x3"
  param {
    lr_mult: 1
    decay_mult: 1
  }
  convolution_param {
    num_output: 256
    bias_term: false
    pad: 2
    kernel_size: 3
    stride: 1
    weight_filler {
      type: "msra"
    }
    dilation: 2
  }
}
layer {
  name: "conv4_1_3x3/bn"
  type: "BN"
  bottom: "conv4_1_3x3"
  top: "conv4_1_3x3"
  param {
    lr_mult: 1
    decay_mult: 0
  }
  param {
    lr_mult: 1
    decay_mult: 0
  }
  param {
    lr_mult: 0
    decay_mult: 0
  }
  param {
    lr_mult: 0
    decay_mult: 0
  }
  bn_param {
    scale_filler {
      type: "constant"
      value: 1
    }
    shift_filler {
      type: "constant"
      value: 0
    }
    moving_average: true
    decay: 0.2
  }
}
layer {
  name: "conv4_1_3x3/relu"
  type: "ReLU"
  bottom: "conv4_1_3x3"
  top: "conv4_1_3x3"
}
layer {
  name: "conv4_1_1x1_increase"
  type: "Convolution"
  bottom: "conv4_1_3x3"
  top: "conv4_1_1x1_increase"
  param {
    lr_mult: 1
    decay_mult: 1
  }
  convolution_param {
    num_output: 1024
    bias_term: false
    pad: 0
    kernel_size: 1
    stride: 1
    weight_filler {
      type: "msra"
    }
  }
}
layer {
  name: "conv4_1_1x1_increase/bn"
  type: "BN"
  bottom: "conv4_1_1x1_increase"
  top: "conv4_1_1x1_increase"
  param {
    lr_mult: 1
    decay_mult: 0
  }
  param {
    lr_mult: 1
    decay_mult: 0
  }
  param {
    lr_mult: 0
    decay_mult: 0
  }
  param {
    lr_mult: 0
    decay_mult: 0
  }
  bn_param {
    scale_filler {
      type: "constant"
      value: 1
    }
    shift_filler {
      type: "constant"
      value: 0
    }
    moving_average: true
    decay: 0.2
  }
}
layer {
  name: "conv4_1_1x1_proj"
  type: "Convolution"
  bottom: "conv3_4"
  top: "conv4_1_1x1_proj"
  param {
    lr_mult: 1
    decay_mult: 1
  }
  convolution_param {
    num_output: 1024
    bias_term: false
    pad: 0
    kernel_size: 1
    stride: 1
    weight_filler {
      type: "msra"
    }
  }
}
layer {
  name: "conv4_1_1x1_proj/bn"
  type: "BN"
  bottom: "conv4_1_1x1_proj"
  top: "conv4_1_1x1_proj"
  param {
    lr_mult: 1
    decay_mult: 0
  }
  param {
    lr_mult: 1
    decay_mult: 0
  }
  param {
    lr_mult: 0
    decay_mult: 0
  }
  param {
    lr_mult: 0
    decay_mult: 0
  }
  bn_param {
    scale_filler {
      type: "constant"
      value: 1
    }
    shift_filler {
      type: "constant"
      value: 0
    }
    moving_average: true
    decay: 0.2
  }
}
layer {
  name: "conv4_1"
  type: "Eltwise"
  bottom: "conv4_1_1x1_proj"
  bottom: "conv4_1_1x1_increase"
  top: "conv4_1"
  eltwise_param {
    operation: SUM
  }
}
layer {
  name: "conv4_1/relu"
  type: "ReLU"
  bottom: "conv4_1"
  top: "conv4_1"
}
layer {
  name: "conv4_2_1x1_reduce"
  type: "Convolution"
  bottom: "conv4_1"
  top: "conv4_2_1x1_reduce"
  param {
    lr_mult: 1
    decay_mult: 1
  }
  convolution_param {
    num_output: 256
    bias_term: false
    pad: 0
    kernel_size: 1
    stride: 1
    weight_filler {
      type: "msra"
    }
  }
}
layer {
  name: "conv4_2_1x1_reduce/bn"
  type: "BN"
  bottom: "conv4_2_1x1_reduce"
  top: "conv4_2_1x1_reduce"
  param {
    lr_mult: 1
    decay_mult: 0
  }
  param {
    lr_mult: 1
    decay_mult: 0
  }
  param {
    lr_mult: 0
    decay_mult: 0
  }
  param {
    lr_mult: 0
    decay_mult: 0
  }
  bn_param {
    scale_filler {
      type: "constant"
      value: 1
    }
    shift_filler {
      type: "constant"
      value: 0
    }
    moving_average: true
    decay: 0.2
  }
}
layer {
  name: "conv4_2_1x1_reduce/relu"
  type: "ReLU"
  bottom: "conv4_2_1x1_reduce"
  top: "conv4_2_1x1_reduce"
}
layer {
  name: "conv4_2_3x3"
  type: "Convolution"
  bottom: "conv4_2_1x1_reduce"
  top: "conv4_2_3x3"
  param {
    lr_mult: 1
    decay_mult: 1
  }
  convolution_param {
    num_output: 256
    bias_term: false
    pad: 2
    kernel_size: 3
    stride: 1
    weight_filler {
      type: "msra"
    }
    dilation: 2
  }
}
layer {
  name: "conv4_2_3x3/bn"
  type: "BN"
  bottom: "conv4_2_3x3"
  top: "conv4_2_3x3"
  param {
    lr_mult: 1
    decay_mult: 0
  }
  param {
    lr_mult: 1
    decay_mult: 0
  }
  param {
    lr_mult: 0
    decay_mult: 0
  }
  param {
    lr_mult: 0
    decay_mult: 0
  }
  bn_param {
    scal
I0729 23:11:48.338759 10431 layer_factory.hpp:77] Creating layer data
I0729 23:11:48.338829 10431 net.cpp:106] Creating Layer data
I0729 23:11:48.338851 10431 net.cpp:411] data -> data
I0729 23:11:48.338904 10431 net.cpp:411] data -> label
I0729 23:11:48.338932 10431 net.cpp:411] data -> (automatic)
I0729 23:11:48.339737 10431 image_seg_data_layer.cpp:46] Opening file /research/leojia2/xjqi/data/imagenet/training.txt
I0729 23:11:48.383484 10431 image_seg_data_layer.cpp:63] Shuffling data
I0729 23:11:48.387789 10431 image_seg_data_layer.cpp:68] A total of 20210 images.
I0729 23:11:48.408730 10431 image_seg_data_layer.cpp:137] output data size: 9,3,321,321
I0729 23:11:48.408764 10431 image_seg_data_layer.cpp:141] output label size: 9,1,321,321
I0729 23:11:48.408771 10431 image_seg_data_layer.cpp:145] output data_dim size: 9,1,1,2
I0729 23:11:48.467342 10431 net.cpp:150] Setting up data
I0729 23:11:48.467447 10431 net.cpp:157] Top shape: 9 3 321 321 (2782107)
I0729 23:11:48.467458 10431 net.cpp:157] Top shape: 9 1 321 321 (927369)
I0729 23:11:48.467464 10431 net.cpp:157] Top shape: 9 1 1 2 (18)
I0729 23:11:48.467468 10431 net.cpp:165] Memory required for data: 14837976
I0729 23:11:48.467480 10431 layer_factory.hpp:77] Creating layer conv1_1_3x3_s2
I0729 23:11:48.467520 10431 net.cpp:106] Creating Layer conv1_1_3x3_s2
I0729 23:11:48.467532 10431 net.cpp:454] conv1_1_3x3_s2 <- data
I0729 23:11:48.467561 10431 net.cpp:411] conv1_1_3x3_s2 -> conv1_1_3x3_s2
I0729 23:11:48.468798 10431 net.cpp:150] Setting up conv1_1_3x3_s2
I0729 23:11:48.468816 10431 net.cpp:157] Top shape: 9 64 161 161 (14930496)
I0729 23:11:48.468822 10431 net.cpp:165] Memory required for data: 74559960
I0729 23:11:48.468835 10431 layer_factory.hpp:77] Creating layer conv1_1_3x3_s2/bn
I0729 23:11:48.468855 10431 net.cpp:106] Creating Layer conv1_1_3x3_s2/bn
I0729 23:11:48.468878 10431 net.cpp:454] conv1_1_3x3_s2/bn <- conv1_1_3x3_s2
I0729 23:11:48.468916 10431 net.cpp:397] conv1_1_3x3_s2/bn -> conv1_1_3x3_s2 (in-place)
I0729 23:11:48.470115 10431 net.cpp:150] Setting up conv1_1_3x3_s2/bn
I0729 23:11:48.470131 10431 net.cpp:157] Top shape: 9 64 161 161 (14930496)
I0729 23:11:48.470137 10431 net.cpp:165] Memory required for data: 134281944
I0729 23:11:48.470155 10431 layer_factory.hpp:77] Creating layer conv1_1_3x3_s2/relu
I0729 23:11:48.470168 10431 net.cpp:106] Creating Layer conv1_1_3x3_s2/relu
I0729 23:11:48.470177 10431 net.cpp:454] conv1_1_3x3_s2/relu <- conv1_1_3x3_s2
I0729 23:11:48.470188 10431 net.cpp:397] conv1_1_3x3_s2/relu -> conv1_1_3x3_s2 (in-place)
I0729 23:11:48.470204 10431 net.cpp:150] Setting up conv1_1_3x3_s2/relu
I0729 23:11:48.470216 10431 net.cpp:157] Top shape: 9 64 161 161 (14930496)
I0729 23:11:48.470226 10431 net.cpp:165] Memory required for data: 194003928
I0729 23:11:48.470237 10431 layer_factory.hpp:77] Creating layer conv1_2_3x3
I0729 23:11:48.470255 10431 net.cpp:106] Creating Layer conv1_2_3x3
I0729 23:11:48.470266 10431 net.cpp:454] conv1_2_3x3 <- conv1_1_3x3_s2
I0729 23:11:48.470279 10431 net.cpp:411] conv1_2_3x3 -> conv1_2_3x3
I0729 23:11:48.472317 10431 net.cpp:150] Setting up conv1_2_3x3
I0729 23:11:48.472333 10431 net.cpp:157] Top shape: 9 64 161 161 (14930496)
I0729 23:11:48.472338 10431 net.cpp:165] Memory required for data: 253725912
I0729 23:11:48.472344 10431 layer_factory.hpp:77] Creating layer conv1_2_3x3/bn
I0729 23:11:48.472355 10431 net.cpp:106] Creating Layer conv1_2_3x3/bn
I0729 23:11:48.472360 10431 net.cpp:454] conv1_2_3x3/bn <- conv1_2_3x3
I0729 23:11:48.472370 10431 net.cpp:397] conv1_2_3x3/bn -> conv1_2_3x3 (in-place)
I0729 23:11:48.472885 10431 net.cpp:150] Setting up conv1_2_3x3/bn
I0729 23:11:48.472898 10431 net.cpp:157] Top shape: 9 64 161 161 (14930496)
I0729 23:11:48.472903 10431 net.cpp:165] Memory required for data: 313447896
I0729 23:11:48.472916 10431 layer_factory.hpp:77] Creating layer conv1_2_3x3/relu
I0729 23:11:48.472924 10431 net.cpp:106] Creating Layer conv1_2_3x3/relu
I0729 23:11:48.472929 10431 net.cpp:454] conv1_2_3x3/relu <- conv1_2_3x3
I0729 23:11:48.472940 10431 net.cpp:397] conv1_2_3x3/relu -> conv1_2_3x3 (in-place)
I0729 23:11:48.472951 10431 net.cpp:150] Setting up conv1_2_3x3/relu
I0729 23:11:48.472964 10431 net.cpp:157] Top shape: 9 64 161 161 (14930496)
I0729 23:11:48.472975 10431 net.cpp:165] Memory required for data: 373169880
I0729 23:11:48.472986 10431 layer_factory.hpp:77] Creating layer conv1_3_3x3
I0729 23:11:48.473003 10431 net.cpp:106] Creating Layer conv1_3_3x3
I0729 23:11:48.473012 10431 net.cpp:454] conv1_3_3x3 <- conv1_2_3x3
I0729 23:11:48.473026 10431 net.cpp:411] conv1_3_3x3 -> conv1_3_3x3
I0729 23:11:48.476161 10431 net.cpp:150] Setting up conv1_3_3x3
I0729 23:11:48.476177 10431 net.cpp:157] Top shape: 9 128 161 161 (29860992)
I0729 23:11:48.476181 10431 net.cpp:165] Memory required for data: 492613848
I0729 23:11:48.476191 10431 layer_factory.hpp:77] Creating layer conv1_3_3x3/bn
I0729 23:11:48.476209 10431 net.cpp:106] Creating Layer conv1_3_3x3/bn
I0729 23:11:48.476218 10431 net.cpp:454] conv1_3_3x3/bn <- conv1_3_3x3
I0729 23:11:48.476233 10431 net.cpp:397] conv1_3_3x3/bn -> conv1_3_3x3 (in-place)
I0729 23:11:48.476464 10431 net.cpp:150] Setting up conv1_3_3x3/bn
I0729 23:11:48.476476 10431 net.cpp:157] Top shape: 9 128 161 161 (29860992)
I0729 23:11:48.476480 10431 net.cpp:165] Memory required for data: 612057816
I0729 23:11:48.476491 10431 layer_factory.hpp:77] Creating layer conv1_3_3x3/relu
I0729 23:11:48.476503 10431 net.cpp:106] Creating Layer conv1_3_3x3/relu
I0729 23:11:48.476511 10431 net.cpp:454] conv1_3_3x3/relu <- conv1_3_3x3
I0729 23:11:48.476521 10431 net.cpp:397] conv1_3_3x3/relu -> conv1_3_3x3 (in-place)
I0729 23:11:48.476534 10431 net.cpp:150] Setting up conv1_3_3x3/relu
I0729 23:11:48.476543 10431 net.cpp:157] Top shape: 9 128 161 161 (29860992)
I0729 23:11:48.476550 10431 net.cpp:165] Memory required for data: 731501784
I0729 23:11:48.476557 10431 layer_factory.hpp:77] Creating layer pool1_3x3_s2
I0729 23:11:48.476579 10431 net.cpp:106] Creating Layer pool1_3x3_s2
I0729 23:11:48.476588 10431 net.cpp:454] pool1_3x3_s2 <- conv1_3_3x3
I0729 23:11:48.476599 10431 net.cpp:411] pool1_3x3_s2 -> pool1_3x3_s2
I0729 23:11:48.476670 10431 net.cpp:150] Setting up pool1_3x3_s2
I0729 23:11:48.476680 10431 net.cpp:157] Top shape: 9 128 81 81 (7558272)
I0729 23:11:48.476683 10431 net.cpp:165] Memory required for data: 761734872
I0729 23:11:48.476691 10431 layer_factory.hpp:77] Creating layer pool1_3x3_s2_pool1_3x3_s2_0_split
I0729 23:11:48.476706 10431 net.cpp:106] Creating Layer pool1_3x3_s2_pool1_3x3_s2_0_split
I0729 23:11:48.476712 10431 net.cpp:454] pool1_3x3_s2_pool1_3x3_s2_0_split <- pool1_3x3_s2
I0729 23:11:48.476724 10431 net.cpp:411] pool1_3x3_s2_pool1_3x3_s2_0_split -> pool1_3x3_s2_pool1_3x3_s2_0_split_0
I0729 23:11:48.476737 10431 net.cpp:411] pool1_3x3_s2_pool1_3x3_s2_0_split -> pool1_3x3_s2_pool1_3x3_s2_0_split_1
I0729 23:11:48.476791 10431 net.cpp:150] Setting up pool1_3x3_s2_pool1_3x3_s2_0_split
I0729 23:11:48.476801 10431 net.cpp:157] Top shape: 9 128 81 81 (7558272)
I0729 23:11:48.476807 10431 net.cpp:157] Top shape: 9 128 81 81 (7558272)
I0729 23:11:48.476814 10431 net.cpp:165] Memory required for data: 822201048
I0729 23:11:48.476819 10431 layer_factory.hpp:77] Creating layer conv2_1_1x1_reduce
I0729 23:11:48.476837 10431 net.cpp:106] Creating Layer conv2_1_1x1_reduce
I0729 23:11:48.476845 10431 net.cpp:454] conv2_1_1x1_reduce <- pool1_3x3_s2_pool1_3x3_s2_0_split_0
I0729 23:11:48.476860 10431 net.cpp:411] conv2_1_1x1_reduce -> conv2_1_1x1_reduce
I0729 23:11:48.478021 10431 net.cpp:150] Setting up conv2_1_1x1_reduce
I0729 23:11:48.478044 10431 net.cpp:157] Top shape: 9 64 81 81 (3779136)
I0729 23:11:48.478049 10431 net.cpp:165] Memory required for data: 837317592
I0729 23:11:48.478055 10431 layer_factory.hpp:77] Creating layer conv2_1_1x1_reduce/bn
I0729 23:11:48.478066 10431 net.cpp:106] Creating Layer conv2_1_1x1_reduce/bn
I0729 23:11:48.478073 10431 net.cpp:454] conv2_1_1x1_reduce/bn <- conv2_1_1x1_reduce
I0729 23:11:48.478086 10431 net.cpp:397] conv2_1_1x1_reduce/bn -> conv2_1_1x1_reduce (in-place)
I0729 23:11:48.478315 10431 net.cpp:150] Setting up conv2_1_1x1_reduce/bn
I0729 23:11:48.478327 10431 net.cpp:157] Top shape: 9 64 81 81 (3779136)
I0729 23:11:48.478332 10431 net.cpp:165] Memory required for data: 852434136
I0729 23:11:48.478345 10431 layer_factory.hpp:77] Creating layer conv2_1_1x1_reduce/relu
I0729 23:11:48.478353 10431 net.cpp:106] Creating Layer conv2_1_1x1_reduce/relu
I0729 23:11:48.478359 10431 net.cpp:454] conv2_1_1x1_reduce/relu <- conv2_1_1x1_reduce
I0729 23:11:48.478366 10431 net.cpp:397] conv2_1_1x1_reduce/relu -> conv2_1_1x1_reduce (in-place)
I0729 23:11:48.478376 10431 net.cpp:150] Setting up conv2_1_1x1_reduce/relu
I0729 23:11:48.478386 10431 net.cpp:157] Top shape: 9 64 81 81 (3779136)
I0729 23:11:48.478392 10431 net.cpp:165] Memory required for data: 867550680
I0729 23:11:48.478399 10431 layer_factory.hpp:77] Creating layer conv2_1_3x3
I0729 23:11:48.478415 10431 net.cpp:106] Creating Layer conv2_1_3x3
I0729 23:11:48.478427 10431 net.cpp:454] conv2_1_3x3 <- conv2_1_1x1_reduce
I0729 23:11:48.478441 10431 net.cpp:411] conv2_1_3x3 -> conv2_1_3x3
I0729 23:11:48.479722 10431 net.cpp:150] Setting up conv2_1_3x3
I0729 23:11:48.479735 10431 net.cpp:157] Top shape: 9 64 81 81 (3779136)
I0729 23:11:48.479739 10431 net.cpp:165] Memory required for data: 882667224
I0729 23:11:48.479745 10431 layer_factory.hpp:77] Creating layer conv2_1_3x3/bn
I0729 23:11:48.479758 10431 net.cpp:106] Creating Layer conv2_1_3x3/bn
I0729 23:11:48.479763 10431 net.cpp:454] conv2_1_3x3/bn <- conv2_1_3x3
I0729 23:11:48.479774 10431 net.cpp:397] conv2_1_3x3/bn -> conv2_1_3x3 (in-place)
I0729 23:11:48.480012 10431 net.cpp:150] Setting up conv2_1_3x3/bn
I0729 23:11:48.480023 10431 net.cpp:157] Top shape: 9 64 81 81 (3779136)
I0729 23:11:48.480028 10431 net.cpp:165] Memory required for data: 897783768
I0729 23:11:48.480047 10431 layer_factory.hpp:77] Creating layer conv2_1_3x3/relu
I0729 23:11:48.480072 10431 net.cpp:106] Creating Layer conv2_1_3x3/relu
I0729 23:11:48.480082 10431 net.cpp:454] conv2_1_3x3/relu <- conv2_1_3x3
I0729 23:11:48.480094 10431 net.cpp:397] conv2_1_3x3/relu -> conv2_1_3x3 (in-place)
I0729 23:11:48.480108 10431 net.cpp:150] Setting up conv2_1_3x3/relu
I0729 23:11:48.480119 10431 net.cpp:157] Top shape: 9 64 81 81 (3779136)
I0729 23:11:48.480128 10431 net.cpp:165] Memory required for data: 912900312
I0729 23:11:48.480134 10431 layer_factory.hpp:77] Creating layer conv2_1_1x1_increase
I0729 23:11:48.480149 10431 net.cpp:106] Creating Layer conv2_1_1x1_increase
I0729 23:11:48.480159 10431 net.cpp:454] conv2_1_1x1_increase <- conv2_1_3x3
I0729 23:11:48.480182 10431 net.cpp:411] conv2_1_1x1_increase -> conv2_1_1x1_increase
I0729 23:11:48.480845 10431 net.cpp:150] Setting up conv2_1_1x1_increase
I0729 23:11:48.480857 10431 net.cpp:157] Top shape: 9 256 81 81 (15116544)
I0729 23:11:48.480862 10431 net.cpp:165] Memory required for data: 973366488
I0729 23:11:48.480871 10431 layer_factory.hpp:77] Creating layer conv2_1_1x1_increase/bn
I0729 23:11:48.480885 10431 net.cpp:106] Creating Layer conv2_1_1x1_increase/bn
I0729 23:11:48.480893 10431 net.cpp:454] conv2_1_1x1_increase/bn <- conv2_1_1x1_increase
I0729 23:11:48.480906 10431 net.cpp:397] conv2_1_1x1_increase/bn -> conv2_1_1x1_increase (in-place)
I0729 23:11:48.481120 10431 net.cpp:150] Setting up conv2_1_1x1_increase/bn
I0729 23:11:48.481132 10431 net.cpp:157] Top shape: 9 256 81 81 (15116544)
I0729 23:11:48.481137 10431 net.cpp:165] Memory required for data: 1033832664
I0729 23:11:48.481151 10431 layer_factory.hpp:77] Creating layer conv2_1_1x1_proj
I0729 23:11:48.481168 10431 net.cpp:106] Creating Layer conv2_1_1x1_proj
I0729 23:11:48.481179 10431 net.cpp:454] conv2_1_1x1_proj <- pool1_3x3_s2_pool1_3x3_s2_0_split_1
I0729 23:11:48.481194 10431 net.cpp:411] conv2_1_1x1_proj -> conv2_1_1x1_proj
I0729 23:11:48.482319 10431 net.cpp:150] Setting up conv2_1_1x1_proj
I0729 23:11:48.482333 10431 net.cpp:157] Top shape: 9 256 81 81 (15116544)
I0729 23:11:48.482337 10431 net.cpp:165] Memory required for data: 1094298840
I0729 23:11:48.482347 10431 layer_factory.hpp:77] Creating layer conv2_1_1x1_proj/bn
I0729 23:11:48.482362 10431 net.cpp:106] Creating Layer conv2_1_1x1_proj/bn
I0729 23:11:48.482385 10431 net.cpp:454] conv2_1_1x1_proj/bn <- conv2_1_1x1_proj
I0729 23:11:48.482398 10431 net.cpp:397] conv2_1_1x1_proj/bn -> conv2_1_1x1_proj (in-place)
I0729 23:11:48.482604 10431 net.cpp:150] Setting up conv2_1_1x1_proj/bn
I0729 23:11:48.482615 10431 net.cpp:157] Top shape: 9 256 81 81 (15116544)
I0729 23:11:48.482620 10431 net.cpp:165] Memory required for data: 1154765016
I0729 23:11:48.482642 10431 layer_factory.hpp:77] Creating layer conv2_1
I0729 23:11:48.482661 10431 net.cpp:106] Creating Layer conv2_1
I0729 23:11:48.482671 10431 net.cpp:454] conv2_1 <- conv2_1_1x1_proj
I0729 23:11:48.482677 10431 net.cpp:454] conv2_1 <- conv2_1_1x1_increase
I0729 23:11:48.482687 10431 net.cpp:411] conv2_1 -> conv2_1
I0729 23:11:48.482730 10431 net.cpp:150] Setting up conv2_1
I0729 23:11:48.482741 10431 net.cpp:157] Top shape: 9 256 81 81 (15116544)
I0729 23:11:48.482745 10431 net.cpp:165] Memory required for data: 1215231192
I0729 23:11:48.482751 10431 layer_factory.hpp:77] Creating layer conv2_1/relu
I0729 23:11:48.482763 10431 net.cpp:106] Creating Layer conv2_1/relu
I0729 23:11:48.482769 10431 net.cpp:454] conv2_1/relu <- conv2_1
I0729 23:11:48.482780 10431 net.cpp:397] conv2_1/relu -> conv2_1 (in-place)
I0729 23:11:48.482791 10431 net.cpp:150] Setting up conv2_1/relu
I0729 23:11:48.482800 10431 net.cpp:157] Top shape: 9 256 81 81 (15116544)
I0729 23:11:48.482806 10431 net.cpp:165] Memory required for data: 1275697368
I0729 23:11:48.482813 10431 layer_factory.hpp:77] Creating layer conv2_1_conv2_1/relu_0_split
I0729 23:11:48.482825 10431 net.cpp:106] Creating Layer conv2_1_conv2_1/relu_0_split
I0729 23:11:48.482831 10431 net.cpp:454] conv2_1_conv2_1/relu_0_split <- conv2_1
I0729 23:11:48.482841 10431 net.cpp:411] conv2_1_conv2_1/relu_0_split -> conv2_1_conv2_1/relu_0_split_0
I0729 23:11:48.482862 10431 net.cpp:411] conv2_1_conv2_1/relu_0_split -> conv2_1_conv2_1/relu_0_split_1
I0729 23:11:48.482913 10431 net.cpp:150] Setting up conv2_1_conv2_1/relu_0_split
I0729 23:11:48.482923 10431 net.cpp:157] Top shape: 9 256 81 81 (15116544)
I0729 23:11:48.482928 10431 net.cpp:157] Top shape: 9 256 81 81 (15116544)
I0729 23:11:48.482933 10431 net.cpp:165] Memory required for data: 1396629720
I0729 23:11:48.482939 10431 layer_factory.hpp:77] Creating layer conv2_2_1x1_reduce
I0729 23:11:48.482956 10431 net.cpp:106] Creating Layer conv2_2_1x1_reduce
I0729 23:11:48.482964 10431 net.cpp:454] conv2_2_1x1_reduce <- conv2_1_conv2_1/relu_0_split_0
I0729 23:11:48.482976 10431 net.cpp:411] conv2_2_1x1_reduce -> conv2_2_1x1_reduce
I0729 23:11:48.483641 10431 net.cpp:150] Setting up conv2_2_1x1_reduce
I0729 23:11:48.483654 10431 net.cpp:157] Top shape: 9 64 81 81 (3779136)
I0729 23:11:48.483657 10431 net.cpp:165] Memory required for data: 1411746264
I0729 23:11:48.483662 10431 layer_factory.hpp:77] Creating layer conv2_2_1x1_reduce/bn
I0729 23:11:48.483671 10431 net.cpp:106] Creating Layer conv2_2_1x1_reduce/bn
I0729 23:11:48.483676 10431 net.cpp:454] conv2_2_1x1_reduce/bn <- conv2_2_1x1_reduce
I0729 23:11:48.483685 10431 net.cpp:397] conv2_2_1x1_reduce/bn -> conv2_2_1x1_reduce (in-place)
I0729 23:11:48.483898 10431 net.cpp:150] Setting up conv2_2_1x1_reduce/bn
I0729 23:11:48.483909 10431 net.cpp:157] Top shape: 9 64 81 81 (3779136)
I0729 23:11:48.483916 10431 net.cpp:165] Memory required for data: 1426862808
I0729 23:11:48.483932 10431 layer_factory.hpp:77] Creating layer conv2_2_1x1_reduce/relu
I0729 23:11:48.483945 10431 net.cpp:106] Creating Layer conv2_2_1x1_reduce/relu
I0729 23:11:48.483954 10431 net.cpp:454] conv2_2_1x1_reduce/relu <- conv2_2_1x1_reduce
I0729 23:11:48.483965 10431 net.cpp:397] conv2_2_1x1_reduce/relu -> conv2_2_1x1_reduce (in-place)
I0729 23:11:48.483978 10431 net.cpp:150] Setting up conv2_2_1x1_reduce/relu
I0729 23:11:48.483989 10431 net.cpp:157] Top shape: 9 64 81 81 (3779136)
I0729 23:11:48.483996 10431 net.cpp:165] Memory required for data: 1441979352
I0729 23:11:48.484014 10431 layer_factory.hpp:77] Creating layer conv2_2_3x3
I0729 23:11:48.484028 10431 net.cpp:106] Creating Layer conv2_2_3x3
I0729 23:11:48.484042 10431 net.cpp:454] conv2_2_3x3 <- conv2_2_1x1_reduce
I0729 23:11:48.484053 10431 net.cpp:411] conv2_2_3x3 -> conv2_2_3x3
I0729 23:11:48.485265 10431 net.cpp:150] Setting up conv2_2_3x3
I0729 23:11:48.485275 10431 net.cpp:157] Top shape: 9 64 81 81 (3779136)
I0729 23:11:48.485281 10431 net.cpp:165] Memory required for data: 1457095896
I0729 23:11:48.485291 10431 layer_factory.hpp:77] Creating layer conv2_2_3x3/bn
I0729 23:11:48.485304 10431 net.cpp:106] Creating Layer conv2_2_3x3/bn
I0729 23:11:48.485313 10431 net.cpp:454] conv2_2_3x3/bn <- conv2_2_3x3
I0729 23:11:48.485327 10431 net.cpp:397] conv2_2_3x3/bn -> conv2_2_3x3 (in-place)
I0729 23:11:48.485539 10431 net.cpp:150] Setting up conv2_2_3x3/bn
I0729 23:11:48.485549 10431 net.cpp:157] Top shape: 9 64 81 81 (3779136)
I0729 23:11:48.485555 10431 net.cpp:165] Memory required for data: 1472212440
I0729 23:11:48.485569 10431 layer_factory.hpp:77] Creating layer conv2_2_3x3/relu
I0729 23:11:48.485581 10431 net.cpp:106] Creating Layer conv2_2_3x3/relu
I0729 23:11:48.485589 10431 net.cpp:454] conv2_2_3x3/relu <- conv2_2_3x3
I0729 23:11:48.485601 10431 net.cpp:397] conv2_2_3x3/relu -> conv2_2_3x3 (in-place)
I0729 23:11:48.485615 10431 net.cpp:150] Setting up conv2_2_3x3/relu
I0729 23:11:48.485625 10431 net.cpp:157] Top shape: 9 64 81 81 (3779136)
I0729 23:11:48.485633 10431 net.cpp:165] Memory required for data: 1487328984
I0729 23:11:48.485640 10431 layer_factory.hpp:77] Creating layer conv2_2_1x1_increase
I0729 23:11:48.485653 10431 net.cpp:106] Creating Layer conv2_2_1x1_increase
I0729 23:11:48.485662 10431 net.cpp:454] conv2_2_1x1_increase <- conv2_2_3x3
I0729 23:11:48.485674 10431 net.cpp:411] conv2_2_1x1_increase -> conv2_2_1x1_increase
I0729 23:11:48.486315 10431 net.cpp:150] Setting up conv2_2_1x1_increase
I0729 23:11:48.486332 10431 net.cpp:157] Top shape: 9 256 81 81 (15116544)
I0729 23:11:48.486337 10431 net.cpp:165] Memory required for data: 1547795160
I0729 23:11:48.486346 10431 layer_factory.hpp:77] Creating layer conv2_2_1x1_increase/bn
I0729 23:11:48.486363 10431 net.cpp:106] Creating Layer conv2_2_1x1_increase/bn
I0729 23:11:48.486373 10431 net.cpp:454] conv2_2_1x1_increase/bn <- conv2_2_1x1_increase
I0729 23:11:48.486387 10431 net.cpp:397] conv2_2_1x1_increase/bn -> conv2_2_1x1_increase (in-place)
I0729 23:11:48.486585 10431 net.cpp:150] Setting up conv2_2_1x1_increase/bn
I0729 23:11:48.486595 10431 net.cpp:157] Top shape: 9 256 81 81 (15116544)
I0729 23:11:48.486601 10431 net.cpp:165] Memory required for data: 1608261336
I0729 23:11:48.486615 10431 layer_factory.hpp:77] Creating layer conv2_2
I0729 23:11:48.486629 10431 net.cpp:106] Creating Layer conv2_2
I0729 23:11:48.486637 10431 net.cpp:454] conv2_2 <- conv2_1_conv2_1/relu_0_split_1
I0729 23:11:48.486646 10431 net.cpp:454] conv2_2 <- conv2_2_1x1_increase
I0729 23:11:48.486656 10431 net.cpp:411] conv2_2 -> conv2_2
I0729 23:11:48.486691 10431 net.cpp:150] Setting up conv2_2
I0729 23:11:48.486701 10431 net.cpp:157] Top shape: 9 256 81 81 (15116544)
I0729 23:11:48.486706 10431 net.cpp:165] Memory required for data: 1668727512
I0729 23:11:48.486712 10431 layer_factory.hpp:77] Creating layer conv2_2/relu
I0729 23:11:48.486722 10431 net.cpp:106] Creating Layer conv2_2/relu
I0729 23:11:48.486729 10431 net.cpp:454] conv2_2/relu <- conv2_2
I0729 23:11:48.486740 10431 net.cpp:397] conv2_2/relu -> conv2_2 (in-place)
I0729 23:11:48.486752 10431 net.cpp:150] Setting up conv2_2/relu
I0729 23:11:48.486763 10431 net.cpp:157] Top shape: 9 256 81 81 (15116544)
I0729 23:11:48.486769 10431 net.cpp:165] Memory required for data: 1729193688
I0729 23:11:48.486778 10431 layer_factory.hpp:77] Creating layer conv2_2_conv2_2/relu_0_split
I0729 23:11:48.486788 10431 net.cpp:106] Creating Layer conv2_2_conv2_2/relu_0_split
I0729 23:11:48.486798 10431 net.cpp:454] conv2_2_conv2_2/relu_0_split <- conv2_2
I0729 23:11:48.486807 10431 net.cpp:411] conv2_2_conv2_2/relu_0_split -> conv2_2_conv2_2/relu_0_split_0
I0729 23:11:48.486821 10431 net.cpp:411] conv2_2_conv2_2/relu_0_split -> conv2_2_conv2_2/relu_0_split_1
I0729 23:11:48.486866 10431 net.cpp:150] Setting up conv2_2_conv2_2/relu_0_split
I0729 23:11:48.486876 10431 net.cpp:157] Top shape: 9 256 81 81 (15116544)
I0729 23:11:48.486881 10431 net.cpp:157] Top shape: 9 256 81 81 (15116544)
I0729 23:11:48.486887 10431 net.cpp:165] Memory required for data: 1850126040
I0729 23:11:48.486894 10431 layer_factory.hpp:77] Creating layer conv2_3_1x1_reduce
I0729 23:11:48.486909 10431 net.cpp:106] Creating Layer conv2_3_1x1_reduce
I0729 23:11:48.486919 10431 net.cpp:454] conv2_3_1x1_reduce <- conv2_2_conv2_2/relu_0_split_0
I0729 23:11:48.486932 10431 net.cpp:411] conv2_3_1x1_reduce -> conv2_3_1x1_reduce
I0729 23:11:48.487610 10431 net.cpp:150] Setting up conv2_3_1x1_reduce
I0729 23:11:48.487623 10431 net.cpp:157] Top shape: 9 64 81 81 (3779136)
I0729 23:11:48.487629 10431 net.cpp:165] Memory required for data: 1865242584
I0729 23:11:48.487638 10431 layer_factory.hpp:77] Creating layer conv2_3_1x1_reduce/bn
I0729 23:11:48.487654 10431 net.cpp:106] Creating Layer conv2_3_1x1_reduce/bn
I0729 23:11:48.487664 10431 net.cpp:454] conv2_3_1x1_reduce/bn <- conv2_3_1x1_reduce
I0729 23:11:48.487678 10431 net.cpp:397] conv2_3_1x1_reduce/bn -> conv2_3_1x1_reduce (in-place)
I0729 23:11:48.487889 10431 net.cpp:150] Setting up conv2_3_1x1_reduce/bn
I0729 23:11:48.487898 10431 net.cpp:157] Top shape: 9 64 81 81 (3779136)
I0729 23:11:48.487905 10431 net.cpp:165] Memory required for data: 1880359128
I0729 23:11:48.487920 10431 layer_factory.hpp:77] Creating layer conv2_3_1x1_reduce/relu
I0729 23:11:48.487932 10431 net.cpp:106] Creating Layer conv2_3_1x1_reduce/relu
I0729 23:11:48.487941 10431 net.cpp:454] conv2_3_1x1_reduce/relu <- conv2_3_1x1_reduce
I0729 23:11:48.487952 10431 net.cpp:397] conv2_3_1x1_reduce/relu -> conv2_3_1x1_reduce (in-place)
I0729 23:11:48.487972 10431 net.cpp:150] Setting up conv2_3_1x1_reduce/relu
I0729 23:11:48.487984 10431 net.cpp:157] Top shape: 9 64 81 81 (3779136)
I0729 23:11:48.487992 10431 net.cpp:165] Memory required for data: 1895475672
I0729 23:11:48.487998 10431 layer_factory.hpp:77] Creating layer conv2_3_3x3
I0729 23:11:48.488013 10431 net.cpp:106] Creating Layer conv2_3_3x3
I0729 23:11:48.488023 10431 net.cpp:454] conv2_3_3x3 <- conv2_3_1x1_reduce
I0729 23:11:48.488040 10431 net.cpp:411] conv2_3_3x3 -> conv2_3_3x3
I0729 23:11:48.489269 10431 net.cpp:150] Setting up conv2_3_3x3
I0729 23:11:48.489282 10431 net.cpp:157] Top shape: 9 64 81 81 (3779136)
I0729 23:11:48.489287 10431 net.cpp:165] Memory required for data: 1910592216
I0729 23:11:48.489296 10431 layer_factory.hpp:77] Creating layer conv2_3_3x3/bn
I0729 23:11:48.489310 10431 net.cpp:106] Creating Layer conv2_3_3x3/bn
I0729 23:11:48.489320 10431 net.cpp:454] conv2_3_3x3/bn <- conv2_3_3x3
I0729 23:11:48.489333 10431 net.cpp:397] conv2_3_3x3/bn -> conv2_3_3x3 (in-place)
I0729 23:11:48.489553 10431 net.cpp:150] Setting up conv2_3_3x3/bn
I0729 23:11:48.489563 10431 net.cpp:157] Top shape: 9 64 81 81 (3779136)
I0729 23:11:48.489569 10431 net.cpp:165] Memory required for data: 1925708760
I0729 23:11:48.489584 10431 layer_factory.hpp:77] Creating layer conv2_3_3x3/relu
I0729 23:11:48.489598 10431 net.cpp:106] Creating Layer conv2_3_3x3/relu
I0729 23:11:48.489606 10431 net.cpp:454] conv2_3_3x3/relu <- conv2_3_3x3
I0729 23:11:48.489619 10431 net.cpp:397] conv2_3_3x3/relu -> conv2_3_3x3 (in-place)
I0729 23:11:48.489632 10431 net.cpp:150] Setting up conv2_3_3x3/relu
I0729 23:11:48.489645 10431 net.cpp:157] Top shape: 9 64 81 81 (3779136)
I0729 23:11:48.489650 10431 net.cpp:165] Memory required for data: 1940825304
I0729 23:11:48.489657 10431 layer_factory.hpp:77] Creating layer conv2_3_1x1_increase
I0729 23:11:48.489671 10431 net.cpp:106] Creating Layer conv2_3_1x1_increase
I0729 23:11:48.489681 10431 net.cpp:454] conv2_3_1x1_increase <- conv2_3_3x3
I0729 23:11:48.489693 10431 net.cpp:411] conv2_3_1x1_increase -> conv2_3_1x1_increase
I0729 23:11:48.490347 10431 net.cpp:150] Setting up conv2_3_1x1_increase
I0729 23:11:48.490358 10431 net.cpp:157] Top shape: 9 256 81 81 (15116544)
I0729 23:11:48.490365 10431 net.cpp:165] Memory required for data: 2001291480
I0729 23:11:48.490375 10431 layer_factory.hpp:77] Creating layer conv2_3_1x1_increase/bn
I0729 23:11:48.490389 10431 net.cpp:106] Creating Layer conv2_3_1x1_increase/bn
I0729 23:11:48.490399 10431 net.cpp:454] conv2_3_1x1_increase/bn <- conv2_3_1x1_increase
I0729 23:11:48.490411 10431 net.cpp:397] conv2_3_1x1_increase/bn -> conv2_3_1x1_increase (in-place)
I0729 23:11:48.490612 10431 net.cpp:150] Setting up conv2_3_1x1_increase/bn
I0729 23:11:48.490622 10431 net.cpp:157] Top shape: 9 256 81 81 (15116544)
I0729 23:11:48.490630 10431 net.cpp:165] Memory required for data: 2061757656
I0729 23:11:48.490659 10431 layer_factory.hpp:77] Creating layer conv2_3
I0729 23:11:48.490670 10431 net.cpp:106] Creating Layer conv2_3
I0729 23:11:48.490679 10431 net.cpp:454] conv2_3 <- conv2_2_conv2_2/relu_0_split_1
I0729 23:11:48.490689 10431 net.cpp:454] conv2_3 <- conv2_3_1x1_increase
I0729 23:11:48.490700 10431 net.cpp:411] conv2_3 -> conv2_3
I0729 23:11:48.490736 10431 net.cpp:150] Setting up conv2_3
I0729 23:11:48.490744 10431 net.cpp:157] Top shape: 9 256 81 81 (15116544)
I0729 23:11:48.490751 10431 net.cpp:165] Memory required for data: 2122223832
I0729 23:11:48.490757 10431 layer_factory.hpp:77] Creating layer conv2_3/relu
I0729 23:11:48.490770 10431 net.cpp:106] Creating Layer conv2_3/relu
I0729 23:11:48.490779 10431 net.cpp:454] conv2_3/relu <- conv2_3
I0729 23:11:48.490789 10431 net.cpp:397] conv2_3/relu -> conv2_3 (in-place)
I0729 23:11:48.490803 10431 net.cpp:150] Setting up conv2_3/relu
I0729 23:11:48.490814 10431 net.cpp:157] Top shape: 9 256 81 81 (15116544)
I0729 23:11:48.490823 10431 net.cpp:165] Memory required for data: 2182690008
I0729 23:11:48.490830 10431 layer_factory.hpp:77] Creating layer conv2_3_conv2_3/relu_0_split
I0729 23:11:48.490851 10431 net.cpp:106] Creating Layer conv2_3_conv2_3/relu_0_split
I0729 23:11:48.490860 10431 net.cpp:454] conv2_3_conv2_3/relu_0_split <- conv2_3
I0729 23:11:48.490870 10431 net.cpp:411] conv2_3_conv2_3/relu_0_split -> conv2_3_conv2_3/relu_0_split_0
I0729 23:11:48.490885 10431 net.cpp:411] conv2_3_conv2_3/relu_0_split -> conv2_3_conv2_3/relu_0_split_1
I0729 23:11:48.490931 10431 net.cpp:150] Setting up conv2_3_conv2_3/relu_0_split
I0729 23:11:48.490941 10431 net.cpp:157] Top shape: 9 256 81 81 (15116544)
I0729 23:11:48.490948 10431 net.cpp:157] Top shape: 9 256 81 81 (15116544)
I0729 23:11:48.490955 10431 net.cpp:165] Memory required for data: 2303622360
I0729 23:11:48.490962 10431 layer_factory.hpp:77] Creating layer conv3_1_1x1_reduce
I0729 23:11:48.490978 10431 net.cpp:106] Creating Layer conv3_1_1x1_reduce
I0729 23:11:48.490988 10431 net.cpp:454] conv3_1_1x1_reduce <- conv2_3_conv2_3/relu_0_split_0
I0729 23:11:48.490998 10431 net.cpp:411] conv3_1_1x1_reduce -> conv3_1_1x1_reduce
I0729 23:11:48.493063 10431 net.cpp:150] Setting up conv3_1_1x1_reduce
I0729 23:11:48.493083 10431 net.cpp:157] Top shape: 9 128 41 41 (1936512)
I0729 23:11:48.493089 10431 net.cpp:165] Memory required for data: 2311368408
I0729 23:11:48.493098 10431 layer_factory.hpp:77] Creating layer conv3_1_1x1_reduce/bn
I0729 23:11:48.493119 10431 net.cpp:106] Creating Layer conv3_1_1x1_reduce/bn
I0729 23:11:48.493129 10431 net.cpp:454] conv3_1_1x1_reduce/bn <- conv3_1_1x1_reduce
I0729 23:11:48.493140 10431 net.cpp:397] conv3_1_1x1_reduce/bn -> conv3_1_1x1_reduce (in-place)
I0729 23:11:48.493358 10431 net.cpp:150] Setting up conv3_1_1x1_reduce/bn
I0729 23:11:48.493369 10431 net.cpp:157] Top shape: 9 128 41 41 (1936512)
I0729 23:11:48.493376 10431 net.cpp:165] Memory required for data: 2319114456
I0729 23:11:48.493391 10431 layer_factory.hpp:77] Creating layer conv3_1_1x1_reduce/relu
I0729 23:11:48.493404 10431 net.cpp:106] Creating Layer conv3_1_1x1_reduce/relu
I0729 23:11:48.493412 10431 net.cpp:454] conv3_1_1x1_reduce/relu <- conv3_1_1x1_reduce
I0729 23:11:48.493423 10431 net.cpp:397] conv3_1_1x1_reduce/relu -> conv3_1_1x1_reduce (in-place)
I0729 23:11:48.493437 10431 net.cpp:150] Setting up conv3_1_1x1_reduce/relu
I0729 23:11:48.493448 10431 net.cpp:157] Top shape: 9 128 41 41 (1936512)
I0729 23:11:48.493454 10431 net.cpp:165] Memory required for data: 2326860504
I0729 23:11:48.493461 10431 layer_factory.hpp:77] Creating layer conv3_1_3x3
I0729 23:11:48.493479 10431 net.cpp:106] Creating Layer conv3_1_3x3
I0729 23:11:48.493489 10431 net.cpp:454] conv3_1_3x3 <- conv3_1_1x1_reduce
I0729 23:11:48.493502 10431 net.cpp:411] conv3_1_3x3 -> conv3_1_3x3
I0729 23:11:48.497844 10431 net.cpp:150] Setting up conv3_1_3x3
I0729 23:11:48.497859 10431 net.cpp:157] Top shape: 9 128 41 41 (1936512)
I0729 23:11:48.497870 10431 net.cpp:165] Memory required for data: 2334606552
I0729 23:11:48.497884 10431 layer_factory.hpp:77] Creating layer conv3_1_3x3/bn
I0729 23:11:48.497898 10431 net.cpp:106] Creating Layer conv3_1_3x3/bn
I0729 23:11:48.497908 10431 net.cpp:454] conv3_1_3x3/bn <- conv3_1_3x3
I0729 23:11:48.497922 10431 net.cpp:397] conv3_1_3x3/bn -> conv3_1_3x3 (in-place)
I0729 23:11:48.498139 10431 net.cpp:150] Setting up conv3_1_3x3/bn
I0729 23:11:48.498150 10431 net.cpp:157] Top shape: 9 128 41 41 (1936512)
I0729 23:11:48.498157 10431 net.cpp:165] Memory required for data: 2342352600
I0729 23:11:48.498172 10431 layer_factory.hpp:77] Creating layer conv3_1_3x3/relu
I0729 23:11:48.498188 10431 net.cpp:106] Creating Layer conv3_1_3x3/relu
I0729 23:11:48.498198 10431 net.cpp:454] conv3_1_3x3/relu <- conv3_1_3x3
I0729 23:11:48.498208 10431 net.cpp:397] conv3_1_3x3/relu -> conv3_1_3x3 (in-place)
I0729 23:11:48.498221 10431 net.cpp:150] Setting up conv3_1_3x3/relu
I0729 23:11:48.498232 10431 net.cpp:157] Top shape: 9 128 41 41 (1936512)
I0729 23:11:48.498240 10431 net.cpp:165] Memory required for data: 2350098648
I0729 23:11:48.498247 10431 layer_factory.hpp:77] Creating layer conv3_1_1x1_increase
I0729 23:11:48.498261 10431 net.cpp:106] Creating Layer conv3_1_1x1_increase
I0729 23:11:48.498277 10431 net.cpp:454] conv3_1_1x1_increase <- conv3_1_3x3
I0729 23:11:48.498287 10431 net.cpp:411] conv3_1_1x1_increase -> conv3_1_1x1_increase
I0729 23:11:48.500296 10431 net.cpp:150] Setting up conv3_1_1x1_increase
I0729 23:11:48.500308 10431 net.cpp:157] Top shape: 9 512 41 41 (7746048)
I0729 23:11:48.500313 10431 net.cpp:165] Memory required for data: 2381082840
I0729 23:11:48.500324 10431 layer_factory.hpp:77] Creating layer conv3_1_1x1_increase/bn
I0729 23:11:48.500339 10431 net.cpp:106] Creating Layer conv3_1_1x1_increase/bn
I0729 23:11:48.500349 10431 net.cpp:454] conv3_1_1x1_increase/bn <- conv3_1_1x1_increase
I0729 23:11:48.500361 10431 net.cpp:397] conv3_1_1x1_increase/bn -> conv3_1_1x1_increase (in-place)
I0729 23:11:48.501283 10431 net.cpp:150] Setting up conv3_1_1x1_increase/bn
I0729 23:11:48.501299 10431 net.cpp:157] Top shape: 9 512 41 41 (7746048)
I0729 23:11:48.501304 10431 net.cpp:165] Memory required for data: 2412067032
I0729 23:11:48.501319 10431 layer_factory.hpp:77] Creating layer conv3_1_1x1_proj
I0729 23:11:48.501339 10431 net.cpp:106] Creating Layer conv3_1_1x1_proj
I0729 23:11:48.501349 10431 net.cpp:454] conv3_1_1x1_proj <- conv2_3_conv2_3/relu_0_split_1
I0729 23:11:48.501365 10431 net.cpp:411] conv3_1_1x1_proj -> conv3_1_1x1_proj
I0729 23:11:48.505916 10431 net.cpp:150] Setting up conv3_1_1x1_proj
I0729 23:11:48.505933 10431 net.cpp:157] Top shape: 9 512 41 41 (7746048)
I0729 23:11:48.505939 10431 net.cpp:165] Memory required for data: 2443051224
I0729 23:11:48.505949 10431 layer_factory.hpp:77] Creating layer conv3_1_1x1_proj/bn
I0729 23:11:48.505964 10431 net.cpp:106] Creating Layer conv3_1_1x1_proj/bn
I0729 23:11:48.505975 10431 net.cpp:454] conv3_1_1x1_proj/bn <- conv3_1_1x1_proj
I0729 23:11:48.505988 10431 net.cpp:397] conv3_1_1x1_proj/bn -> conv3_1_1x1_proj (in-place)
I0729 23:11:48.506227 10431 net.cpp:150] Setting up conv3_1_1x1_proj/bn
I0729 23:11:48.506237 10431 net.cpp:157] Top shape: 9 512 41 41 (7746048)
I0729 23:11:48.506245 10431 net.cpp:165] Memory required for data: 2474035416
I0729 23:11:48.506260 10431 layer_factory.hpp:77] Creating layer conv3_1
I0729 23:11:48.506274 10431 net.cpp:106] Creating Layer conv3_1
I0729 23:11:48.506283 10431 net.cpp:454] conv3_1 <- conv3_1_1x1_proj
I0729 23:11:48.506294 10431 net.cpp:454] conv3_1 <- conv3_1_1x1_increase
I0729 23:11:48.506304 10431 net.cpp:411] conv3_1 -> conv3_1
I0729 23:11:48.506347 10431 net.cpp:150] Setting up conv3_1
I0729 23:11:48.506361 10431 net.cpp:157] Top shape: 9 512 41 41 (7746048)
I0729 23:11:48.506367 10431 net.cpp:165] Memory required for data: 2505019608
I0729 23:11:48.506374 10431 layer_factory.hpp:77] Creating layer conv3_1/relu
I0729 23:11:48.506384 10431 net.cpp:106] Creating Layer conv3_1/relu
I0729 23:11:48.506392 10431 net.cpp:454] conv3_1/relu <- conv3_1
I0729 23:11:48.506402 10431 net.cpp:397] conv3_1/relu -> conv3_1 (in-place)
I0729 23:11:48.506415 10431 net.cpp:150] Setting up conv3_1/relu
I0729 23:11:48.506425 10431 net.cpp:157] Top shape: 9 512 41 41 (7746048)
I0729 23:11:48.506433 10431 net.cpp:165] Memory required for data: 2536003800
I0729 23:11:48.506441 10431 layer_factory.hpp:77] Creating layer conv3_1_conv3_1/relu_0_split
I0729 23:11:48.506453 10431 net.cpp:106] Creating Layer conv3_1_conv3_1/relu_0_split
I0729 23:11:48.506460 10431 net.cpp:454] conv3_1_conv3_1/relu_0_split <- conv3_1
I0729 23:11:48.506474 10431 net.cpp:411] conv3_1_conv3_1/relu_0_split -> conv3_1_conv3_1/relu_0_split_0
I0729 23:11:48.506487 10431 net.cpp:411] conv3_1_conv3_1/relu_0_split -> conv3_1_conv3_1/relu_0_split_1
I0729 23:11:48.506541 10431 net.cpp:150] Setting up conv3_1_conv3_1/relu_0_split
I0729 23:11:48.506549 10431 net.cpp:157] Top shape: 9 512 41 41 (7746048)
I0729 23:11:48.506563 10431 net.cpp:157] Top shape: 9 512 41 41 (7746048)
I0729 23:11:48.506572 10431 net.cpp:165] Memory required for data: 2597972184
I0729 23:11:48.506580 10431 layer_factory.hpp:77] Creating layer conv3_2_1x1_reduce
I0729 23:11:48.506604 10431 net.cpp:106] Creating Layer conv3_2_1x1_reduce
I0729 23:11:48.506613 10431 net.cpp:454] conv3_2_1x1_reduce <- conv3_1_conv3_1/relu_0_split_0
I0729 23:11:48.506631 10431 net.cpp:411] conv3_2_1x1_reduce -> conv3_2_1x1_reduce
I0729 23:11:48.508765 10431 net.cpp:150] Setting up conv3_2_1x1_reduce
I0729 23:11:48.508781 10431 net.cpp:157] Top shape: 9 128 41 41 (1936512)
I0729 23:11:48.508788 10431 net.cpp:165] Memory required for data: 2605718232
I0729 23:11:48.508797 10431 layer_factory.hpp:77] Creating layer conv3_2_1x1_reduce/bn
I0729 23:11:48.508812 10431 net.cpp:106] Creating Layer conv3_2_1x1_reduce/bn
I0729 23:11:48.508821 10431 net.cpp:454] conv3_2_1x1_reduce/bn <- conv3_2_1x1_reduce
I0729 23:11:48.508837 10431 net.cpp:397] conv3_2_1x1_reduce/bn -> conv3_2_1x1_reduce (in-place)
I0729 23:11:48.509060 10431 net.cpp:150] Setting up conv3_2_1x1_reduce/bn
I0729 23:11:48.509071 10431 net.cpp:157] Top shape: 9 128 41 41 (1936512)
I0729 23:11:48.509078 10431 net.cpp:165] Memory required for data: 2613464280
I0729 23:11:48.509093 10431 layer_factory.hpp:77] Creating layer conv3_2_1x1_reduce/relu
I0729 23:11:48.509105 10431 net.cpp:106] Creating Layer conv3_2_1x1_reduce/relu
I0729 23:11:48.509114 10431 net.cpp:454] conv3_2_1x1_reduce/relu <- conv3_2_1x1_reduce
I0729 23:11:48.509124 10431 net.cpp:397] conv3_2_1x1_reduce/relu -> conv3_2_1x1_reduce (in-place)
I0729 23:11:48.509137 10431 net.cpp:150] Setting up conv3_2_1x1_reduce/relu
I0729 23:11:48.509147 10431 net.cpp:157] Top shape: 9 128 41 41 (1936512)
I0729 23:11:48.509155 10431 net.cpp:165] Memory required for data: 2621210328
I0729 23:11:48.509162 10431 layer_factory.hpp:77] Creating layer conv3_2_3x3
I0729 23:11:48.509178 10431 net.cpp:106] Creating Layer conv3_2_3x3
I0729 23:11:48.509186 10431 net.cpp:454] conv3_2_3x3 <- conv3_2_1x1_reduce
I0729 23:11:48.509201 10431 net.cpp:411] conv3_2_3x3 -> conv3_2_3x3
I0729 23:11:48.514205 10431 net.cpp:150] Setting up conv3_2_3x3
I0729 23:11:48.514222 10431 net.cpp:157] Top shape: 9 128 41 41 (1936512)
I0729 23:11:48.514228 10431 net.cpp:165] Memory required for data: 2628956376
I0729 23:11:48.514241 10431 layer_factory.hpp:77] Creating layer conv3_2_3x3/bn
I0729 23:11:48.514271 10431 net.cpp:106] Creating Layer conv3_2_3x3/bn
I0729 23:11:48.514283 10431 net.cpp:454] conv3_2_3x3/bn <- conv3_2_3x3
I0729 23:11:48.514297 10431 net.cpp:397] conv3_2_3x3/bn -> conv3_2_3x3 (in-place)
I0729 23:11:48.514549 10431 net.cpp:150] Setting up conv3_2_3x3/bn
I0729 23:11:48.514559 10431 net.cpp:157] Top shape: 9 128 41 41 (1936512)
I0729 23:11:48.514567 10431 net.cpp:165] Memory required for data: 2636702424
I0729 23:11:48.514582 10431 layer_factory.hpp:77] Creating layer conv3_2_3x3/relu
I0729 23:11:48.514595 10431 net.cpp:106] Creating Layer conv3_2_3x3/relu
I0729 23:11:48.514605 10431 net.cpp:454] conv3_2_3x3/relu <- conv3_2_3x3
I0729 23:11:48.514614 10431 net.cpp:397] conv3_2_3x3/relu -> conv3_2_3x3 (in-place)
I0729 23:11:48.514627 10431 net.cpp:150] Setting up conv3_2_3x3/relu
I0729 23:11:48.514637 10431 net.cpp:157] Top shape: 9 128 41 41 (1936512)
I0729 23:11:48.514645 10431 net.cpp:165] Memory required for data: 2644448472
I0729 23:11:48.514652 10431 layer_factory.hpp:77] Creating layer conv3_2_1x1_increase
I0729 23:11:48.514672 10431 net.cpp:106] Creating Layer conv3_2_1x1_increase
I0729 23:11:48.514680 10431 net.cpp:454] conv3_2_1x1_increase <- conv3_2_3x3
I0729 23:11:48.514691 10431 net.cpp:411] conv3_2_1x1_increase -> conv3_2_1x1_increase
I0729 23:11:48.516713 10431 net.cpp:150] Setting up conv3_2_1x1_increase
I0729 23:11:48.516724 10431 net.cpp:157] Top shape: 9 512 41 41 (7746048)
I0729 23:11:48.516731 10431 net.cpp:165] Memory required for data: 2675432664
I0729 23:11:48.516739 10431 layer_factory.hpp:77] Creating layer conv3_2_1x1_increase/bn
I0729 23:11:48.516753 10431 net.cpp:106] Creating Layer conv3_2_1x1_increase/bn
I0729 23:11:48.516762 10431 net.cpp:454] conv3_2_1x1_increase/bn <- conv3_2_1x1_increase
I0729 23:11:48.516774 10431 net.cpp:397] conv3_2_1x1_increase/bn -> conv3_2_1x1_increase (in-place)
I0729 23:11:48.516989 10431 net.cpp:150] Setting up conv3_2_1x1_increase/bn
I0729 23:11:48.516999 10431 net.cpp:157] Top shape: 9 512 41 41 (7746048)
I0729 23:11:48.517012 10431 net.cpp:165] Memory required for data: 2706416856
I0729 23:11:48.517029 10431 layer_factory.hpp:77] Creating layer conv3_2
I0729 23:11:48.517046 10431 net.cpp:106] Creating Layer conv3_2
I0729 23:11:48.517055 10431 net.cpp:454] conv3_2 <- conv3_1_conv3_1/relu_0_split_1
I0729 23:11:48.517066 10431 net.cpp:454] conv3_2 <- conv3_2_1x1_increase
I0729 23:11:48.517081 10431 net.cpp:411] conv3_2 -> conv3_2
I0729 23:11:48.517122 10431 net.cpp:150] Setting up conv3_2
I0729 23:11:48.517132 10431 net.cpp:157] Top shape: 9 512 41 41 (7746048)
I0729 23:11:48.517137 10431 net.cpp:165] Memory required for data: 2737401048
I0729 23:11:48.517143 10431 layer_factory.hpp:77] Creating layer conv3_2/relu
I0729 23:11:48.517154 10431 net.cpp:106] Creating Layer conv3_2/relu
I0729 23:11:48.517163 10431 net.cpp:454] conv3_2/relu <- conv3_2
I0729 23:11:48.517173 10431 net.cpp:397] conv3_2/relu -> conv3_2 (in-place)
I0729 23:11:48.517184 10431 net.cpp:150] Setting up conv3_2/relu
I0729 23:11:48.517195 10431 net.cpp:157] Top shape: 9 512 41 41 (7746048)
I0729 23:11:48.517202 10431 net.cpp:165] Memory required for data: 2768385240
I0729 23:11:48.517210 10431 layer_factory.hpp:77] Creating layer conv3_2_conv3_2/relu_0_split
I0729 23:11:48.517220 10431 net.cpp:106] Creating Layer conv3_2_conv3_2/relu_0_split
I0729 23:11:48.517228 10431 net.cpp:454] conv3_2_conv3_2/relu_0_split <- conv3_2
I0729 23:11:48.517241 10431 net.cpp:411] conv3_2_conv3_2/relu_0_split -> conv3_2_conv3_2/relu_0_split_0
I0729 23:11:48.517256 10431 net.cpp:411] conv3_2_conv3_2/relu_0_split -> conv3_2_conv3_2/relu_0_split_1
I0729 23:11:48.517304 10431 net.cpp:150] Setting up conv3_2_conv3_2/relu_0_split
I0729 23:11:48.517313 10431 net.cpp:157] Top shape: 9 512 41 41 (7746048)
I0729 23:11:48.517321 10431 net.cpp:157] Top shape: 9 512 41 41 (7746048)
I0729 23:11:48.517328 10431 net.cpp:165] Memory required for data: 2830353624
I0729 23:11:48.517334 10431 layer_factory.hpp:77] Creating layer conv3_3_1x1_reduce
I0729 23:11:48.517355 10431 net.cpp:106] Creating Layer conv3_3_1x1_reduce
I0729 23:11:48.517364 10431 net.cpp:454] conv3_3_1x1_reduce <- conv3_2_conv3_2/relu_0_split_0
I0729 23:11:48.517374 10431 net.cpp:411] conv3_3_1x1_reduce -> conv3_3_1x1_reduce
I0729 23:11:48.520236 10431 net.cpp:150] Setting up conv3_3_1x1_reduce
I0729 23:11:48.520252 10431 net.cpp:157] Top shape: 9 128 41 41 (1936512)
I0729 23:11:48.520258 10431 net.cpp:165] Memory required for data: 2838099672
I0729 23:11:48.520268 10431 layer_factory.hpp:77] Creating layer conv3_3_1x1_reduce/bn
I0729 23:11:48.520283 10431 net.cpp:106] Creating Layer conv3_3_1x1_reduce/bn
I0729 23:11:48.520293 10431 net.cpp:454] conv3_3_1x1_reduce/bn <- conv3_3_1x1_reduce
I0729 23:11:48.520305 10431 net.cpp:397] conv3_3_1x1_reduce/bn -> conv3_3_1x1_reduce (in-place)
I0729 23:11:48.520541 10431 net.cpp:150] Setting up conv3_3_1x1_reduce/bn
I0729 23:11:48.520553 10431 net.cpp:157] Top shape: 9 128 41 41 (1936512)
I0729 23:11:48.520560 10431 net.cpp:165] Memory required for data: 2845845720
I0729 23:11:48.520576 10431 layer_factory.hpp:77] Creating layer conv3_3_1x1_reduce/relu
I0729 23:11:48.520588 10431 net.cpp:106] Creating Layer conv3_3_1x1_reduce/relu
I0729 23:11:48.520597 10431 net.cpp:454] conv3_3_1x1_reduce/relu <- conv3_3_1x1_reduce
I0729 23:11:48.520612 10431 net.cpp:397] conv3_3_1x1_reduce/relu -> conv3_3_1x1_reduce (in-place)
I0729 23:11:48.520627 10431 net.cpp:150] Setting up conv3_3_1x1_reduce/relu
I0729 23:11:48.520637 10431 net.cpp:157] Top shape: 9 128 41 41 (1936512)
I0729 23:11:48.520644 10431 net.cpp:165] Memory required for data: 2853591768
I0729 23:11:48.520673 10431 layer_factory.hpp:77] Creating layer conv3_3_3x3
I0729 23:11:48.520696 10431 net.cpp:106] Creating Layer conv3_3_3x3
I0729 23:11:48.520714 10431 net.cpp:454] conv3_3_3x3 <- conv3_3_1x1_reduce
I0729 23:11:48.520727 10431 net.cpp:411] conv3_3_3x3 -> conv3_3_3x3
I0729 23:11:48.525748 10431 net.cpp:150] Setting up conv3_3_3x3
I0729 23:11:48.525764 10431 net.cpp:157] Top shape: 9 128 41 41 (1936512)
I0729 23:11:48.525779 10431 net.cpp:165] Memory required for data: 2861337816
I0729 23:11:48.525792 10431 layer_factory.hpp:77] Creating layer conv3_3_3x3/bn
I0729 23:11:48.525811 10431 net.cpp:106] Creating Layer conv3_3_3x3/bn
I0729 23:11:48.525821 10431 net.cpp:454] conv3_3_3x3/bn <- conv3_3_3x3
I0729 23:11:48.525835 10431 net.cpp:397] conv3_3_3x3/bn -> conv3_3_3x3 (in-place)
I0729 23:11:48.526070 10431 net.cpp:150] Setting up conv3_3_3x3/bn
I0729 23:11:48.526082 10431 net.cpp:157] Top shape: 9 128 41 41 (1936512)
I0729 23:11:48.526090 10431 net.cpp:165] Memory required for data: 2869083864
I0729 23:11:48.526105 10431 layer_factory.hpp:77] Creating layer conv3_3_3x3/relu
I0729 23:11:48.526118 10431 net.cpp:106] Creating Layer conv3_3_3x3/relu
I0729 23:11:48.526126 10431 net.cpp:454] conv3_3_3x3/relu <- conv3_3_3x3
I0729 23:11:48.526137 10431 net.cpp:397] conv3_3_3x3/relu -> conv3_3_3x3 (in-place)
I0729 23:11:48.526150 10431 net.cpp:150] Setting up conv3_3_3x3/relu
I0729 23:11:48.526161 10431 net.cpp:157] Top shape: 9 128 41 41 (1936512)
I0729 23:11:48.526170 10431 net.cpp:165] Memory required for data: 2876829912
I0729 23:11:48.526175 10431 layer_factory.hpp:77] Creating layer conv3_3_1x1_increase
I0729 23:11:48.526196 10431 net.cpp:106] Creating Layer conv3_3_1x1_increase
I0729 23:11:48.526206 10431 net.cpp:454] conv3_3_1x1_increase <- conv3_3_3x3
I0729 23:11:48.526218 10431 net.cpp:411] conv3_3_1x1_increase -> conv3_3_1x1_increase
I0729 23:11:48.528234 10431 net.cpp:150] Setting up conv3_3_1x1_increase
I0729 23:11:48.528244 10431 net.cpp:157] Top shape: 9 512 41 41 (7746048)
I0729 23:11:48.528250 10431 net.cpp:165] Memory required for data: 2907814104
I0729 23:11:48.528259 10431 layer_factory.hpp:77] Creating layer conv3_3_1x1_increase/bn
I0729 23:11:48.528273 10431 net.cpp:106] Creating Layer conv3_3_1x1_increase/bn
I0729 23:11:48.528283 10431 net.cpp:454] conv3_3_1x1_increase/bn <- conv3_3_1x1_increase
I0729 23:11:48.528298 10431 net.cpp:397] conv3_3_1x1_increase/bn -> conv3_3_1x1_increase (in-place)
I0729 23:11:48.528517 10431 net.cpp:150] Setting up conv3_3_1x1_increase/bn
I0729 23:11:48.528527 10431 net.cpp:157] Top shape: 9 512 41 41 (7746048)
I0729 23:11:48.528533 10431 net.cpp:165] Memory required for data: 2938798296
I0729 23:11:48.528549 10431 layer_factory.hpp:77] Creating layer conv3_3
I0729 23:11:48.528566 10431 net.cpp:106] Creating Layer conv3_3
I0729 23:11:48.528576 10431 net.cpp:454] conv3_3 <- conv3_2_conv3_2/relu_0_split_1
I0729 23:11:48.528585 10431 net.cpp:454] conv3_3 <- conv3_3_1x1_increase
I0729 23:11:48.528601 10431 net.cpp:411] conv3_3 -> conv3_3
I0729 23:11:48.528642 10431 net.cpp:150] Setting up conv3_3
I0729 23:11:48.528651 10431 net.cpp:157] Top shape: 9 512 41 41 (7746048)
I0729 23:11:48.528657 10431 net.cpp:165] Memory required for data: 2969782488
I0729 23:11:48.528663 10431 layer_factory.hpp:77] Creating layer conv3_3/relu
I0729 23:11:48.528674 10431 net.cpp:106] Creating Layer conv3_3/relu
I0729 23:11:48.528682 10431 net.cpp:454] conv3_3/relu <- conv3_3
I0729 23:11:48.528697 10431 net.cpp:397] conv3_3/relu -> conv3_3 (in-place)
I0729 23:11:48.528709 10431 net.cpp:150] Setting up conv3_3/relu
I0729 23:11:48.528720 10431 net.cpp:157] Top shape: 9 512 41 41 (7746048)
I0729 23:11:48.528728 10431 net.cpp:165] Memory required for data: 3000766680
I0729 23:11:48.528736 10431 layer_factory.hpp:77] Creating layer conv3_3_conv3_3/relu_0_split
I0729 23:11:48.528746 10431 net.cpp:106] Creating Layer conv3_3_conv3_3/relu_0_split
I0729 23:11:48.528754 10431 net.cpp:454] conv3_3_conv3_3/relu_0_split <- conv3_3
I0729 23:11:48.528769 10431 net.cpp:411] conv3_3_conv3_3/relu_0_split -> conv3_3_conv3_3/relu_0_split_0
I0729 23:11:48.528782 10431 net.cpp:411] conv3_3_conv3_3/relu_0_split -> conv3_3_conv3_3/relu_0_split_1
I0729 23:11:48.528831 10431 net.cpp:150] Setting up conv3_3_conv3_3/relu_0_split
I0729 23:11:48.528839 10431 net.cpp:157] Top shape: 9 512 41 41 (7746048)
I0729 23:11:48.528851 10431 net.cpp:157] Top shape: 9 512 41 41 (7746048)
I0729 23:11:48.528857 10431 net.cpp:165] Memory required for data: 3062735064
I0729 23:11:48.528872 10431 layer_factory.hpp:77] Creating layer conv3_4_1x1_reduce
I0729 23:11:48.528889 10431 net.cpp:106] Creating Layer conv3_4_1x1_reduce
I0729 23:11:48.528899 10431 net.cpp:454] conv3_4_1x1_reduce <- conv3_3_conv3_3/relu_0_split_0
I0729 23:11:48.528916 10431 net.cpp:411] conv3_4_1x1_reduce -> conv3_4_1x1_reduce
I0729 23:11:48.530971 10431 net.cpp:150] Setting up conv3_4_1x1_reduce
I0729 23:11:48.530983 10431 net.cpp:157] Top shape: 9 128 41 41 (1936512)
I0729 23:11:48.530989 10431 net.cpp:165] Memory required for data: 3070481112
I0729 23:11:48.531000 10431 layer_factory.hpp:77] Creating layer conv3_4_1x1_reduce/bn
I0729 23:11:48.531018 10431 net.cpp:106] Creating Layer conv3_4_1x1_reduce/bn
I0729 23:11:48.531028 10431 net.cpp:454] conv3_4_1x1_reduce/bn <- conv3_4_1x1_reduce
I0729 23:11:48.531049 10431 net.cpp:397] conv3_4_1x1_reduce/bn -> conv3_4_1x1_reduce (in-place)
I0729 23:11:48.531267 10431 net.cpp:150] Setting up conv3_4_1x1_reduce/bn
I0729 23:11:48.531277 10431 net.cpp:157] Top shape: 9 128 41 41 (1936512)
I0729 23:11:48.531285 10431 net.cpp:165] Memory required for data: 3078227160
I0729 23:11:48.531299 10431 layer_factory.hpp:77] Creating layer conv3_4_1x1_reduce/relu
I0729 23:11:48.531311 10431 net.cpp:106] Creating Layer conv3_4_1x1_reduce/relu
I0729 23:11:48.531321 10431 net.cpp:454] conv3_4_1x1_reduce/relu <- conv3_4_1x1_reduce
I0729 23:11:48.531330 10431 net.cpp:397] conv3_4_1x1_reduce/relu -> conv3_4_1x1_reduce (in-place)
I0729 23:11:48.531343 10431 net.cpp:150] Setting up conv3_4_1x1_reduce/relu
I0729 23:11:48.531353 10431 net.cpp:157] Top shape: 9 128 41 41 (1936512)
I0729 23:11:48.531361 10431 net.cpp:165] Memory required for data: 3085973208
I0729 23:11:48.531370 10431 layer_factory.hpp:77] Creating layer conv3_4_3x3
I0729 23:11:48.531389 10431 net.cpp:106] Creating Layer conv3_4_3x3
I0729 23:11:48.531399 10431 net.cpp:454] conv3_4_3x3 <- conv3_4_1x1_reduce
I0729 23:11:48.531411 10431 net.cpp:411] conv3_4_3x3 -> conv3_4_3x3
I0729 23:11:48.536391 10431 net.cpp:150] Setting up conv3_4_3x3
I0729 23:11:48.536407 10431 net.cpp:157] Top shape: 9 128 41 41 (1936512)
I0729 23:11:48.536417 10431 net.cpp:165] Memory required for data: 3093719256
I0729 23:11:48.536427 10431 layer_factory.hpp:77] Creating layer conv3_4_3x3/bn
I0729 23:11:48.536448 10431 net.cpp:106] Creating Layer conv3_4_3x3/bn
I0729 23:11:48.536458 10431 net.cpp:454] conv3_4_3x3/bn <- conv3_4_3x3
I0729 23:11:48.536473 10431 net.cpp:397] conv3_4_3x3/bn -> conv3_4_3x3 (in-place)
I0729 23:11:48.536702 10431 net.cpp:150] Setting up conv3_4_3x3/bn
I0729 23:11:48.536713 10431 net.cpp:157] Top shape: 9 128 41 41 (1936512)
I0729 23:11:48.536722 10431 net.cpp:165] Memory required for data: 3101465304
I0729 23:11:48.536736 10431 layer_factory.hpp:77] Creating layer conv3_4_3x3/relu
I0729 23:11:48.536748 10431 net.cpp:106] Creating Layer conv3_4_3x3/relu
I0729 23:11:48.536757 10431 net.cpp:454] conv3_4_3x3/relu <- conv3_4_3x3
I0729 23:11:48.536768 10431 net.cpp:397] conv3_4_3x3/relu -> conv3_4_3x3 (in-place)
I0729 23:11:48.536782 10431 net.cpp:150] Setting up conv3_4_3x3/relu
I0729 23:11:48.536792 10431 net.cpp:157] Top shape: 9 128 41 41 (1936512)
I0729 23:11:48.536800 10431 net.cpp:165] Memory required for data: 3109211352
I0729 23:11:48.536806 10431 layer_factory.hpp:77] Creating layer conv3_4_1x1_increase
I0729 23:11:48.536823 10431 net.cpp:106] Creating Layer conv3_4_1x1_increase
I0729 23:11:48.536833 10431 net.cpp:454] conv3_4_1x1_increase <- conv3_4_3x3
I0729 23:11:48.536844 10431 net.cpp:411] conv3_4_1x1_increase -> conv3_4_1x1_increase
I0729 23:11:48.538884 10431 net.cpp:150] Setting up conv3_4_1x1_increase
I0729 23:11:48.538897 10431 net.cpp:157] Top shape: 9 512 41 41 (7746048)
I0729 23:11:48.538904 10431 net.cpp:165] Memory required for data: 3140195544
I0729 23:11:48.538913 10431 layer_factory.hpp:77] Creating layer conv3_4_1x1_increase/bn
I0729 23:11:48.538930 10431 net.cpp:106] Creating Layer conv3_4_1x1_increase/bn
I0729 23:11:48.538940 10431 net.cpp:454] conv3_4_1x1_increase/bn <- conv3_4_1x1_increase
I0729 23:11:48.538961 10431 net.cpp:397] conv3_4_1x1_increase/bn -> conv3_4_1x1_increase (in-place)
I0729 23:11:48.539194 10431 net.cpp:150] Setting up conv3_4_1x1_increase/bn
I0729 23:11:48.539206 10431 net.cpp:157] Top shape: 9 512 41 41 (7746048)
I0729 23:11:48.539212 10431 net.cpp:165] Memory required for data: 3171179736
I0729 23:11:48.539255 10431 layer_factory.hpp:77] Creating layer conv3_4
I0729 23:11:48.539269 10431 net.cpp:106] Creating Layer conv3_4
I0729 23:11:48.539278 10431 net.cpp:454] conv3_4 <- conv3_3_conv3_3/relu_0_split_1
I0729 23:11:48.539288 10431 net.cpp:454] conv3_4 <- conv3_4_1x1_increase
I0729 23:11:48.539299 10431 net.cpp:411] conv3_4 -> conv3_4
I0729 23:11:48.539338 10431 net.cpp:150] Setting up conv3_4
I0729 23:11:48.539347 10431 net.cpp:157] Top shape: 9 512 41 41 (7746048)
I0729 23:11:48.539353 10431 net.cpp:165] Memory required for data: 3202163928
I0729 23:11:48.539360 10431 layer_factory.hpp:77] Creating layer conv3_4/relu
I0729 23:11:48.539371 10431 net.cpp:106] Creating Layer conv3_4/relu
I0729 23:11:48.539378 10431 net.cpp:454] conv3_4/relu <- conv3_4
I0729 23:11:48.539391 10431 net.cpp:397] conv3_4/relu -> conv3_4 (in-place)
I0729 23:11:48.539404 10431 net.cpp:150] Setting up conv3_4/relu
I0729 23:11:48.539415 10431 net.cpp:157] Top shape: 9 512 41 41 (7746048)
I0729 23:11:48.539422 10431 net.cpp:165] Memory required for data: 3233148120
I0729 23:11:48.539430 10431 layer_factory.hpp:77] Creating layer conv3_4_conv3_4/relu_0_split
I0729 23:11:48.539443 10431 net.cpp:106] Creating Layer conv3_4_conv3_4/relu_0_split
I0729 23:11:48.539450 10431 net.cpp:454] conv3_4_conv3_4/relu_0_split <- conv3_4
I0729 23:11:48.539460 10431 net.cpp:411] conv3_4_conv3_4/relu_0_split -> conv3_4_conv3_4/relu_0_split_0
I0729 23:11:48.539474 10431 net.cpp:411] conv3_4_conv3_4/relu_0_split -> conv3_4_conv3_4/relu_0_split_1
I0729 23:11:48.539525 10431 net.cpp:150] Setting up conv3_4_conv3_4/relu_0_split
I0729 23:11:48.539533 10431 net.cpp:157] Top shape: 9 512 41 41 (7746048)
I0729 23:11:48.539541 10431 net.cpp:157] Top shape: 9 512 41 41 (7746048)
I0729 23:11:48.539547 10431 net.cpp:165] Memory required for data: 3295116504
I0729 23:11:48.539554 10431 layer_factory.hpp:77] Creating layer conv4_1_1x1_reduce
I0729 23:11:48.539590 10431 net.cpp:106] Creating Layer conv4_1_1x1_reduce
I0729 23:11:48.539599 10431 net.cpp:454] conv4_1_1x1_reduce <- conv3_4_conv3_4/relu_0_split_0
I0729 23:11:48.539614 10431 net.cpp:411] conv4_1_1x1_reduce -> conv4_1_1x1_reduce
I0729 23:11:48.543472 10431 net.cpp:150] Setting up conv4_1_1x1_reduce
I0729 23:11:48.543483 10431 net.cpp:157] Top shape: 9 256 41 41 (3873024)
I0729 23:11:48.543489 10431 net.cpp:165] Memory required for data: 3310608600
I0729 23:11:48.543498 10431 layer_factory.hpp:77] Creating layer conv4_1_1x1_reduce/bn
I0729 23:11:48.543512 10431 net.cpp:106] Creating Layer conv4_1_1x1_reduce/bn
I0729 23:11:48.543520 10431 net.cpp:454] conv4_1_1x1_reduce/bn <- conv4_1_1x1_reduce
I0729 23:11:48.543532 10431 net.cpp:397] conv4_1_1x1_reduce/bn -> conv4_1_1x1_reduce (in-place)
I0729 23:11:48.543783 10431 net.cpp:150] Setting up conv4_1_1x1_reduce/bn
I0729 23:11:48.543792 10431 net.cpp:157] Top shape: 9 256 41 41 (3873024)
I0729 23:11:48.543798 10431 net.cpp:165] Memory required for data: 3326100696
I0729 23:11:48.543812 10431 layer_factory.hpp:77] Creating layer conv4_1_1x1_reduce/relu
I0729 23:11:48.543824 10431 net.cpp:106] Creating Layer conv4_1_1x1_reduce/relu
I0729 23:11:48.543833 10431 net.cpp:454] conv4_1_1x1_reduce/relu <- conv4_1_1x1_reduce
I0729 23:11:48.543845 10431 net.cpp:397] conv4_1_1x1_reduce/relu -> conv4_1_1x1_reduce (in-place)
I0729 23:11:48.543859 10431 net.cpp:150] Setting up conv4_1_1x1_reduce/relu
I0729 23:11:48.543870 10431 net.cpp:157] Top shape: 9 256 41 41 (3873024)
I0729 23:11:48.543876 10431 net.cpp:165] Memory required for data: 3341592792
I0729 23:11:48.543884 10431 layer_factory.hpp:77] Creating layer conv4_1_3x3
I0729 23:11:48.543905 10431 net.cpp:106] Creating Layer conv4_1_3x3
I0729 23:11:48.543913 10431 net.cpp:454] conv4_1_3x3 <- conv4_1_1x1_reduce
I0729 23:11:48.543933 10431 net.cpp:411] conv4_1_3x3 -> conv4_1_3x3
I0729 23:11:48.562947 10431 net.cpp:150] Setting up conv4_1_3x3
I0729 23:11:48.562965 10431 net.cpp:157] Top shape: 9 256 41 41 (3873024)
I0729 23:11:48.562971 10431 net.cpp:165] Memory required for data: 3357084888
I0729 23:11:48.562981 10431 layer_factory.hpp:77] Creating layer conv4_1_3x3/bn
I0729 23:11:48.562999 10431 net.cpp:106] Creating Layer conv4_1_3x3/bn
I0729 23:11:48.563009 10431 net.cpp:454] conv4_1_3x3/bn <- conv4_1_3x3
I0729 23:11:48.563024 10431 net.cpp:397] conv4_1_3x3/bn -> conv4_1_3x3 (in-place)
I0729 23:11:48.563256 10431 net.cpp:150] Setting up conv4_1_3x3/bn
I0729 23:11:48.563266 10431 net.cpp:157] Top shape: 9 256 41 41 (3873024)
I0729 23:11:48.563272 10431 net.cpp:165] Memory required for data: 3372576984
I0729 23:11:48.563290 10431 layer_factory.hpp:77] Creating layer conv4_1_3x3/relu
I0729 23:11:48.563303 10431 net.cpp:106] Creating Layer conv4_1_3x3/relu
I0729 23:11:48.563313 10431 net.cpp:454] conv4_1_3x3/relu <- conv4_1_3x3
I0729 23:11:48.563323 10431 net.cpp:397] conv4_1_3x3/relu -> conv4_1_3x3 (in-place)
I0729 23:11:48.563333 10431 net.cpp:150] Setting up conv4_1_3x3/relu
I0729 23:11:48.563344 10431 net.cpp:157] Top shape: 9 256 41 41 (3873024)
I0729 23:11:48.563350 10431 net.cpp:165] Memory required for data: 3388069080
I0729 23:11:48.563357 10431 layer_factory.hpp:77] Creating layer conv4_1_1x1_increase
I0729 23:11:48.563376 10431 net.cpp:106] Creating Layer conv4_1_1x1_increase
I0729 23:11:48.563385 10431 net.cpp:454] conv4_1_1x1_increase <- conv4_1_3x3
I0729 23:11:48.563400 10431 net.cpp:411] conv4_1_1x1_increase -> conv4_1_1x1_increase
I0729 23:11:48.571539 10431 net.cpp:150] Setting up conv4_1_1x1_increase
I0729 23:11:48.571555 10431 net.cpp:157] Top shape: 9 1024 41 41 (15492096)
I0729 23:11:48.571562 10431 net.cpp:165] Memory required for data: 3450037464
I0729 23:11:48.571573 10431 layer_factory.hpp:77] Creating layer conv4_1_1x1_increase/bn
I0729 23:11:48.571593 10431 net.cpp:106] Creating Layer conv4_1_1x1_increase/bn
I0729 23:11:48.571602 10431 net.cpp:454] conv4_1_1x1_increase/bn <- conv4_1_1x1_increase
I0729 23:11:48.571614 10431 net.cpp:397] conv4_1_1x1_increase/bn -> conv4_1_1x1_increase (in-place)
I0729 23:11:48.571849 10431 net.cpp:150] Setting up conv4_1_1x1_increase/bn
I0729 23:11:48.571859 10431 net.cpp:157] Top shape: 9 1024 41 41 (15492096)
I0729 23:11:48.571866 10431 net.cpp:165] Memory required for data: 3512005848
I0729 23:11:48.571882 10431 layer_factory.hpp:77] Creating layer conv4_1_1x1_proj
I0729 23:11:48.571900 10431 net.cpp:106] Creating Layer conv4_1_1x1_proj
I0729 23:11:48.571910 10431 net.cpp:454] conv4_1_1x1_proj <- conv3_4_conv3_4/relu_0_split_1
I0729 23:11:48.571923 10431 net.cpp:411] conv4_1_1x1_proj -> conv4_1_1x1_proj
I0729 23:11:48.587908 10431 net.cpp:150] Setting up conv4_1_1x1_proj
I0729 23:11:48.587927 10431 net.cpp:157] Top shape: 9 1024 41 41 (15492096)
I0729 23:11:48.587932 10431 net.cpp:165] Memory required for data: 3573974232
I0729 23:11:48.587941 10431 layer_factory.hpp:77] Creating layer conv4_1_1x1_proj/bn
I0729 23:11:48.587960 10431 net.cpp:106] Creating Layer conv4_1_1x1_proj/bn
I0729 23:11:48.587971 10431 net.cpp:454] conv4_1_1x1_proj/bn <- conv4_1_1x1_proj
I0729 23:11:48.587985 10431 net.cpp:397] conv4_1_1x1_proj/bn -> conv4_1_1x1_proj (in-place)
I0729 23:11:48.588232 10431 net.cpp:150] Setting up conv4_1_1x1_proj/bn
I0729 23:11:48.588243 10431 net.cpp:157] Top shape: 9 1024 41 41 (15492096)
I0729 23:11:48.588253 10431 net.cpp:165] Memory required for data: 3635942616
I0729 23:11:48.588268 10431 layer_factory.hpp:77] Creating layer conv4_1
I0729 23:11:48.588282 10431 net.cpp:106] Creating Layer conv4_1
I0729 23:11:48.588290 10431 net.cpp:454] conv4_1 <- conv4_1_1x1_proj
I0729 23:11:48.588299 10431 net.cpp:454] conv4_1 <- conv4_1_1x1_increase
I0729 23:11:48.588309 10431 net.cpp:411] conv4_1 -> conv4_1
I0729 23:11:48.588351 10431 net.cpp:150] Setting up conv4_1
I0729 23:11:48.588359 10431 net.cpp:157] Top shape: 9 1024 41 41 (15492096)
I0729 23:11:48.588374 10431 net.cpp:165] Memory required for data: 3697911000
I0729 23:11:48.588383 10431 layer_factory.hpp:77] Creating layer conv4_1/relu
I0729 23:11:48.588397 10431 net.cpp:106] Creating Layer conv4_1/relu
I0729 23:11:48.588407 10431 net.cpp:454] conv4_1/relu <- conv4_1
I0729 23:11:48.588415 10431 net.cpp:397] conv4_1/relu -> conv4_1 (in-place)
I0729 23:11:48.588428 10431 net.cpp:150] Setting up conv4_1/relu
I0729 23:11:48.588438 10431 net.cpp:157] Top shape: 9 1024 41 41 (15492096)
I0729 23:11:48.588446 10431 net.cpp:165] Memory required for data: 3759879384
I0729 23:11:48.588454 10431 layer_factory.hpp:77] Creating layer conv4_1_conv4_1/relu_0_split
I0729 23:11:48.588462 10431 net.cpp:106] Creating Layer conv4_1_conv4_1/relu_0_split
I0729 23:11:48.588470 10431 net.cpp:454] conv4_1_conv4_1/relu_0_split <- conv4_1
I0729 23:11:48.588484 10431 net.cpp:411] conv4_1_conv4_1/relu_0_split -> conv4_1_conv4_1/relu_0_split_0
I0729 23:11:48.588497 10431 net.cpp:411] conv4_1_conv4_1/relu_0_split -> conv4_1_conv4_1/relu_0_split_1
I0729 23:11:48.588548 10431 net.cpp:150] Setting up conv4_1_conv4_1/relu_0_split
I0729 23:11:48.588557 10431 net.cpp:157] Top shape: 9 1024 41 41 (15492096)
I0729 23:11:48.588565 10431 net.cpp:157] Top shape: 9 1024 41 41 (15492096)
I0729 23:11:48.588572 10431 net.cpp:165] Memory required for data: 3883816152
I0729 23:11:48.588579 10431 layer_factory.hpp:77] Creating layer conv4_2_1x1_reduce
I0729 23:11:48.588599 10431 net.cpp:106] Creating Layer conv4_2_1x1_reduce
I0729 23:11:48.588608 10431 net.cpp:454] conv4_2_1x1_reduce <- conv4_1_conv4_1/relu_0_split_0
I0729 23:11:48.588619 10431 net.cpp:411] conv4_2_1x1_reduce -> conv4_2_1x1_reduce
I0729 23:11:48.596784 10431 net.cpp:150] Setting up conv4_2_1x1_reduce
I0729 23:11:48.596801 10431 net.cpp:157] Top shape: 9 256 41 41 (3873024)
I0729 23:11:48.596806 10431 net.cpp:165] Memory required for data: 3899308248
I0729 23:11:48.596815 10431 layer_factory.hpp:77] Creating layer conv4_2_1x1_reduce/bn
I0729 23:11:48.596832 10431 net.cpp:106] Creating Layer conv4_2_1x1_reduce/bn
I0729 23:11:48.596842 10431 net.cpp:454] conv4_2_1x1_reduce/bn <- conv4_2_1x1_reduce
I0729 23:11:48.596855 10431 net.cpp:397] conv4_2_1x1_reduce/bn -> conv4_2_1x1_reduce (in-place)
I0729 23:11:48.597115 10431 net.cpp:150] Setting up conv4_2_1x1_reduce/bn
I0729 23:11:48.597128 10431 net.cpp:157] Top shape: 9 256 41 41 (3873024)
I0729 23:11:48.597137 10431 net.cpp:165] Memory required for data: 3914800344
I0729 23:11:48.597152 10431 layer_factory.hpp:77] Creating layer conv4_2_1x1_reduce/relu
I0729 23:11:48.597167 10431 net.cpp:106] Creating Layer conv4_2_1x1_reduce/relu
I0729 23:11:48.597175 10431 net.cpp:454] conv4_2_1x1_reduce/relu <- conv4_2_1x1_reduce
I0729 23:11:48.597187 10431 net.cpp:397] conv4_2_1x1_reduce/relu -> conv4_2_1x1_reduce (in-place)
I0729 23:11:48.597199 10431 net.cpp:150] Setting up conv4_2_1x1_reduce/relu
I0729 23:11:48.597210 10431 net.cpp:157] Top shape: 9 256 41 41 (3873024)
I0729 23:11:48.597218 10431 net.cpp:165] Memory required for data: 3930292440
I0729 23:11:48.597224 10431 layer_factory.hpp:77] Creating layer conv4_2_3x3
I0729 23:11:48.597244 10431 net.cpp:106] Creating Layer conv4_2_3x3
I0729 23:11:48.597254 10431 net.cpp:454] conv4_2_3x3 <- conv4_2_1x1_reduce
I0729 23:11:48.597272 10431 net.cpp:411] conv4_2_3x3 -> conv4_2_3x3
I0729 23:11:48.616228 10431 net.cpp:150] Setting up conv4_2_3x3
I0729 23:11:48.616245 10431 net.cpp:157] Top shape: 9 256 41 41 (3873024)
I0729 23:11:48.616251 10431 net.cpp:165] Memory required for data: 3945784536
I0729 23:11:48.616261 10431 layer_factory.hpp:77] Creating layer conv4_2_3x3/bn
I0729 23:11:48.616276 10431 net.cpp:106] Creating Layer conv4_2_3x3/bn
I0729 23:11:48.616286 10431 net.cpp:454] conv4_2_3x3/bn <- conv4_2_3x3
I0729 23:11:48.616302 10431 net.cpp:397] conv4_2_3x3/bn -> conv4_2_3x3 (in-place)
I0729 23:11:48.616535 10431 net.cpp:150] Setting up conv4_2_3x3/bn
I0729 23:11:48.616546 10431 net.cpp:157] Top shape: 9 256 41 41 (3873024)
I0729 23:11:48.616552 10431 net.cpp:165] Memory required for data: 3961276632
I0729 23:11:48.616575 10431 layer_factory.hpp:77] Creating layer conv4_2_3x3/relu
I0729 23:11:48.616588 10431 net.cpp:106] Creating Layer conv4_2_3x3/relu
I0729 23:11:48.616597 10431 net.cpp:454] conv4_2_3x3/relu <- conv4_2_3x3
I0729 23:11:48.616607 10431 net.cpp:397] conv4_2_3x3/relu -> conv4_2_3x3 (in-place)
I0729 23:11:48.616618 10431 net.cpp:150] Setting up conv4_2_3x3/relu
I0729 23:11:48.616629 10431 net.cpp:157] Top shape: 9 256 41 41 (3873024)
I0729 23:11:48.616636 10431 net.cpp:165] Memory required for data: 3976768728
I0729 23:11:48.616642 10431 layer_factory.hpp:77] Creating layer conv4_2_1x1_increase
I0729 23:11:48.616658 10431 net.cpp:106] Creating Layer conv4_2_1x1_increase
I0729 23:11:48.616667 10431 net.cpp:454] conv4_2_1x1_increase <- conv4_2_3x3
I0729 23:11:48.616688 10431 net.cpp:411] conv4_2_1x1_increase -> conv4_2_1x1_increase
I0729 23:11:48.624855 10431 net.cpp:150] Setting up conv4_2_1x1_increase
I0729 23:11:48.624872 10431 net.cpp:157] Top shape: 9 1024 41 41 (15492096)
I0729 23:11:48.624881 10431 net.cpp:165] Memory required for data: 4038737112
I0729 23:11:48.624891 10431 layer_factory.hpp:77] Creating layer conv4_2_1x1_increase/bn
I0729 23:11:48.624905 10431 net.cpp:106] Creating Layer conv4_2_1x1_increase/bn
I0729 23:11:48.624915 10431 net.cpp:454] conv4_2_1x1_increase/bn <- conv4_2_1x1_increase
I0729 23:11:48.624933 10431 net.cpp:397] conv4_2_1x1_increase/bn -> conv4_2_1x1_increase (in-place)
I0729 23:11:48.625171 10431 net.cpp:150] Setting up conv4_2_1x1_increase/bn
I0729 23:11:48.625182 10431 net.cpp:157] Top shape: 9 1024 41 41 (15492096)
I0729 23:11:48.625188 10431 net.cpp:165] Memory required for data: 4100705496
I0729 23:11:48.625205 10431 layer_factory.hpp:77] Creating layer conv4_2
I0729 23:11:48.625217 10431 net.cpp:106] Creating Layer conv4_2
I0729 23:11:48.625227 10431 net.cpp:454] conv4_2 <- conv4_1_conv4_1/relu_0_split_1
I0729 23:11:48.625237 10431 net.cpp:454] conv4_2 <- conv4_2_1x1_increase
I0729 23:11:48.625252 10431 net.cpp:411] conv4_2 -> conv4_2
I0729 23:11:48.625288 10431 net.cpp:150] Setting up conv4_2
I0729 23:11:48.625296 10431 net.cpp:157] Top shape: 9 1024 41 41 (15492096)
I0729 23:11:48.625303 10431 net.cpp:165] Memory required for data: 4162673880
I0729 23:11:48.625308 10431 layer_factory.hpp:77] Creating layer conv4_2/relu
I0729 23:11:48.625319 10431 net.cpp:106] Creating Layer conv4_2/relu
I0729 23:11:48.625327 10431 net.cpp:454] conv4_2/relu <- conv4_2
I0729 23:11:48.625337 10431 net.cpp:397] conv4_2/relu -> conv4_2 (in-place)
I0729 23:11:48.625347 10431 net.cpp:150] Setting up conv4_2/relu
I0729 23:11:48.625358 10431 net.cpp:157] Top shape: 9 1024 41 41 (15492096)
I0729 23:11:48.625365 10431 net.cpp:165] Memory required for data: 4224642264
I0729 23:11:48.625372 10431 layer_factory.hpp:77] Creating layer conv4_2_conv4_2/relu_0_split
I0729 23:11:48.625387 10431 net.cpp:106] Creating Layer conv4_2_conv4_2/relu_0_split
I0729 23:11:48.625396 10431 net.cpp:454] conv4_2_conv4_2/relu_0_split <- conv4_2
I0729 23:11:48.625406 10431 net.cpp:411] conv4_2_conv4_2/relu_0_split -> conv4_2_conv4_2/relu_0_split_0
I0729 23:11:48.625433 10431 net.cpp:411] conv4_2_conv4_2/relu_0_split -> conv4_2_conv4_2/relu_0_split_1
I0729 23:11:48.625483 10431 net.cpp:150] Setting up conv4_2_conv4_2/relu_0_split
I0729 23:11:48.625494 10431 net.cpp:157] Top shape: 9 1024 41 41 (15492096)
I0729 23:11:48.625502 10431 net.cpp:157] Top shape: 9 1024 41 41 (15492096)
I0729 23:11:48.625509 10431 net.cpp:165] Memory required for data: 4348579032
I0729 23:11:48.625517 10431 layer_factory.hpp:77] Creating layer conv4_3_1x1_reduce
I0729 23:11:48.625536 10431 net.cpp:106] Creating Layer conv4_3_1x1_reduce
I0729 23:11:48.625545 10431 net.cpp:454] conv4_3_1x1_reduce <- conv4_2_conv4_2/relu_0_split_0
I0729 23:11:48.625563 10431 net.cpp:411] conv4_3_1x1_reduce -> conv4_3_1x1_reduce
I0729 23:11:48.633726 10431 net.cpp:150] Setting up conv4_3_1x1_reduce
I0729 23:11:48.633743 10431 net.cpp:157] Top shape: 9 256 41 41 (3873024)
I0729 23:11:48.633751 10431 net.cpp:165] Memory required for data: 4364071128
I0729 23:11:48.633770 10431 layer_factory.hpp:77] Creating layer conv4_3_1x1_reduce/bn
I0729 23:11:48.633786 10431 net.cpp:106] Creating Layer conv4_3_1x1_reduce/bn
I0729 23:11:48.633796 10431 net.cpp:454] conv4_3_1x1_reduce/bn <- conv4_3_1x1_reduce
I0729 23:11:48.633813 10431 net.cpp:397] conv4_3_1x1_reduce/bn -> conv4_3_1x1_reduce (in-place)
I0729 23:11:48.634052 10431 net.cpp:150] Setting up conv4_3_1x1_reduce/bn
I0729 23:11:48.634062 10431 net.cpp:157] Top shape: 9 256 41 41 (3873024)
I0729 23:11:48.634069 10431 net.cpp:165] Memory required for data: 4379563224
I0729 23:11:48.634084 10431 layer_factory.hpp:77] Creating layer conv4_3_1x1_reduce/relu
I0729 23:11:48.634096 10431 net.cpp:106] Creating Layer conv4_3_1x1_reduce/relu
I0729 23:11:48.634105 10431 net.cpp:454] conv4_3_1x1_reduce/relu <- conv4_3_1x1_reduce
I0729 23:11:48.634116 10431 net.cpp:397] conv4_3_1x1_reduce/relu -> conv4_3_1x1_reduce (in-place)
I0729 23:11:48.634130 10431 net.cpp:150] Setting up conv4_3_1x1_reduce/relu
I0729 23:11:48.634140 10431 net.cpp:157] Top shape: 9 256 41 41 (3873024)
I0729 23:11:48.634147 10431 net.cpp:165] Memory required for data: 4395055320
I0729 23:11:48.634155 10431 layer_factory.hpp:77] Creating layer conv4_3_3x3
I0729 23:11:48.634169 10431 net.cpp:106] Creating Layer conv4_3_3x3
I0729 23:11:48.634177 10431 net.cpp:454] conv4_3_3x3 <- conv4_3_1x1_reduce
I0729 23:11:48.634193 10431 net.cpp:411] conv4_3_3x3 -> conv4_3_3x3
I0729 23:11:48.652117 10431 net.cpp:150] Setting up conv4_3_3x3
I0729 23:11:48.652132 10431 net.cpp:157] Top shape: 9 256 41 41 (3873024)
I0729 23:11:48.652138 10431 net.cpp:165] Memory required for data: 4410547416
I0729 23:11:48.652148 10431 layer_factory.hpp:77] Creating layer conv4_3_3x3/bn
I0729 23:11:48.652163 10431 net.cpp:106] Creating Layer conv4_3_3x3/bn
I0729 23:11:48.652173 10431 net.cpp:454] conv4_3_3x3/bn <- conv4_3_3x3
I0729 23:11:48.652186 10431 net.cpp:397] conv4_3_3x3/bn -> conv4_3_3x3 (in-place)
I0729 23:11:48.652421 10431 net.cpp:150] Setting up conv4_3_3x3/bn
I0729 23:11:48.652432 10431 net.cpp:157] Top shape: 9 256 41 41 (3873024)
I0729 23:11:48.652438 10431 net.cpp:165] Memory required for data: 4426039512
I0729 23:11:48.652456 10431 layer_factory.hpp:77] Creating layer conv4_3_3x3/relu
I0729 23:11:48.652467 10431 net.cpp:106] Creating Layer conv4_3_3x3/relu
I0729 23:11:48.652477 10431 net.cpp:454] conv4_3_3x3/relu <- conv4_3_3x3
I0729 23:11:48.652492 10431 net.cpp:397] conv4_3_3x3/relu -> conv4_3_3x3 (in-place)
I0729 23:11:48.652505 10431 net.cpp:150] Setting up conv4_3_3x3/relu
I0729 23:11:48.652516 10431 net.cpp:157] Top shape: 9 256 41 41 (3873024)
I0729 23:11:48.652524 10431 net.cpp:165] Memory required for data: 4441531608
I0729 23:11:48.652531 10431 layer_factory.hpp:77] Creating layer conv4_3_1x1_increase
I0729 23:11:48.652549 10431 net.cpp:106] Creating Layer conv4_3_1x1_increase
I0729 23:11:48.652559 10431 net.cpp:454] conv4_3_1x1_increase <- conv4_3_3x3
I0729 23:11:48.652570 10431 net.cpp:411] conv4_3_1x1_increase -> conv4_3_1x1_increase
I0729 23:11:48.660748 10431 net.cpp:150] Setting up conv4_3_1x1_increase
I0729 23:11:48.660765 10431 net.cpp:157] Top shape: 9 1024 41 41 (15492096)
I0729 23:11:48.660770 10431 net.cpp:165] Memory required for data: 4503499992
I0729 23:11:48.660780 10431 layer_factory.hpp:77] Creating layer conv4_3_1x1_increase/bn
I0729 23:11:48.660797 10431 net.cpp:106] Creating Layer conv4_3_1x1_increase/bn
I0729 23:11:48.660807 10431 net.cpp:454] conv4_3_1x1_increase/bn <- conv4_3_1x1_increase
I0729 23:11:48.660821 10431 net.cpp:397] conv4_3_1x1_increase/bn -> conv4_3_1x1_increase (in-place)
I0729 23:11:48.661067 10431 net.cpp:150] Setting up conv4_3_1x1_increase/bn
I0729 23:11:48.661078 10431 net.cpp:157] Top shape: 9 1024 41 41 (15492096)
I0729 23:11:48.661084 10431 net.cpp:165] Memory required for data: 4565468376
I0729 23:11:48.661103 10431 layer_factory.hpp:77] Creating layer conv4_3
I0729 23:11:48.661116 10431 net.cpp:106] Creating Layer conv4_3
I0729 23:11:48.661126 10431 net.cpp:454] conv4_3 <- conv4_2_conv4_2/relu_0_split_1
I0729 23:11:48.661136 10431 net.cpp:454] conv4_3 <- conv4_3_1x1_increase
I0729 23:11:48.661156 10431 net.cpp:411] conv4_3 -> conv4_3
I0729 23:11:48.661201 10431 net.cpp:150] Setting up conv4_3
I0729 23:11:48.661211 10431 net.cpp:157] Top shape: 9 1024 41 41 (15492096)
I0729 23:11:48.661217 10431 net.cpp:165] Memory required for data: 4627436760
I0729 23:11:48.661223 10431 layer_factory.hpp:77] Creating layer conv4_3/relu
I0729 23:11:48.661233 10431 net.cpp:106] Creating Layer conv4_3/relu
I0729 23:11:48.661244 10431 net.cpp:454] conv4_3/relu <- conv4_3
I0729 23:11:48.661254 10431 net.cpp:397] conv4_3/relu -> conv4_3 (in-place)
I0729 23:11:48.661267 10431 net.cpp:150] Setting up conv4_3/relu
I0729 23:11:48.661278 10431 net.cpp:157] Top shape: 9 1024 41 41 (15492096)
I0729 23:11:48.661285 10431 net.cpp:165] Memory required for data: 4689405144
I0729 23:11:48.661293 10431 layer_factory.hpp:77] Creating layer conv4_3_conv4_3/relu_0_split
I0729 23:11:48.661303 10431 net.cpp:106] Creating Layer conv4_3_conv4_3/relu_0_split
I0729 23:11:48.661311 10431 net.cpp:454] conv4_3_conv4_3/relu_0_split <- conv4_3
I0729 23:11:48.661320 10431 net.cpp:411] conv4_3_conv4_3/relu_0_split -> conv4_3_conv4_3/relu_0_split_0
I0729 23:11:48.661336 10431 net.cpp:411] conv4_3_conv4_3/relu_0_split -> conv4_3_conv4_3/relu_0_split_1
I0729 23:11:48.661387 10431 net.cpp:150] Setting up conv4_3_conv4_3/relu_0_split
I0729 23:11:48.661396 10431 net.cpp:157] Top shape: 9 1024 41 41 (15492096)
I0729 23:11:48.661404 10431 net.cpp:157] Top shape: 9 1024 41 41 (15492096)
I0729 23:11:48.661412 10431 net.cpp:165] Memory required for data: 4813341912
I0729 23:11:48.661418 10431 layer_factory.hpp:77] Creating layer conv4_4_1x1_reduce
I0729 23:11:48.661455 10431 net.cpp:106] Creating Layer conv4_4_1x1_reduce
I0729 23:11:48.661463 10431 net.cpp:454] conv4_4_1x1_reduce <- conv4_3_conv4_3/relu_0_split_0
I0729 23:11:48.661473 10431 net.cpp:411] conv4_4_1x1_reduce -> conv4_4_1x1_reduce
I0729 23:11:48.669648 10431 net.cpp:150] Setting up conv4_4_1x1_reduce
I0729 23:11:48.669667 10431 net.cpp:157] Top shape: 9 256 41 41 (3873024)
I0729 23:11:48.669677 10431 net.cpp:165] Memory required for data: 4828834008
I0729 23:11:48.669687 10431 layer_factory.hpp:77] Creating layer conv4_4_1x1_reduce/bn
I0729 23:11:48.669703 10431 net.cpp:106] Creating Layer conv4_4_1x1_reduce/bn
I0729 23:11:48.669713 10431 net.cpp:454] conv4_4_1x1_reduce/bn <- conv4_4_1x1_reduce
I0729 23:11:48.669734 10431 net.cpp:397] conv4_4_1x1_reduce/bn -> conv4_4_1x1_reduce (in-place)
I0729 23:11:48.669968 10431 net.cpp:150] Setting up conv4_4_1x1_reduce/bn
I0729 23:11:48.669978 10431 net.cpp:157] Top shape: 9 256 41 41 (3873024)
I0729 23:11:48.669984 10431 net.cpp:165] Memory required for data: 4844326104
I0729 23:11:48.669999 10431 layer_factory.hpp:77] Creating layer conv4_4_1x1_reduce/relu
I0729 23:11:48.670011 10431 net.cpp:106] Creating Layer conv4_4_1x1_reduce/relu
I0729 23:11:48.670020 10431 net.cpp:454] conv4_4_1x1_reduce/relu <- conv4_4_1x1_reduce
I0729 23:11:48.670032 10431 net.cpp:397] conv4_4_1x1_reduce/relu -> conv4_4_1x1_reduce (in-place)
I0729 23:11:48.670052 10431 net.cpp:150] Setting up conv4_4_1x1_reduce/relu
I0729 23:11:48.670063 10431 net.cpp:157] Top shape: 9 256 41 41 (3873024)
I0729 23:11:48.670069 10431 net.cpp:165] Memory required for data: 4859818200
I0729 23:11:48.670076 10431 layer_factory.hpp:77] Creating layer conv4_4_3x3
I0729 23:11:48.670091 10431 net.cpp:106] Creating Layer conv4_4_3x3
I0729 23:11:48.670100 10431 net.cpp:454] conv4_4_3x3 <- conv4_4_1x1_reduce
I0729 23:11:48.670117 10431 net.cpp:411] conv4_4_3x3 -> conv4_4_3x3
I0729 23:11:48.688086 10431 net.cpp:150] Setting up conv4_4_3x3
I0729 23:11:48.688103 10431 net.cpp:157] Top shape: 9 256 41 41 (3873024)
I0729 23:11:48.688108 10431 net.cpp:165] Memory required for data: 4875310296
I0729 23:11:48.688118 10431 layer_factory.hpp:77] Creating layer conv4_4_3x3/bn
I0729 23:11:48.688134 10431 net.cpp:106] Creating Layer conv4_4_3x3/bn
I0729 23:11:48.688144 10431 net.cpp:454] conv4_4_3x3/bn <- conv4_4_3x3
I0729 23:11:48.688158 10431 net.cpp:397] conv4_4_3x3/bn -> conv4_4_3x3 (in-place)
I0729 23:11:48.688400 10431 net.cpp:150] Setting up conv4_4_3x3/bn
I0729 23:11:48.688410 10431 net.cpp:157] Top shape: 9 256 41 41 (3873024)
I0729 23:11:48.688416 10431 net.cpp:165] Memory required for data: 4890802392
I0729 23:11:48.688433 10431 layer_factory.hpp:77] Creating layer conv4_4_3x3/relu
I0729 23:11:48.688446 10431 net.cpp:106] Creating Layer conv4_4_3x3/relu
I0729 23:11:48.688454 10431 net.cpp:454] conv4_4_3x3/relu <- conv4_4_3x3
I0729 23:11:48.688468 10431 net.cpp:397] conv4_4_3x3/relu -> conv4_4_3x3 (in-place)
I0729 23:11:48.688482 10431 net.cpp:150] Setting up conv4_4_3x3/relu
I0729 23:11:48.688493 10431 net.cpp:157] Top shape: 9 256 41 41 (3873024)
I0729 23:11:48.688500 10431 net.cpp:165] Memory required for data: 4906294488
I0729 23:11:48.688506 10431 layer_factory.hpp:77] Creating layer conv4_4_1x1_increase
I0729 23:11:48.688525 10431 net.cpp:106] Creating Layer conv4_4_1x1_increase
I0729 23:11:48.688535 10431 net.cpp:454] conv4_4_1x1_increase <- conv4_4_3x3
I0729 23:11:48.688546 10431 net.cpp:411] conv4_4_1x1_increase -> conv4_4_1x1_increase
I0729 23:11:48.696738 10431 net.cpp:150] Setting up conv4_4_1x1_increase
I0729 23:11:48.696753 10431 net.cpp:157] Top shape: 9 1024 41 41 (15492096)
I0729 23:11:48.696760 10431 net.cpp:165] Memory required for data: 4968262872
I0729 23:11:48.696769 10431 layer_factory.hpp:77] Creating layer conv4_4_1x1_increase/bn
I0729 23:11:48.696786 10431 net.cpp:106] Creating Layer conv4_4_1x1_increase/bn
I0729 23:11:48.696796 10431 net.cpp:454] conv4_4_1x1_increase/bn <- conv4_4_1x1_increase
I0729 23:11:48.696810 10431 net.cpp:397] conv4_4_1x1_increase/bn -> conv4_4_1x1_increase (in-place)
I0729 23:11:48.697062 10431 net.cpp:150] Setting up conv4_4_1x1_increase/bn
I0729 23:11:48.697072 10431 net.cpp:157] Top shape: 9 1024 41 41 (15492096)
I0729 23:11:48.697082 10431 net.cpp:165] Memory required for data: 5030231256
I0729 23:11:48.697096 10431 layer_factory.hpp:77] Creating layer conv4_4
I0729 23:11:48.697109 10431 net.cpp:106] Creating Layer conv4_4
I0729 23:11:48.697119 10431 net.cpp:454] conv4_4 <- conv4_3_conv4_3/relu_0_split_1
I0729 23:11:48.697129 10431 net.cpp:454] conv4_4 <- conv4_4_1x1_increase
I0729 23:11:48.697141 10431 net.cpp:411] conv4_4 -> conv4_4
I0729 23:11:48.697191 10431 net.cpp:150] Setting up conv4_4
I0729 23:11:48.697201 10431 net.cpp:157] Top shape: 9 1024 41 41 (15492096)
I0729 23:11:48.697207 10431 net.cpp:165] Memory required for data: 5092199640
I0729 23:11:48.697214 10431 layer_factory.hpp:77] Creating layer conv4_4/relu
I0729 23:11:48.697226 10431 net.cpp:106] Creating Layer conv4_4/relu
I0729 23:11:48.697234 10431 net.cpp:454] conv4_4/relu <- conv4_4
I0729 23:11:48.697249 10431 net.cpp:397] conv4_4/relu -> conv4_4 (in-place)
I0729 23:11:48.697263 10431 net.cpp:150] Setting up conv4_4/relu
I0729 23:11:48.697273 10431 net.cpp:157] Top shape: 9 1024 41 41 (15492096)
I0729 23:11:48.697281 10431 net.cpp:165] Memory required for data: 5154168024
I0729 23:11:48.697288 10431 layer_factory.hpp:77] Creating layer conv4_4_conv4_4/relu_0_split
I0729 23:11:48.697298 10431 net.cpp:106] Creating Layer conv4_4_conv4_4/relu_0_split
I0729 23:11:48.697305 10431 net.cpp:454] conv4_4_conv4_4/relu_0_split <- conv4_4
I0729 23:11:48.697314 10431 net.cpp:411] conv4_4_conv4_4/relu_0_split -> conv4_4_conv4_4/relu_0_split_0
I0729 23:11:48.697329 10431 net.cpp:411] conv4_4_conv4_4/relu_0_split -> conv4_4_conv4_4/relu_0_split_1
I0729 23:11:48.697381 10431 net.cpp:150] Setting up conv4_4_conv4_4/relu_0_split
I0729 23:11:48.697389 10431 net.cpp:157] Top shape: 9 1024 41 41 (15492096)
I0729 23:11:48.697397 10431 net.cpp:157] Top shape: 9 1024 41 41 (15492096)
I0729 23:11:48.697403 10431 net.cpp:165] Memory required for data: 5278104792
I0729 23:11:48.697412 10431 layer_factory.hpp:77] Creating layer conv4_5_1x1_reduce
I0729 23:11:48.697428 10431 net.cpp:106] Creating Layer conv4_5_1x1_reduce
I0729 23:11:48.697438 10431 net.cpp:454] conv4_5_1x1_reduce <- conv4_4_conv4_4/relu_0_split_0
I0729 23:11:48.697453 10431 net.cpp:411] conv4_5_1x1_reduce -> conv4_5_1x1_reduce
I0729 23:11:48.705657 10431 net.cpp:150] Setting up conv4_5_1x1_reduce
I0729 23:11:48.705673 10431 net.cpp:157] Top shape: 9 256 41 41 (3873024)
I0729 23:11:48.705679 10431 net.cpp:165] Memory required for data: 5293596888
I0729 23:11:48.705688 10431 layer_factory.hpp:77] Creating layer conv4_5_1x1_reduce/bn
I0729 23:11:48.705705 10431 net.cpp:106] Creating Layer conv4_5_1x1_reduce/bn
I0729 23:11:48.705715 10431 net.cpp:454] conv4_5_1x1_reduce/bn <- conv4_5_1x1_reduce
I0729 23:11:48.705729 10431 net.cpp:397] conv4_5_1x1_reduce/bn -> conv4_5_1x1_reduce (in-place)
I0729 23:11:48.705966 10431 net.cpp:150] Setting up conv4_5_1x1_reduce/bn
I0729 23:11:48.705976 10431 net.cpp:157] Top shape: 9 256 41 41 (3873024)
I0729 23:11:48.705983 10431 net.cpp:165] Memory required for data: 5309088984
I0729 23:11:48.705999 10431 layer_factory.hpp:77] Creating layer conv4_5_1x1_reduce/relu
I0729 23:11:48.706012 10431 net.cpp:106] Creating Layer conv4_5_1x1_reduce/relu
I0729 23:11:48.706022 10431 net.cpp:454] conv4_5_1x1_reduce/relu <- conv4_5_1x1_reduce
I0729 23:11:48.706032 10431 net.cpp:397] conv4_5_1x1_reduce/relu -> conv4_5_1x1_reduce (in-place)
I0729 23:11:48.706048 10431 net.cpp:150] Setting up conv4_5_1x1_reduce/relu
I0729 23:11:48.706060 10431 net.cpp:157] Top shape: 9 256 41 41 (3873024)
I0729 23:11:48.706068 10431 net.cpp:165] Memory required for data: 5324581080
I0729 23:11:48.706074 10431 layer_factory.hpp:77] Creating layer conv4_5_3x3
I0729 23:11:48.706094 10431 net.cpp:106] Creating Layer conv4_5_3x3
I0729 23:11:48.706104 10431 net.cpp:454] conv4_5_3x3 <- conv4_5_1x1_reduce
I0729 23:11:48.706117 10431 net.cpp:411] conv4_5_3x3 -> conv4_5_3x3
I0729 23:11:48.724326 10431 net.cpp:150] Setting up conv4_5_3x3
I0729 23:11:48.724346 10431 net.cpp:157] Top shape: 9 256 41 41 (3873024)
I0729 23:11:48.724352 10431 net.cpp:165] Memory required for data: 5340073176
I0729 23:11:48.724361 10431 layer_factory.hpp:77] Creating layer conv4_5_3x3/bn
I0729 23:11:48.724375 10431 net.cpp:106] Creating Layer conv4_5_3x3/bn
I0729 23:11:48.724385 10431 net.cpp:454] conv4_5_3x3/bn <- conv4_5_3x3
I0729 23:11:48.724400 10431 net.cpp:397] conv4_5_3x3/bn -> conv4_5_3x3 (in-place)
I0729 23:11:48.724653 10431 net.cpp:150] Setting up conv4_5_3x3/bn
I0729 23:11:48.724665 10431 net.cpp:157] Top shape: 9 256 41 41 (3873024)
I0729 23:11:48.724674 10431 net.cpp:165] Memory required for data: 5355565272
I0729 23:11:48.724690 10431 layer_factory.hpp:77] Creating layer conv4_5_3x3/relu
I0729 23:11:48.724706 10431 net.cpp:106] Creating Layer conv4_5_3x3/relu
I0729 23:11:48.724716 10431 net.cpp:454] conv4_5_3x3/relu <- conv4_5_3x3
I0729 23:11:48.724727 10431 net.cpp:397] conv4_5_3x3/relu -> conv4_5_3x3 (in-place)
I0729 23:11:48.724740 10431 net.cpp:150] Setting up conv4_5_3x3/relu
I0729 23:11:48.724752 10431 net.cpp:157] Top shape: 9 256 41 41 (3873024)
I0729 23:11:48.724759 10431 net.cpp:165] Memory required for data: 5371057368
I0729 23:11:48.724767 10431 layer_factory.hpp:77] Creating layer conv4_5_1x1_increase
I0729 23:11:48.724783 10431 net.cpp:106] Creating Layer conv4_5_1x1_increase
I0729 23:11:48.724792 10431 net.cpp:454] conv4_5_1x1_increase <- conv4_5_3x3
I0729 23:11:48.724803 10431 net.cpp:411] conv4_5_1x1_increase -> conv4_5_1x1_increase
I0729 23:11:48.732960 10431 net.cpp:150] Setting up conv4_5_1x1_increase
I0729 23:11:48.732976 10431 net.cpp:157] Top shape: 9 1024 41 41 (15492096)
I0729 23:11:48.732982 10431 net.cpp:165] Memory required for data: 5433025752
I0729 23:11:48.732992 10431 layer_factory.hpp:77] Creating layer conv4_5_1x1_increase/bn
I0729 23:11:48.733009 10431 net.cpp:106] Creating Layer conv4_5_1x1_increase/bn
I0729 23:11:48.733021 10431 net.cpp:454] conv4_5_1x1_increase/bn <- conv4_5_1x1_increase
I0729 23:11:48.733033 10431 net.cpp:397] conv4_5_1x1_increase/bn -> conv4_5_1x1_increase (in-place)
I0729 23:11:48.733275 10431 net.cpp:150] Setting up conv4_5_1x1_increase/bn
I0729 23:11:48.733288 10431 net.cpp:157] Top shape: 9 1024 41 41 (15492096)
I0729 23:11:48.733292 10431 net.cpp:165] Memory required for data: 5494994136
I0729 23:11:48.733316 10431 layer_factory.hpp:77] Creating layer conv4_5
I0729 23:11:48.733332 10431 net.cpp:106] Creating Layer conv4_5
I0729 23:11:48.733341 10431 net.cpp:454] conv4_5 <- conv4_4_conv4_4/relu_0_split_1
I0729 23:11:48.733350 10431 net.cpp:454] conv4_5 <- conv4_5_1x1_increase
I0729 23:11:48.733367 10431 net.cpp:411] conv4_5 -> conv4_5
I0729 23:11:48.733407 10431 net.cpp:150] Setting up conv4_5
I0729 23:11:48.733419 10431 net.cpp:157] Top shape: 9 1024 41 41 (15492096)
I0729 23:11:48.733427 10431 net.cpp:165] Memory required for data: 5556962520
I0729 23:11:48.733433 10431 layer_factory.hpp:77] Creating layer conv4_5/relu
I0729 23:11:48.733443 10431 net.cpp:106] Creating Layer conv4_5/relu
I0729 23:11:48.733451 10431 net.cpp:454] conv4_5/relu <- conv4_5
I0729 23:11:48.733461 10431 net.cpp:397] conv4_5/relu -> conv4_5 (in-place)
I0729 23:11:48.733474 10431 net.cpp:150] Setting up conv4_5/relu
I0729 23:11:48.733484 10431 net.cpp:157] Top shape: 9 1024 41 41 (15492096)
I0729 23:11:48.733491 10431 net.cpp:165] Memory required for data: 5618930904
I0729 23:11:48.733499 10431 layer_factory.hpp:77] Creating layer conv4_5_conv4_5/relu_0_split
I0729 23:11:48.733510 10431 net.cpp:106] Creating Layer conv4_5_conv4_5/relu_0_split
I0729 23:11:48.733517 10431 net.cpp:454] conv4_5_conv4_5/relu_0_split <- conv4_5
I0729 23:11:48.733530 10431 net.cpp:411] conv4_5_conv4_5/relu_0_split -> conv4_5_conv4_5/relu_0_split_0
I0729 23:11:48.733543 10431 net.cpp:411] conv4_5_conv4_5/relu_0_split -> conv4_5_conv4_5/relu_0_split_1
I0729 23:11:48.733593 10431 net.cpp:150] Setting up conv4_5_conv4_5/relu_0_split
I0729 23:11:48.733603 10431 net.cpp:157] Top shape: 9 1024 41 41 (15492096)
I0729 23:11:48.733610 10431 net.cpp:157] Top shape: 9 1024 41 41 (15492096)
I0729 23:11:48.733618 10431 net.cpp:165] Memory required for data: 5742867672
I0729 23:11:48.733624 10431 layer_factory.hpp:77] Creating layer conv4_6_1x1_reduce
I0729 23:11:48.733644 10431 net.cpp:106] Creating Layer conv4_6_1x1_reduce
I0729 23:11:48.733652 10431 net.cpp:454] conv4_6_1x1_reduce <- conv4_5_conv4_5/relu_0_split_0
I0729 23:11:48.733662 10431 net.cpp:411] conv4_6_1x1_reduce -> conv4_6_1x1_reduce
I0729 23:11:48.741840 10431 net.cpp:150] Setting up conv4_6_1x1_reduce
I0729 23:11:48.741857 10431 net.cpp:157] Top shape: 9 256 41 41 (3873024)
I0729 23:11:48.741866 10431 net.cpp:165] Memory required for data: 5758359768
I0729 23:11:48.741876 10431 layer_factory.hpp:77] Creating layer conv4_6_1x1_reduce/bn
I0729 23:11:48.741892 10431 net.cpp:106] Creating Layer conv4_6_1x1_reduce/bn
I0729 23:11:48.741902 10431 net.cpp:454] conv4_6_1x1_reduce/bn <- conv4_6_1x1_reduce
I0729 23:11:48.741914 10431 net.cpp:397] conv4_6_1x1_reduce/bn -> conv4_6_1x1_reduce (in-place)
I0729 23:11:48.742154 10431 net.cpp:150] Setting up conv4_6_1x1_reduce/bn
I0729 23:11:48.742166 10431 net.cpp:157] Top shape: 9 256 41 41 (3873024)
I0729 23:11:48.742172 10431 net.cpp:165] Memory required for data: 5773851864
I0729 23:11:48.742185 10431 layer_factory.hpp:77] Creating layer conv4_6_1x1_reduce/relu
I0729 23:11:48.742197 10431 net.cpp:106] Creating Layer conv4_6_1x1_reduce/relu
I0729 23:11:48.742207 10431 net.cpp:454] conv4_6_1x1_reduce/relu <- conv4_6_1x1_reduce
I0729 23:11:48.742219 10431 net.cpp:397] conv4_6_1x1_reduce/relu -> conv4_6_1x1_reduce (in-place)
I0729 23:11:48.742233 10431 net.cpp:150] Setting up conv4_6_1x1_reduce/relu
I0729 23:11:48.742244 10431 net.cpp:157] Top shape: 9 256 41 41 (3873024)
I0729 23:11:48.742252 10431 net.cpp:165] Memory required for data: 5789343960
I0729 23:11:48.742259 10431 layer_factory.hpp:77] Creating layer conv4_6_3x3
I0729 23:11:48.742277 10431 net.cpp:106] Creating Layer conv4_6_3x3
I0729 23:11:48.742285 10431 net.cpp:454] conv4_6_3x3 <- conv4_6_1x1_reduce
I0729 23:11:48.742297 10431 net.cpp:411] conv4_6_3x3 -> conv4_6_3x3
I0729 23:11:48.760228 10431 net.cpp:150] Setting up conv4_6_3x3
I0729 23:11:48.760247 10431 net.cpp:157] Top shape: 9 256 41 41 (3873024)
I0729 23:11:48.760251 10431 net.cpp:165] Memory required for data: 5804836056
I0729 23:11:48.760262 10431 layer_factory.hpp:77] Creating layer conv4_6_3x3/bn
I0729 23:11:48.760289 10431 net.cpp:106] Creating Layer conv4_6_3x3/bn
I0729 23:11:48.760299 10431 net.cpp:454] conv4_6_3x3/bn <- conv4_6_3x3
I0729 23:11:48.760311 10431 net.cpp:397] conv4_6_3x3/bn -> conv4_6_3x3 (in-place)
I0729 23:11:48.760551 10431 net.cpp:150] Setting up conv4_6_3x3/bn
I0729 23:11:48.760565 10431 net.cpp:157] Top shape: 9 256 41 41 (3873024)
I0729 23:11:48.760570 10431 net.cpp:165] Memory required for data: 5820328152
I0729 23:11:48.760578 10431 layer_factory.hpp:77] Creating layer conv4_6_3x3/relu
I0729 23:11:48.760586 10431 net.cpp:106] Creating Layer conv4_6_3x3/relu
I0729 23:11:48.760589 10431 net.cpp:454] conv4_6_3x3/relu <- conv4_6_3x3
I0729 23:11:48.760594 10431 net.cpp:397] conv4_6_3x3/relu -> conv4_6_3x3 (in-place)
I0729 23:11:48.760601 10431 net.cpp:150] Setting up conv4_6_3x3/relu
I0729 23:11:48.760607 10431 net.cpp:157] Top shape: 9 256 41 41 (3873024)
I0729 23:11:48.760610 10431 net.cpp:165] Memory required for data: 5835820248
I0729 23:11:48.760614 10431 layer_factory.hpp:77] Creating layer conv4_6_1x1_increase
I0729 23:11:48.760625 10431 net.cpp:106] Creating Layer conv4_6_1x1_increase
I0729 23:11:48.760632 10431 net.cpp:454] conv4_6_1x1_increase <- conv4_6_3x3
I0729 23:11:48.760648 10431 net.cpp:411] conv4_6_1x1_increase -> conv4_6_1x1_increase
I0729 23:11:48.768837 10431 net.cpp:150] Setting up conv4_6_1x1_increase
I0729 23:11:48.768854 10431 net.cpp:157] Top shape: 9 1024 41 41 (15492096)
I0729 23:11:48.768858 10431 net.cpp:165] Memory required for data: 5897788632
I0729 23:11:48.768864 10431 layer_factory.hpp:77] Creating layer conv4_6_1x1_increase/bn
I0729 23:11:48.768872 10431 net.cpp:106] Creating Layer conv4_6_1x1_increase/bn
I0729 23:11:48.768877 10431 net.cpp:454] conv4_6_1x1_increase/bn <- conv4_6_1x1_increase
I0729 23:11:48.768885 10431 net.cpp:397] conv4_6_1x1_increase/bn -> conv4_6_1x1_increase (in-place)
I0729 23:11:48.769156 10431 net.cpp:150] Setting up conv4_6_1x1_increase/bn
I0729 23:11:48.769170 10431 net.cpp:157] Top shape: 9 1024 41 41 (15492096)
I0729 23:11:48.769173 10431 net.cpp:165] Memory required for data: 5959757016
I0729 23:11:48.769187 10431 layer_factory.hpp:77] Creating layer conv4_6
I0729 23:11:48.769202 10431 net.cpp:106] Creating Layer conv4_6
I0729 23:11:48.769217 10431 net.cpp:454] conv4_6 <- conv4_5_conv4_5/relu_0_split_1
I0729 23:11:48.769227 10431 net.cpp:454] conv4_6 <- conv4_6_1x1_increase
I0729 23:11:48.769237 10431 net.cpp:411] conv4_6 -> conv4_6
I0729 23:11:48.769276 10431 net.cpp:150] Setting up conv4_6
I0729 23:11:48.769286 10431 net.cpp:157] Top shape: 9 1024 41 41 (15492096)
I0729 23:11:48.769290 10431 net.cpp:165] Memory required for data: 6021725400
I0729 23:11:48.769296 10431 layer_factory.hpp:77] Creating layer conv4_6/relu
I0729 23:11:48.769305 10431 net.cpp:106] Creating Layer conv4_6/relu
I0729 23:11:48.769312 10431 net.cpp:454] conv4_6/relu <- conv4_6
I0729 23:11:48.769326 10431 net.cpp:397] conv4_6/relu -> conv4_6 (in-place)
I0729 23:11:48.769338 10431 net.cpp:150] Setting up conv4_6/relu
I0729 23:11:48.769348 10431 net.cpp:157] Top shape: 9 1024 41 41 (15492096)
I0729 23:11:48.769354 10431 net.cpp:165] Memory required for data: 6083693784
I0729 23:11:48.769361 10431 layer_factory.hpp:77] Creating layer conv4_6_conv4_6/relu_0_split
I0729 23:11:48.769371 10431 net.cpp:106] Creating Layer conv4_6_conv4_6/relu_0_split
I0729 23:11:48.769377 10431 net.cpp:454] conv4_6_conv4_6/relu_0_split <- conv4_6
I0729 23:11:48.769387 10431 net.cpp:411] conv4_6_conv4_6/relu_0_split -> conv4_6_conv4_6/relu_0_split_0
I0729 23:11:48.769397 10431 net.cpp:411] conv4_6_conv4_6/relu_0_split -> conv4_6_conv4_6/relu_0_split_1
I0729 23:11:48.769455 10431 net.cpp:150] Setting up conv4_6_conv4_6/relu_0_split
I0729 23:11:48.769464 10431 net.cpp:157] Top shape: 9 1024 41 41 (15492096)
I0729 23:11:48.769470 10431 net.cpp:157] Top shape: 9 1024 41 41 (15492096)
I0729 23:11:48.769476 10431 net.cpp:165] Memory required for data: 6207630552
I0729 23:11:48.769482 10431 layer_factory.hpp:77] Creating layer conv5_1_1x1_reduce
I0729 23:11:48.769506 10431 net.cpp:106] Creating Layer conv5_1_1x1_reduce
I0729 23:11:48.769515 10431 net.cpp:454] conv5_1_1x1_reduce <- conv4_6_conv4_6/relu_0_split_0
I0729 23:11:48.769529 10431 net.cpp:411] conv5_1_1x1_reduce -> conv5_1_1x1_reduce
I0729 23:11:48.785487 10431 net.cpp:150] Setting up conv5_1_1x1_reduce
I0729 23:11:48.785504 10431 net.cpp:157] Top shape: 9 512 41 41 (7746048)
I0729 23:11:48.785508 10431 net.cpp:165] Memory required for data: 6238614744
I0729 23:11:48.785514 10431 layer_factory.hpp:77] Creating layer conv5_1_1x1_reduce/bn
I0729 23:11:48.785524 10431 net.cpp:106] Creating Layer conv5_1_1x1_reduce/bn
I0729 23:11:48.785531 10431 net.cpp:454] conv5_1_1x1_reduce/bn <- conv5_1_1x1_reduce
I0729 23:11:48.785540 10431 net.cpp:397] conv5_1_1x1_reduce/bn -> conv5_1_1x1_reduce (in-place)
I0729 23:11:48.785804 10431 net.cpp:150] Setting up conv5_1_1x1_reduce/bn
I0729 23:11:48.785817 10431 net.cpp:157] Top shape: 9 512 41 41 (7746048)
I0729 23:11:48.785821 10431 net.cpp:165] Memory required for data: 6269598936
I0729 23:11:48.785830 10431 layer_factory.hpp:77] Creating layer conv5_1_1x1_reduce/relu
I0729 23:11:48.785838 10431 net.cpp:106] Creating Layer conv5_1_1x1_reduce/relu
I0729 23:11:48.785845 10431 net.cpp:454] conv5_1_1x1_reduce/relu <- conv5_1_1x1_reduce
I0729 23:11:48.785858 10431 net.cpp:397] conv5_1_1x1_reduce/relu -> conv5_1_1x1_reduce (in-place)
I0729 23:11:48.785872 10431 net.cpp:150] Setting up conv5_1_1x1_reduce/relu
I0729 23:11:48.785882 10431 net.cpp:157] Top shape: 9 512 41 41 (7746048)
I0729 23:11:48.785888 10431 net.cpp:165] Memory required for data: 6300583128
I0729 23:11:48.785897 10431 layer_factory.hpp:77] Creating layer conv5_1_3x3
I0729 23:11:48.785914 10431 net.cpp:106] Creating Layer conv5_1_3x3
I0729 23:11:48.785929 10431 net.cpp:454] conv5_1_3x3 <- conv5_1_1x1_reduce
I0729 23:11:48.785940 10431 net.cpp:411] conv5_1_3x3 -> conv5_1_3x3
I0729 23:11:48.856209 10431 net.cpp:150] Setting up conv5_1_3x3
I0729 23:11:48.856261 10431 net.cpp:157] Top shape: 9 512 41 41 (7746048)
I0729 23:11:48.856266 10431 net.cpp:165] Memory required for data: 6331567320
I0729 23:11:48.856276 10431 layer_factory.hpp:77] Creating layer conv5_1_3x3/bn
I0729 23:11:48.856297 10431 net.cpp:106] Creating Layer conv5_1_3x3/bn
I0729 23:11:48.856305 10431 net.cpp:454] conv5_1_3x3/bn <- conv5_1_3x3
I0729 23:11:48.856317 10431 net.cpp:397] conv5_1_3x3/bn -> conv5_1_3x3 (in-place)
I0729 23:11:48.856619 10431 net.cpp:150] Setting up conv5_1_3x3/bn
I0729 23:11:48.856632 10431 net.cpp:157] Top shape: 9 512 41 41 (7746048)
I0729 23:11:48.856637 10431 net.cpp:165] Memory required for data: 6362551512
I0729 23:11:48.856645 10431 layer_factory.hpp:77] Creating layer conv5_1_3x3/relu
I0729 23:11:48.856653 10431 net.cpp:106] Creating Layer conv5_1_3x3/relu
I0729 23:11:48.856658 10431 net.cpp:454] conv5_1_3x3/relu <- conv5_1_3x3
I0729 23:11:48.856663 10431 net.cpp:397] conv5_1_3x3/relu -> conv5_1_3x3 (in-place)
I0729 23:11:48.856673 10431 net.cpp:150] Setting up conv5_1_3x3/relu
I0729 23:11:48.856678 10431 net.cpp:157] Top shape: 9 512 41 41 (7746048)
I0729 23:11:48.856680 10431 net.cpp:165] Memory required for data: 6393535704
I0729 23:11:48.856685 10431 layer_factory.hpp:77] Creating layer conv5_1_1x1_increase
I0729 23:11:48.856704 10431 net.cpp:106] Creating Layer conv5_1_1x1_increase
I0729 23:11:48.856711 10431 net.cpp:454] conv5_1_1x1_increase <- conv5_1_3x3
I0729 23:11:48.856725 10431 net.cpp:411] conv5_1_1x1_increase -> conv5_1_1x1_increase
I0729 23:11:48.888309 10431 net.cpp:150] Setting up conv5_1_1x1_increase
I0729 23:11:48.888325 10431 net.cpp:157] Top shape: 9 2048 41 41 (30984192)
I0729 23:11:48.888329 10431 net.cpp:165] Memory required for data: 6517472472
I0729 23:11:48.888335 10431 layer_factory.hpp:77] Creating layer conv5_1_1x1_increase/bn
I0729 23:11:48.888345 10431 net.cpp:106] Creating Layer conv5_1_1x1_increase/bn
I0729 23:11:48.888350 10431 net.cpp:454] conv5_1_1x1_increase/bn <- conv5_1_1x1_increase
I0729 23:11:48.888358 10431 net.cpp:397] conv5_1_1x1_increase/bn -> conv5_1_1x1_increase (in-place)
I0729 23:11:48.888636 10431 net.cpp:150] Setting up conv5_1_1x1_increase/bn
I0729 23:11:48.888649 10431 net.cpp:157] Top shape: 9 2048 41 41 (30984192)
I0729 23:11:48.888653 10431 net.cpp:165] Memory required for data: 6641409240
I0729 23:11:48.888667 10431 layer_factory.hpp:77] Creating layer conv5_1_1x1_proj
I0729 23:11:48.888686 10431 net.cpp:106] Creating Layer conv5_1_1x1_proj
I0729 23:11:48.888695 10431 net.cpp:454] conv5_1_1x1_proj <- conv4_6_conv4_6/relu_0_split_1
I0729 23:11:48.888707 10431 net.cpp:411] conv5_1_1x1_proj -> conv5_1_1x1_proj
I0729 23:11:48.954008 10431 net.cpp:150] Setting up conv5_1_1x1_proj
I0729 23:11:48.954053 10431 net.cpp:157] Top shape: 9 2048 41 41 (30984192)
I0729 23:11:48.954058 10431 net.cpp:165] Memory required for data: 6765346008
I0729 23:11:48.954068 10431 layer_factory.hpp:77] Creating layer conv5_1_1x1_proj/bn
I0729 23:11:48.954083 10431 net.cpp:106] Creating Layer conv5_1_1x1_proj/bn
I0729 23:11:48.954092 10431 net.cpp:454] conv5_1_1x1_proj/bn <- conv5_1_1x1_proj
I0729 23:11:48.954099 10431 net.cpp:397] conv5_1_1x1_proj/bn -> conv5_1_1x1_proj (in-place)
I0729 23:11:48.954393 10431 net.cpp:150] Setting up conv5_1_1x1_proj/bn
I0729 23:11:48.954406 10431 net.cpp:157] Top shape: 9 2048 41 41 (30984192)
I0729 23:11:48.954411 10431 net.cpp:165] Memory required for data: 6889282776
I0729 23:11:48.954424 10431 layer_factory.hpp:77] Creating layer conv5_1
I0729 23:11:48.954439 10431 net.cpp:106] Creating Layer conv5_1
I0729 23:11:48.954447 10431 net.cpp:454] conv5_1 <- conv5_1_1x1_proj
I0729 23:11:48.954455 10431 net.cpp:454] conv5_1 <- conv5_1_1x1_increase
I0729 23:11:48.954464 10431 net.cpp:411] conv5_1 -> conv5_1
I0729 23:11:48.954510 10431 net.cpp:150] Setting up conv5_1
I0729 23:11:48.954524 10431 net.cpp:157] Top shape: 9 2048 41 41 (30984192)
I0729 23:11:48.954530 10431 net.cpp:165] Memory required for data: 7013219544
I0729 23:11:48.954537 10431 layer_factory.hpp:77] Creating layer conv5_1/relu
I0729 23:11:48.954548 10431 net.cpp:106] Creating Layer conv5_1/relu
I0729 23:11:48.954555 10431 net.cpp:454] conv5_1/relu <- conv5_1
I0729 23:11:48.954571 10431 net.cpp:397] conv5_1/relu -> conv5_1 (in-place)
I0729 23:11:48.954582 10431 net.cpp:150] Setting up conv5_1/relu
I0729 23:11:48.954592 10431 net.cpp:157] Top shape: 9 2048 41 41 (30984192)
I0729 23:11:48.954598 10431 net.cpp:165] Memory required for data: 7137156312
I0729 23:11:48.954605 10431 layer_factory.hpp:77] Creating layer conv5_1_conv5_1/relu_0_split
I0729 23:11:48.954615 10431 net.cpp:106] Creating Layer conv5_1_conv5_1/relu_0_split
I0729 23:11:48.954622 10431 net.cpp:454] conv5_1_conv5_1/relu_0_split <- conv5_1
I0729 23:11:48.954632 10431 net.cpp:411] conv5_1_conv5_1/relu_0_split -> conv5_1_conv5_1/relu_0_split_0
I0729 23:11:48.954643 10431 net.cpp:411] conv5_1_conv5_1/relu_0_split -> conv5_1_conv5_1/relu_0_split_1
I0729 23:11:48.954704 10431 net.cpp:150] Setting up conv5_1_conv5_1/relu_0_split
I0729 23:11:48.954713 10431 net.cpp:157] Top shape: 9 2048 41 41 (30984192)
I0729 23:11:48.954720 10431 net.cpp:157] Top shape: 9 2048 41 41 (30984192)
I0729 23:11:48.954725 10431 net.cpp:165] Memory required for data: 7385029848
I0729 23:11:48.954731 10431 layer_factory.hpp:77] Creating layer conv5_2_1x1_reduce
I0729 23:11:48.954751 10431 net.cpp:106] Creating Layer conv5_2_1x1_reduce
I0729 23:11:48.954759 10431 net.cpp:454] conv5_2_1x1_reduce <- conv5_1_conv5_1/relu_0_split_0
I0729 23:11:48.954777 10431 net.cpp:411] conv5_2_1x1_reduce -> conv5_2_1x1_reduce
I0729 23:11:48.986363 10431 net.cpp:150] Setting up conv5_2_1x1_reduce
I0729 23:11:48.986382 10431 net.cpp:157] Top shape: 9 512 41 41 (7746048)
I0729 23:11:48.986387 10431 net.cpp:165] Memory required for data: 7416014040
I0729 23:11:48.986392 10431 layer_factory.hpp:77] Creating layer conv5_2_1x1_reduce/bn
I0729 23:11:48.986404 10431 net.cpp:106] Creating Layer conv5_2_1x1_reduce/bn
I0729 23:11:48.986409 10431 net.cpp:454] conv5_2_1x1_reduce/bn <- conv5_2_1x1_reduce
I0729 23:11:48.986416 10431 net.cpp:397] conv5_2_1x1_reduce/bn -> conv5_2_1x1_reduce (in-place)
I0729 23:11:48.986696 10431 net.cpp:150] Setting up conv5_2_1x1_reduce/bn
I0729 23:11:48.986707 10431 net.cpp:157] Top shape: 9 512 41 41 (7746048)
I0729 23:11:48.986712 10431 net.cpp:165] Memory required for data: 7446998232
I0729 23:11:48.986726 10431 layer_factory.hpp:77] Creating layer conv5_2_1x1_reduce/relu
I0729 23:11:48.986737 10431 net.cpp:106] Creating Layer conv5_2_1x1_reduce/relu
I0729 23:11:48.986744 10431 net.cpp:454] conv5_2_1x1_reduce/relu <- conv5_2_1x1_reduce
I0729 23:11:48.986753 10431 net.cpp:397] conv5_2_1x1_reduce/relu -> conv5_2_1x1_reduce (in-place)
I0729 23:11:48.986766 10431 net.cpp:150] Setting up conv5_2_1x1_reduce/relu
I0729 23:11:48.986776 10431 net.cpp:157] Top shape: 9 512 41 41 (7746048)
I0729 23:11:48.986783 10431 net.cpp:165] Memory required for data: 7477982424
I0729 23:11:48.986789 10431 layer_factory.hpp:77] Creating layer conv5_2_3x3
I0729 23:11:48.986812 10431 net.cpp:106] Creating Layer conv5_2_3x3
I0729 23:11:48.986820 10431 net.cpp:454] conv5_2_3x3 <- conv5_2_1x1_reduce
I0729 23:11:48.986832 10431 net.cpp:411] conv5_2_3x3 -> conv5_2_3x3
I0729 23:11:49.057195 10431 net.cpp:150] Setting up conv5_2_3x3
I0729 23:11:49.057241 10431 net.cpp:157] Top shape: 9 512 41 41 (7746048)
I0729 23:11:49.057246 10431 net.cpp:165] Memory required for data: 7508966616
I0729 23:11:49.057256 10431 layer_factory.hpp:77] Creating layer conv5_2_3x3/bn
I0729 23:11:49.057272 10431 net.cpp:106] Creating Layer conv5_2_3x3/bn
I0729 23:11:49.057279 10431 net.cpp:454] conv5_2_3x3/bn <- conv5_2_3x3
I0729 23:11:49.057301 10431 net.cpp:397] conv5_2_3x3/bn -> conv5_2_3x3 (in-place)
I0729 23:11:49.057605 10431 net.cpp:150] Setting up conv5_2_3x3/bn
I0729 23:11:49.057616 10431 net.cpp:157] Top shape: 9 512 41 41 (7746048)
I0729 23:11:49.057621 10431 net.cpp:165] Memory required for data: 7539950808
I0729 23:11:49.057631 10431 layer_factory.hpp:77] Creating layer conv5_2_3x3/relu
I0729 23:11:49.057644 10431 net.cpp:106] Creating Layer conv5_2_3x3/relu
I0729 23:11:49.057652 10431 net.cpp:454] conv5_2_3x3/relu <- conv5_2_3x3
I0729 23:11:49.057662 10431 net.cpp:397] conv5_2_3x3/relu -> conv5_2_3x3 (in-place)
I0729 23:11:49.057674 10431 net.cpp:150] Setting up conv5_2_3x3/relu
I0729 23:11:49.057683 10431 net.cpp:157] Top shape: 9 512 41 41 (7746048)
I0729 23:11:49.057690 10431 net.cpp:165] Memory required for data: 7570935000
I0729 23:11:49.057698 10431 layer_factory.hpp:77] Creating layer conv5_2_1x1_increase
I0729 23:11:49.057714 10431 net.cpp:106] Creating Layer conv5_2_1x1_increase
I0729 23:11:49.057723 10431 net.cpp:454] conv5_2_1x1_increase <- conv5_2_3x3
I0729 23:11:49.057734 10431 net.cpp:411] conv5_2_1x1_increase -> conv5_2_1x1_increase
I0729 23:11:49.089289 10431 net.cpp:150] Setting up conv5_2_1x1_increase
I0729 23:11:49.089308 10431 net.cpp:157] Top shape: 9 2048 41 41 (30984192)
I0729 23:11:49.089313 10431 net.cpp:165] Memory required for data: 7694871768
I0729 23:11:49.089318 10431 layer_factory.hpp:77] Creating layer conv5_2_1x1_increase/bn
I0729 23:11:49.089330 10431 net.cpp:106] Creating Layer conv5_2_1x1_increase/bn
I0729 23:11:49.089335 10431 net.cpp:454] conv5_2_1x1_increase/bn <- conv5_2_1x1_increase
I0729 23:11:49.089342 10431 net.cpp:397] conv5_2_1x1_increase/bn -> conv5_2_1x1_increase (in-place)
I0729 23:11:49.089613 10431 net.cpp:150] Setting up conv5_2_1x1_increase/bn
I0729 23:11:49.089625 10431 net.cpp:157] Top shape: 9 2048 41 41 (30984192)
I0729 23:11:49.089630 10431 net.cpp:165] Memory required for data: 7818808536
I0729 23:11:49.089707 10431 layer_factory.hpp:77] Creating layer conv5_2
I0729 23:11:49.089720 10431 net.cpp:106] Creating Layer conv5_2
I0729 23:11:49.089728 10431 net.cpp:454] conv5_2 <- conv5_1_conv5_1/relu_0_split_1
I0729 23:11:49.089737 10431 net.cpp:454] conv5_2 <- conv5_2_1x1_increase
I0729 23:11:49.089747 10431 net.cpp:411] conv5_2 -> conv5_2
I0729 23:11:49.089790 10431 net.cpp:150] Setting up conv5_2
I0729 23:11:49.089800 10431 net.cpp:157] Top shape: 9 2048 41 41 (30984192)
I0729 23:11:49.089804 10431 net.cpp:165] Memory required for data: 7942745304
I0729 23:11:49.089810 10431 layer_factory.hpp:77] Creating layer conv5_2/relu
I0729 23:11:49.089835 10431 net.cpp:106] Creating Layer conv5_2/relu
I0729 23:11:49.089844 10431 net.cpp:454] conv5_2/relu <- conv5_2
I0729 23:11:49.089854 10431 net.cpp:397] conv5_2/relu -> conv5_2 (in-place)
I0729 23:11:49.089864 10431 net.cpp:150] Setting up conv5_2/relu
I0729 23:11:49.089874 10431 net.cpp:157] Top shape: 9 2048 41 41 (30984192)
I0729 23:11:49.089880 10431 net.cpp:165] Memory required for data: 8066682072
I0729 23:11:49.089887 10431 layer_factory.hpp:77] Creating layer conv5_2_conv5_2/relu_0_split
I0729 23:11:49.089900 10431 net.cpp:106] Creating Layer conv5_2_conv5_2/relu_0_split
I0729 23:11:49.089907 10431 net.cpp:454] conv5_2_conv5_2/relu_0_split <- conv5_2
I0729 23:11:49.089916 10431 net.cpp:411] conv5_2_conv5_2/relu_0_split -> conv5_2_conv5_2/relu_0_split_0
I0729 23:11:49.089929 10431 net.cpp:411] conv5_2_conv5_2/relu_0_split -> conv5_2_conv5_2/relu_0_split_1
I0729 23:11:49.089992 10431 net.cpp:150] Setting up conv5_2_conv5_2/relu_0_split
I0729 23:11:49.090000 10431 net.cpp:157] Top shape: 9 2048 41 41 (30984192)
I0729 23:11:49.090005 10431 net.cpp:157] Top shape: 9 2048 41 41 (30984192)
I0729 23:11:49.090011 10431 net.cpp:165] Memory required for data: 8314555608
I0729 23:11:49.090018 10431 layer_factory.hpp:77] Creating layer conv5_3_1x1_reduce
I0729 23:11:49.090039 10431 net.cpp:106] Creating Layer conv5_3_1x1_reduce
I0729 23:11:49.090049 10431 net.cpp:454] conv5_3_1x1_reduce <- conv5_2_conv5_2/relu_0_split_0
I0729 23:11:49.090060 10431 net.cpp:411] conv5_3_1x1_reduce -> conv5_3_1x1_reduce
I0729 23:11:49.121796 10431 net.cpp:150] Setting up conv5_3_1x1_reduce
I0729 23:11:49.121827 10431 net.cpp:157] Top shape: 9 512 41 41 (7746048)
I0729 23:11:49.121832 10431 net.cpp:165] Memory required for data: 8345539800
I0729 23:11:49.121840 10431 layer_factory.hpp:77] Creating layer conv5_3_1x1_reduce/bn
I0729 23:11:49.121848 10431 net.cpp:106] Creating Layer conv5_3_1x1_reduce/bn
I0729 23:11:49.121855 10431 net.cpp:454] conv5_3_1x1_reduce/bn <- conv5_3_1x1_reduce
I0729 23:11:49.121865 10431 net.cpp:397] conv5_3_1x1_reduce/bn -> conv5_3_1x1_reduce (in-place)
I0729 23:11:49.122153 10431 net.cpp:150] Setting up conv5_3_1x1_reduce/bn
I0729 23:11:49.122166 10431 net.cpp:157] Top shape: 9 512 41 41 (7746048)
I0729 23:11:49.122170 10431 net.cpp:165] Memory required for data: 8376523992
I0729 23:11:49.122184 10431 layer_factory.hpp:77] Creating layer conv5_3_1x1_reduce/relu
I0729 23:11:49.122200 10431 net.cpp:106] Creating Layer conv5_3_1x1_reduce/relu
I0729 23:11:49.122207 10431 net.cpp:454] conv5_3_1x1_reduce/relu <- conv5_3_1x1_reduce
I0729 23:11:49.122218 10431 net.cpp:397] conv5_3_1x1_reduce/relu -> conv5_3_1x1_reduce (in-place)
I0729 23:11:49.122231 10431 net.cpp:150] Setting up conv5_3_1x1_reduce/relu
I0729 23:11:49.122241 10431 net.cpp:157] Top shape: 9 512 41 41 (7746048)
I0729 23:11:49.122248 10431 net.cpp:165] Memory required for data: 8407508184
I0729 23:11:49.122256 10431 layer_factory.hpp:77] Creating layer conv5_3_3x3
I0729 23:11:49.122270 10431 net.cpp:106] Creating Layer conv5_3_3x3
I0729 23:11:49.122279 10431 net.cpp:454] conv5_3_3x3 <- conv5_3_1x1_reduce
I0729 23:11:49.122294 10431 net.cpp:411] conv5_3_3x3 -> conv5_3_3x3
I0729 23:11:49.189756 10431 net.cpp:150] Setting up conv5_3_3x3
I0729 23:11:49.189820 10431 net.cpp:157] Top shape: 9 512 41 41 (7746048)
I0729 23:11:49.189823 10431 net.cpp:165] Memory required for data: 8438492376
I0729 23:11:49.189836 10431 layer_factory.hpp:77] Creating layer conv5_3_3x3/bn
I0729 23:11:49.189851 10431 net.cpp:106] Creating Layer conv5_3_3x3/bn
I0729 23:11:49.189857 10431 net.cpp:454] conv5_3_3x3/bn <- conv5_3_3x3
I0729 23:11:49.189869 10431 net.cpp:397] conv5_3_3x3/bn -> conv5_3_3x3 (in-place)
I0729 23:11:49.190158 10431 net.cpp:150] Setting up conv5_3_3x3/bn
I0729 23:11:49.190171 10431 net.cpp:157] Top shape: 9 512 41 41 (7746048)
I0729 23:11:49.190174 10431 net.cpp:165] Memory required for data: 8469476568
I0729 23:11:49.190186 10431 layer_factory.hpp:77] Creating layer conv5_3_3x3/relu
I0729 23:11:49.190212 10431 net.cpp:106] Creating Layer conv5_3_3x3/relu
I0729 23:11:49.190219 10431 net.cpp:454] conv5_3_3x3/relu <- conv5_3_3x3
I0729 23:11:49.190232 10431 net.cpp:397] conv5_3_3x3/relu -> conv5_3_3x3 (in-place)
I0729 23:11:49.190244 10431 net.cpp:150] Setting up conv5_3_3x3/relu
I0729 23:11:49.190253 10431 net.cpp:157] Top shape: 9 512 41 41 (7746048)
I0729 23:11:49.190258 10431 net.cpp:165] Memory required for data: 8500460760
I0729 23:11:49.190263 10431 layer_factory.hpp:77] Creating layer conv5_3_1x1_increase
I0729 23:11:49.190281 10431 net.cpp:106] Creating Layer conv5_3_1x1_increase
I0729 23:11:49.190289 10431 net.cpp:454] conv5_3_1x1_increase <- conv5_3_3x3
I0729 23:11:49.190299 10431 net.cpp:411] conv5_3_1x1_increase -> conv5_3_1x1_increase
I0729 23:11:49.216392 10431 net.cpp:150] Setting up conv5_3_1x1_increase
I0729 23:11:49.216421 10431 net.cpp:157] Top shape: 9 2048 41 41 (30984192)
I0729 23:11:49.216425 10431 net.cpp:165] Memory required for data: 8624397528
I0729 23:11:49.216430 10431 layer_factory.hpp:77] Creating layer conv5_3_1x1_increase/bn
I0729 23:11:49.216440 10431 net.cpp:106] Creating Layer conv5_3_1x1_increase/bn
I0729 23:11:49.216444 10431 net.cpp:454] conv5_3_1x1_increase/bn <- conv5_3_1x1_increase
I0729 23:11:49.216450 10431 net.cpp:397] conv5_3_1x1_increase/bn -> conv5_3_1x1_increase (in-place)
I0729 23:11:49.216703 10431 net.cpp:150] Setting up conv5_3_1x1_increase/bn
I0729 23:11:49.216713 10431 net.cpp:157] Top shape: 9 2048 41 41 (30984192)
I0729 23:11:49.216717 10431 net.cpp:165] Memory required for data: 8748334296
I0729 23:11:49.216729 10431 layer_factory.hpp:77] Creating layer conv5_3
I0729 23:11:49.216740 10431 net.cpp:106] Creating Layer conv5_3
I0729 23:11:49.216747 10431 net.cpp:454] conv5_3 <- conv5_2_conv5_2/relu_0_split_1
I0729 23:11:49.216755 10431 net.cpp:454] conv5_3 <- conv5_3_1x1_increase
I0729 23:11:49.216764 10431 net.cpp:411] conv5_3 -> conv5_3
I0729 23:11:49.216804 10431 net.cpp:150] Setting up conv5_3
I0729 23:11:49.216814 10431 net.cpp:157] Top shape: 9 2048 41 41 (30984192)
I0729 23:11:49.216819 10431 net.cpp:165] Memory required for data: 8872271064
I0729 23:11:49.216822 10431 layer_factory.hpp:77] Creating layer conv5_3/relu
I0729 23:11:49.216831 10431 net.cpp:106] Creating Layer conv5_3/relu
I0729 23:11:49.216837 10431 net.cpp:454] conv5_3/relu <- conv5_3
I0729 23:11:49.216847 10431 net.cpp:397] conv5_3/relu -> conv5_3 (in-place)
I0729 23:11:49.216857 10431 net.cpp:150] Setting up conv5_3/relu
I0729 23:11:49.216866 10431 net.cpp:157] Top shape: 9 2048 41 41 (30984192)
I0729 23:11:49.216871 10431 net.cpp:165] Memory required for data: 8996207832
I0729 23:11:49.216877 10431 layer_factory.hpp:77] Creating layer conv6
I0729 23:11:49.216888 10431 net.cpp:106] Creating Layer conv6
I0729 23:11:49.216895 10431 net.cpp:454] conv6 <- conv5_3
I0729 23:11:49.216907 10431 net.cpp:411] conv6 -> conv6
I0729 23:11:49.224716 10431 net.cpp:150] Setting up conv6
I0729 23:11:49.224730 10431 net.cpp:157] Top shape: 9 150 41 41 (2269350)
I0729 23:11:49.224748 10431 net.cpp:165] Memory required for data: 9005285232
I0729 23:11:49.224755 10431 layer_factory.hpp:77] Creating layer conv6_conv6_0_split
I0729 23:11:49.224761 10431 net.cpp:106] Creating Layer conv6_conv6_0_split
I0729 23:11:49.224764 10431 net.cpp:454] conv6_conv6_0_split <- conv6
I0729 23:11:49.224769 10431 net.cpp:411] conv6_conv6_0_split -> conv6_conv6_0_split_0
I0729 23:11:49.224776 10431 net.cpp:411] conv6_conv6_0_split -> conv6_conv6_0_split_1
I0729 23:11:49.224828 10431 net.cpp:150] Setting up conv6_conv6_0_split
I0729 23:11:49.224839 10431 net.cpp:157] Top shape: 9 150 41 41 (2269350)
I0729 23:11:49.224848 10431 net.cpp:157] Top shape: 9 150 41 41 (2269350)
I0729 23:11:49.224853 10431 net.cpp:165] Memory required for data: 9023440032
I0729 23:11:49.224858 10431 layer_factory.hpp:77] Creating layer label_shrink
I0729 23:11:49.224877 10431 net.cpp:106] Creating Layer label_shrink
I0729 23:11:49.224884 10431 net.cpp:454] label_shrink <- label
I0729 23:11:49.224895 10431 net.cpp:411] label_shrink -> label_shrink
I0729 23:11:49.224946 10431 net.cpp:150] Setting up label_shrink
I0729 23:11:49.224962 10431 net.cpp:157] Top shape: 9 1 41 41 (15129)
I0729 23:11:49.224967 10431 net.cpp:165] Memory required for data: 9023500548
I0729 23:11:49.224972 10431 layer_factory.hpp:77] Creating layer label_shrink_label_shrink_0_split
I0729 23:11:49.224979 10431 net.cpp:106] Creating Layer label_shrink_label_shrink_0_split
I0729 23:11:49.224985 10431 net.cpp:454] label_shrink_label_shrink_0_split <- label_shrink
I0729 23:11:49.224993 10431 net.cpp:411] label_shrink_label_shrink_0_split -> label_shrink_label_shrink_0_split_0
I0729 23:11:49.225004 10431 net.cpp:411] label_shrink_label_shrink_0_split -> label_shrink_label_shrink_0_split_1
I0729 23:11:49.225061 10431 net.cpp:150] Setting up label_shrink_label_shrink_0_split
I0729 23:11:49.225071 10431 net.cpp:157] Top shape: 9 1 41 41 (15129)
I0729 23:11:49.225076 10431 net.cpp:157] Top shape: 9 1 41 41 (15129)
I0729 23:11:49.225080 10431 net.cpp:165] Memory required for data: 9023621580
I0729 23:11:49.225085 10431 layer_factory.hpp:77] Creating layer loss
I0729 23:11:49.225102 10431 net.cpp:106] Creating Layer loss
I0729 23:11:49.225111 10431 net.cpp:454] loss <- conv6_conv6_0_split_0
I0729 23:11:49.225117 10431 net.cpp:454] loss <- label_shrink_label_shrink_0_split_0
I0729 23:11:49.225126 10431 net.cpp:411] loss -> loss
I0729 23:11:49.225148 10431 layer_factory.hpp:77] Creating layer loss
I0729 23:11:49.230695 10431 net.cpp:150] Setting up loss
I0729 23:11:49.230751 10431 net.cpp:157] Top shape: (1)
I0729 23:11:49.230756 10431 net.cpp:160]     with loss weight 1
I0729 23:11:49.230792 10431 net.cpp:165] Memory required for data: 9023621584
I0729 23:11:49.230798 10431 layer_factory.hpp:77] Creating layer accuracy
I0729 23:11:49.230816 10431 net.cpp:106] Creating Layer accuracy
I0729 23:11:49.230824 10431 net.cpp:454] accuracy <- conv6_conv6_0_split_1
I0729 23:11:49.230834 10431 net.cpp:454] accuracy <- label_shrink_label_shrink_0_split_1
I0729 23:11:49.230845 10431 net.cpp:411] accuracy -> accuracy
I0729 23:11:49.231017 10431 net.cpp:150] Setting up accuracy
I0729 23:11:49.231058 10431 net.cpp:157] Top shape: 1 1 1 3 (3)
I0729 23:11:49.231062 10431 net.cpp:165] Memory required for data: 9023621596
I0729 23:11:49.231067 10431 net.cpp:228] accuracy does not need backward computation.
I0729 23:11:49.231073 10431 net.cpp:226] loss needs backward computation.
I0729 23:11:49.231081 10431 net.cpp:228] label_shrink_label_shrink_0_split does not need backward computation.
I0729 23:11:49.231086 10431 net.cpp:228] label_shrink does not need backward computation.
…
